robot_nav/robot_nav/models/CNNTD3/checkpoint/CNNTD3_actor.pth (torch, 550561 bytes, 16 tensors)

cnn1.weight f4 [4, 1, 8]
-0.021194618 0.028020594 0.20313337 0.022216091 -0.028172065 0.22270656 0.121431895 0.38797012
-0.18637739 -0.30528268 -0.22236532 -0.041414622 -0.068006806 -0.2734796 -0.015795173 0.028317932
-0.3243757 0.06849253 -0.2639202 -0.25262484 -0.23401862 0.06095382 -0.23763491 -0.27219418
-0.5330144 -0.40495867 -0.027693104 -0.05142386 -0.54697585 -0.19325294 -0.29270974 -0.23934703
00000000: 56a0 adbc 728b e53c 3202 503e 85fe b53c
00000010: 1ac9 e6bc 300d 643e 49b1 f83d 05a4 c63e
00000020: b7d9 3ebe 034e 9cbe bcb3 63be 61a2 29bd
00000030: 2747 8bbd 8505 8cbe e164 81bc 02fb e73c
00000040: 9214 a6be d045 8c3d 8c20 87be 0b58 81be
00000050: 94a2 6fbe b6aa 793d 9156 73be 095d 8bbe
00000060: a273 08bf be56 cfbe a6dc e2bc d3a1 52bd
00000070: 9c06 0cbf 19e4 45be 0dde 95be 6317 75be

cnn1.bias f4 [4]
0.30438843 0.41183692 -0.26161447 -0.21159397
00000000: cdd8 9b3e 4adc d23e 55f2 85be 17ac 58be

cnn2.weight f4 [8, 4, 8]
0.021920677 0.122449845 0.21990037 -0.012987602 -0.013999134 0.04648016 0.10228086 -0.11563533
-0.188844 -0.019156972 -0.34574568 -0.40760604 -0.306431 -0.26715237 -0.07207404 0.041958883
-0.12968159 -0.003386942 0.052345797 -0.10165696 0.055835728 0.070671454 0.03174558 0.0831618
-0.120487384 0.049319517 0.016826423 -0.24179247 -0.02854381 0.047546953 0.12171068 -0.15669331
0.07987681 0.030672543 0.05305422 -0.0011947609 -0.0025775677 -0.14451385 0.11410085 -0.09953548
0.19809474 0.08750686 0.35022438 0.07874654 0.29761046 0.12680659 0.31021968 0.34302536
-0.05915996 -0.080942266 0.09626566 -0.0056387703 0.11393943 -0.12855563 0.19728115 0.16712436
0.1144427 -0.06125839 -0.05741375 -0.028105132 0.08906744 -0.028567003 -0.033032045 0.09142664
-0.07392906 0.07511708 0.122895695 0.086529024 0.027342482 -0.06123302 0.038632486 -0.16161852
0.16270952 0.21592721 0.26410216 0.1142388 0.14221646 0.04499338 0.16568194 0.293047
-0.045522723 0.121730685 0.071526356 0.0020994777 0.12073316 0.02585716 0.25570726 0.27846646
-0.112338364 0.047702365 0.038069412 0.30284876 0.08594651 0.34644488 0.36375606 0.36220726
0.18881819 0.067363754 0.18858741 0.07959315 0.12821507 0.21617326 0.17681853 0.16742857
-0.30573386 -0.29686138 -0.07568435 -0.17137411 -0.24425894 -0.24487393 0.019541098 -0.19732186
-0.0010622415 0.005496881 0.033198074 -0.15168808 -0.26398414 -0.15396978 -0.15450954 -0.03512038
-0.2822607 -0.32586527 -0.17958476 -0.22312973 -0.15790428 0.035573136 -0.23548284 -0.1329785
0.018990023 -0.10355768 -0.015059028 -0.0968017 -0.057960663 -0.05833053 -0.17492707 0.093049005
0.022020765 0.09494156 -0.051126868 -0.012107323 0.0064096455 0.09542584 0.04118902 -0.025359085
-0.15826702 0.11120163 0.022134144 -0.17727625 -0.10862616 0.080173366 0.07325938 0.21286136
0.008412333 -0.108774684 0.024123235 -0.094906226 0.002412085 -0.10124643 0.20323022 0.11783811
-0.061582606 -0.12352741 0.014369376 -0.10886611 0.114322156 0.044154573 -0.12242964 0.08921082
0.30149218 0.10206806 0.066844165 0.23101418 0.15965435 0.17649822 0.27265403 0.1175138
0.041716576 0.044418044 -0.10932015 0.2055863 0.117899425 -0.0573105 0.10629888 -0.0048889574
0.22584376 -0.08007016 0.03471717 0.13284284 -0.112128355 0.2145839 0.0054743346 0.10346246
0.0031103026 0.022646155 0.17959489 -0.026626578 0.095141664 0.10028978 0.04057328 0.082917534
-0.014446047 -0.18462 -0.07164329 -0.032174233 0.046329945 0.015647382 -0.21357559 -0.29922226
-0.08241675 -0.12339399 -0.10620489 -0.0031741436 -0.056199905 -0.184972 -0.35009292 -0.34222195
-0.20230624 -0.1679927 -0.27055076 -0.16635965 -0.07223898 -0.23848729 -0.124999516 -0.097004704
-0.055981997 -0.046524845 -0.024461074 0.114537284 -0.07545043 0.15426458 0.02024762 -0.04023141
0.27994952 0.2922978 0.27264795 0.31840256 0.18984342 0.3080766 0.29917914 0.40988275
0.10736612 0.13706231 -0.146717 0.015056172 0.020314753 -0.14600463 0.09420778 -0.14252548
0.12725724 0.14698537 0.031139929 0.14012207 0.07099787 0.19427621 0.14350913 0.11050058
00000000: fe92 b33c fcc6 fa3d 902d 613e f3c9 54bc
00000010: a05c 65bc fb61 3e3d a178 d13d 37d2 ecbd
00000020: 5260 41be 15ef 9cbc 9405 b1be bdb1 d0be
00000030: 86e4 9cbe 32c8 88be 8e9b 93bd 14dd 2b3d
00000040: 40cb 04be 75f7 5dbb 8c68 563d 8631 d0bd
00000050: 01b4 643d 32bc 903d a707 023d bc50 aa3d
00000060: 17c2 f6bd 4303 4a3d 91d7 893c 7298 77be
00000070: b5d4 e9bc 98c0 423d 7343 f93d 3674 20be
00000080: 7496 a33d fc44 fb3c 624f 593d 8699 9cba
00000090: 69ec 28bb 70fb 13be b5ad e93d 42d9 cbbd
000000a0: 59d9 4a3e cc36 b33d 9c50 b33e de45 a13d
000000b0: 6660 983e 96d9 013e 1dd5 9e3e 05a1 af3e
000000c0: b751 72bd 0fc5 a5bd ee26 c53d 6fc5 b8bb
000000d0: 1359 e93d 16a4 03be 1204 4a3e a622 2b3e
000000e0: ef60 ea3d 14ea 7abd ae2a 6bbd bc3c e6bc
000000f0: fd68 b63d 5905 eabc 9c4c 07bd e43d bb3d
00000100: 1e68 97bd fcd6 993d bdb0 fb3d 2136 b13d
00000110: 57fd df3c 7acf 7abd 193d 1e3d 537f 25be
00000120: 539d 263e 061c 5d3e 6638 873e 08f6 e93d
00000130: 31a1 113e fa4a 383d 87a8 293e 420a 963e
00000140: 0976 3abd f04d f93d 697c 923d 6497 093b
00000150: f242 f73d 65d2 d33c 10ec 823e 2893 8e3e
00000160: a811 e6bd 8e63 433d acee 1b3d fe0e 9b3e
00000170: b904 b03d 3961 b13e 3c3e ba3e 3b73 b93e
00000180: 8e59 413e 02f6 893d 0f1d 413e bc01 a33d
00000190: d04a 033e 865c 5d3e eb0f 353e 6572 2b3e
000001a0: 2689 9cbe 37fe 97be 6600 9bbd b27c 2fbe
000001b0: 041f 7abe 3bc0 7abe a714 a03c be0e 4abe
000001c0: e93a 8bba 2e1f b43b b4fa 073d 1f54 1bbe
000001d0: ee28 87be 41aa 1dbe c037 1ebe 63da 0fbd
000001e0: 7984 90be d0d7 a6be 11e5 37be 1f7c 64be
000001f0: a9b1 21be 23b5 113d 6a22 71be 842b 08be
00000200: f790 9b3c 0d16 d4bd 24ba 76bc f83f c6bd
00000210: 2968 6dbd feeb 6ebd 1520 33be 7a90 be3d
00000220: e464 b43c b870 c23d 686a 51bd cb5d 46bc
00000230: 0108 d23b 9f6e c33d d1b5 283d dbbd cfbc
00000240: c010 22be aebd e33d aa52 b53c e887 35be
00000250: 6477 debd ef31 a43d 0409 963d 54f8 593e
00000260: e2d3 093c 43c5 debd 179e c53c 325e c2bd
00000270: 1214 1e3b 4a5a cfbd 951b 503e 1b55 f13d
00000280: 0b3e 7cbd f0fb fcbd 886d 6b3c 32f5 debd
00000290: bc21 ea3d 6ddb 343d 64bc fabd 2ab4 b63d
000002a0: 2f5d 9a3e 0f09 d13d 98e5 883d fb8e 6c3e
000002b0: 6e7c 233e f3bb 343e 4f99 8b3e 13ab f03d
000002c0: 00df 2a3d b2ef 353d 3ee3 dfbd 3785 523e
000002d0: 4175 f13d 6abe 6abd 3ab3 d93d 8c33 a0bb
000002e0: 9643 673e d3fb a3bd 9733 0e3d f407 083e
000002f0: 8da3 e5bd e2bb 5b3e 0c62 b33b 20e4 d33d
00000300: 38d6 4b3b 6e84 b93c b9e7 373e fb1f dabc
00000310: a2d9 c23d ba64 cd3d 2b30 263d abd0 a93d
00000320: 1daf 6cbc 060d 3dbe b8b9 92bd 21c9 03bd
00000330: 78c4 3d3d f02e 803c 8fb3 5abe a933 99be
00000340: 1dca a8bd fdb5 fcbd f381 d9bd 4b05 50bb
00000350: df31 66bd 4d69 3dbe 613f b3be b737 afbe
00000360: 5e29 4fbe 4706 2cbe a185 8abe 2f5a 2abe
00000370: 08f2 93bd 0336 74be bfff ffbd 67aa c6bd
00000380: 614d 65bd d690 3ebd 9762 c8bc 8692 ea3d
00000390: c185 9abd 89f7 1d3e 56de a53c b1c9 24bd
000003a0: 8b55 8f3e 0fa8 953e 8398 8b3e a905 a33e
000003b0: 5066 423e 37bc 9d3e 022e 993e 27dc d13e
000003c0: c5e2 db3d 105a 0c3e fb3c 16be 2aae 763c
000003d0: 206b a63c 3d82 15be 02f0 c03d 33f2 11be
000003e0: b94f 023e 5583 163e 2a19 ff3c 297c 0f3e
000003f0: 5567 913d 58f0 463e 0ff4 123e 214e e23d

cnn2.bias f4 [8]
0.18331654 -0.07066608 0.17523901 -0.004680041 0.22526602 0.22877294 0.19292578 0.03487912
00000000: 55b7 3b3e 61b9 90bd db71 333e 085b 99bb
00000010: 23ac 663e 7443 6a3e 568e 453e 68dd 0e3d

cnn3.weight f4 [4, 8, 4]
0.18009654 -0.10586798 0.045028716 -0.1669163 0.0027130584 0.008940482 -0.1046216 0.025189077
0.090371564 0.15893273 -0.002388228 -0.06799835 0.283469 0.13981622 0.17713505 0.096272364
-0.14252308 0.08246567 -0.029812671 -0.10675815 -0.059971105 -0.16543664 -0.08179728 -0.095680736
0.21315236 0.23633577 0.14725663 0.24559046 -0.08004704 0.13839296 -0.09871293 0.083001204
0.1121257 0.14666657 0.24538366 0.020917544 0.21994793 -0.016872989 -0.056813188 0.33650827
0.15617003 0.086267345 0.02509731 0.27741045 0.07899744 -0.081615545 -0.1353443 -0.18537635
0.0019188512 -0.042589583 0.10546703 0.30299315 0.35976884 0.37837857 0.18080404 0.17970435
-0.05593753 -0.05284683 -0.07571948 -0.006772572 0.2186031 0.19967979 0.066999 0.21971577
0.076303914 0.2723871 0.13614455 0.21634763 0.24686138 0.15948461 0.20160456 0.20466937
0.14758494 0.008168432 -0.057596 0.043357268 -0.18174641 0.029575482 -0.031113721 -0.061548315
-0.06613505 0.037641805 0.035309773 -0.0265889 0.25437555 0.12676091 0.18158415 0.19690183
-0.08686942 -0.11944723 -0.08980424 -0.23389928 0.07874813 0.21653408 0.05068564 0.1829172
-0.13712804 0.0026953567 0.011026392 0.09662502 0.30061397 -0.0923076 -0.19406117 -0.21485496
0.13346612 0.06616986 0.060566027 0.014164266 -0.08040505 -0.18373832 -0.11037635 0.22095679
0.31351924 0.04965335 -0.062238596 0.030707067 0.22985186 0.07647024 0.15850203 -0.14079358
-0.0069193724 0.120127074 0.1396158 0.05280404 0.37929145 0.25536188 -0.012149936 0.09211327
00000000: 3a6b 383e 50d1 d8bd 0870 383d 1bec 2abe
00000010: 91cd 313b 197b 123c d943 d6bd 5359 ce3c
00000020: ba14 b93d 43bf 223e d183 1cbb b842 8bbd
00000030: d922 913e fc2b 0f3e e462 353e 722a c53d
00000040: 92f1 11be c3e3 a83d b439 f4bc 04a4 dabd
00000050: 43a4 75bd 3968 29be 5585 a7bd 43f4 c3bd
00000060: 9d44 5a3e 0102 723e 71ca 163e 117c 7b3e
00000070: b4ef a3bd e2b6 0d3e 012a cabd 89fc a93d
00000080: 29a2 e53d c32f 163e db45 7b3e 455b ab3c
00000090: 083a 613e 3939 8abc f2b4 68bd d04a ac3e
000000a0: 09eb 1f3e efac b03d e098 cd3c be08 8e3e
000000b0: 69c9 a13d 0d26 a7bd b297 0abe 4cd3 3dbe
000000c0: f681 fb3a 6a72 2ebd 19ff d73d eb21 9b3e
000000d0: 9f33 b83e d6ba c13e b224 393e 6b04 383e
000000e0: c01e 65bd eb75 58bd d112 9bbd 74ec ddbb
000000f0: 7ed9 5f3e dc78 4c3e c636 893d 2cfd 603e
00000100: 3a45 9c3d 5276 8b3e 7a69 0b3e 3c8a 5d3e
00000110: 3bc9 7c3e ef4f 233e 6d71 4e3e d994 513e
00000120: 8220 173e e3d4 053c c9e9 6bbd 6497 313d
00000130: bb1b 3abe 4848 f23c 34e2 febc 161a 7cbd
00000140: d071 87bd 4b2e 1a3d fba0 103d f7d0 d9bc
00000150: 833d 823e 9dcd 013e 32f1 393e a2a0 493e
00000160: 98e8 b1bd c0a0 f4bd 49eb b7bd 4b83 6fbe
00000170: b346 a13d 1cbb 5d3e bf9b 4f3d a54e 3b3e
00000180: 4b6b 0cbe 95a4 303b 0aa8 343c 57e3 c53d
00000190: 13ea 993e c40b bdbd f9b7 46be f002 5cbe
000001a0: 58ab 083e 1084 873d 1514 783d 3d11 683c
000001b0: 67ab a4bd e625 3cbe ff0c e2bd 7f42 623e
000001c0: 9885 a03e 5061 4b3d e6ed 7ebd 638d fb3c
000001d0: 495e 6b3e 6e9c 9c3d 5b4e 223e 312c 10be
000001e0: e7bb e2bb 2f05 f63d 72f7 0e3e 0d49 583d
000001f0: 7d32 c23e cbbe 823e 8610 47bc e2a5 bc3d

cnn3.bias f4 [4]
0.0006350756 0.01785683 0.1676946 0.11603175
00000000: 347b 263a 7d48 923c 22b8 2b3e 0ea2 ed3d

goal_embed.weight f4 [10, 3]
-0.645248 0.21082333 -0.65580326 0.7125597 -0.35397816 -0.1704461 0.6784184 0.49176145
0.4884415 0.16439088 -0.38415128 -0.24196751 0.41528207 0.51870984 -0.33071133 0.7029699
0.33019087 0.7276956 -0.89533275 0.5296176 0.18065399 -0.19557334 -0.5221263 0.68513143
-0.24213804 0.42743614 0.30112553 1.0232271 0.3499066 -0.33549738
00000000: f92e 25bf 12e2 573e b9e2 27bf 506a 363f
00000010: a03c b5be 6c89 2ebe d4ac 2d3f 28c8 fb3e
00000020: 0115 fa3e 1556 283e 7aaf c4be 55c6 77be
00000030: da9f d43e 2bca 043f ff52 a9be d6f5 333f
00000040: c70e a93e 424a 3a3f 8734 65bf 0595 073f
00000050: 5cfd 383e 6144 48be 12aa 05bf c664 2f3f
00000060: 09f3 77be e9d8 da3e 202d 9a3e 1bf9 823f
00000070: f526 b33e 50c6 abbe

goal_embed.bias f4 [10]
0.57602185 0.3431628 0.4681689 0.056913916 0.24653047 -0.16796446 0.21422964 0.640132
0.50219476 0.1474091
00000000: 2b76 133f 09b3 af3e d6b3 ef3e 911e 693d
00000010: 7c72 7c3e e0fe 2bbe 045f 5b3e b1df 233f
00000020: d68f 003f 69f2 163e

action_embed.weight f4 [10, 2]
-0.645471 0.26028875 0.36491585 0.44743663 -0.15028359 0.4131178 0.45961 0.57880116
-0.4634001 -0.7175973 -0.47516564 -0.4942075 -0.27616286 -0.21219882 0.75674665 -0.15080553
-0.6449997 -0.49962965 -0.6763526 -0.25743213
00000000: 963d 25bf 9144 853e 40d6 ba3e 6a16 e53e
00000010: f1e3 19be 2d84 d33e 0052 eb3e 502c 143f
00000020: c742 edbe 75b4 37bf e948 f3be c408 fdbe
00000030: 3865 8dbe a64a 59be 26ba 413f c46c 1abe
00000040: b31e 25bf 75cf ffbe 7225 2dbf 25ce 83be

action_embed.bias f4 [10]
-0.393131 0.102334924 0.33750677 -0.22620197 0.33172753 -0.26872292 0.4991906 -0.2703419
-0.39707103 -0.12609923
00000000: 7748 c9be f994 d13d b0cd ac3e 7da1 67be
00000010: 31d8 a93e 0d96 89be e995 ff3e 416a 8abe
00000020: e54c cbbe 2820 01be

layer_1.weight f4 [400, 36]
-0.18313886 -0.11526979 -0.16815467 0.19837195 -0.2334121 0.18395458 0.04011109 0.108078085
-0.33185458 0.46142688 -0.027468879 0.16879094 -0.47235894 -0.20362553 0.046738178 -0.13092966
0.1876806 0.17991872 0.3160404 0.3943862 -0.013221462 -0.35486454 -0.5167213 -0.23852748
0.10516134 0.09688309 0.18835208 0.17730126 0.0030070771 -0.29279846 0.45236632 -0.017937927
-0.18696035 0.40959063 0.2639043 -0.31277615 0.25302768 -0.17652437 -0.19485936 0.080442674
-0.24823803 -0.17472467 -0.1281043 0.30182138 -0.1708109 0.33854628 0.19822215 0.05979344
0.26447803 0.029678706 -0.11465706 -0.36670825 0.16376701 -0.100223646 0.2763422 -0.15330848
-0.32727164 0.21980532 0.1073624 -0.40302134 -0.31914982 0.015613245 0.22145556 0.35092103
-0.033422615 -0.15098849 0.44901597 0.21745564 0.47096005 -0.14612414 -0.44933623 0.14349997
-0.23520356 0.05946081 0.050875943 -0.37290314 0.48439637 0.06302631 0.63240534 0.27235836
-0.16139649 -0.1769687 0.1236885 -0.08489497 0.111736454 -0.20810808 -0.36237568 0.4612418
-0.07730009 -0.15946253 0.13353784 0.050498463 -0.29062563 0.40661272 -0.18369383 0.2134173
-0.30087882 0.09715685 -0.32635587 0.1970647 0.41456592 -0.24134304 0.36473462 0.015946187
0.17213373 -0.188573 -0.24971649 0.09229234 -0.21388552 -0.18793476 -0.13261594 -0.0063044075
0.49206346 0.09553764 0.031193754 -0.2613506 0.37040147 -0.4602883 0.10720113 0.027643649
0.41623715 -0.2311372 -0.38203594 -0.012936569 0.2783748 -0.44475657 0.06972104 0.18017894
0.17024057 0.28076714 0.34408504 0.058491223 0.31268042 -0.49003476 0.1921174 0.20054197
-0.20294294 0.224198 -0.4533434 0.40981063 -0.225688 0.001740266 -0.08164878 0.21375772
0.31838977 0.15465857 0.04768519 0.16202891 0.18825962 -0.014109911 -0.14142983 -0.52779764
0.28798807 0.27682954 -0.32636267 -0.4263238 0.34105173 -0.39507747 -0.41539052 0.13830028
-0.37180215 -0.3969488 0.18095998 0.21688771 0.32070333 0.4608271 -0.041667864 0.017448215
-0.37192634 0.24692883 0.43755168 0.30819798 -0.3248232 -0.046789616 -0.18404093 -0.04852693
-0.0012600443 0.23087953 0.41572967 -0.07637762 0.3199354 -0.40808153 0.15295501 -0.16623592
0.4172969 -0.091435894 0.027763875 0.4409754 0.09798903 -0.3109359 -0.3403964 0.38987705
0.24085928 -0.21879598 -0.28585845 -0.3009443 0.40754852 0.42433628 0.11622241 -0.012952532
0.27948692 0.021886893 -0.5865978 -0.06671518 -0.06888708 0.24050891 0.17868976 0.061110374
-0.12519181 -0.23578098 0.21288382 -0.1435332 0.3423027 0.28004184 -0.16194502 0.32425937
-0.34694865 0.28987324 -0.061937854 0.21618727 0.14234444 0.0307273 0.16356868 -0.0017531331
-0.1222404 0.19780782 0.37929618 -0.08035029 -0.31199825 -0.32501826 -0.08511365 0.2953473
0.1537266 -0.30238983 0.08683851 0.1573417 0.16469738 -0.2996169 0.36982107 -0.19853598
-0.2193256 0.081757545 -0.010876928 -0.121859044 -0.33439216 0.3323491 0.12092899 -0.119965635
-0.12881415 -0.25246304 0.30565086 0.32551813 0.23978187 -0.3893818 -0.36833388 -0.084253676
00000000: c188 3bbe 9112 ecbd bd30 2cbe 0422 4b3e
00000010: 9503 6fbe 975e 3c3e 874b 243d 0b58 dd3d
00000020: d8e8 a9be 2540 ec3e 6a06 e1bc 88d7 2c3e
00000030: 08d9 f1be 3683 50be 8870 3f3d 6d12 06be
00000040: 582f 403e 9d3c 383e 0cd0 a13e fdec c93e
00000050: d59e 58bc ceb0 b5be d947 04bf 8c40 74be
00000060: d45e d73d a46a c63d 5edf 403e 768e 353e
00000070: 6212 453b aee9 95be 8f9c e73e 8ff2 92bc
00000080: 8972 3fbe ddb5 d13e 771e 873e 3224 a0be
00000090: d88c 813e cec2 34be 3689 47be 21bf a43d
000000a0: 1c32 7ebe 06eb 32be c62d 03be 5588 9a3e
000000b0: 0de9 2ebe f055 ad3e bffa 4a3e f7e9 743d
000000c0: aa69 873e c220 f33c 52d1 eabd 2fc1 bbbe
000000d0: 8ab2 273e 0e42 cdbd ba7c 8d3e e6fc 1cbe
000000e0: 2690 a7be a514 613e d1e0 db3d d058 cebe
000000f0: 9b67 a3be b2ce 7f3c 3fc5 623e ecab b33e
00000100: 27e6 08bd ba9c 1abe 6ce5 e53e b1ac 5e3e
00000110: ad21 f13e 91a1 15be 660f e6be a8f1 123e
00000120: 34d9 70be 2e8d 733d 4b63 503d 29ed bebe
00000130: cd02 f83e f013 813d 51e5 213f 8e72 8b3e
00000140: 1f45 25be 4837 35be 6550 fd3d 6add adbd
00000150: 15d6 e43d 491a 55be 4e89 b9be e327 ec3e
00000160: 824f 9ebd 254a 23be 25be 083e 7ad7 4e3d
00000170: e2cc 94be 8b2f d03e 3c1a 3cbe 118a 5a3e
00000180: ca0c 9abe 2cfa c63d 1e18 a7be 54cb 493e
00000190: fc41 d43e a122 77be 7fbe ba3e 94a1 823c
000001a0: d343 303e 4819 41be aeb5 7fbe c403 bd3d
000001b0: ce04 5bbe f871 40be 79cc 07be 3495 cebb
000001c0: beef fb3e 3da9 c33d 0b8a ff3c bfcf 85be
000001d0: 43a5 bd3e e8aa ebbe 448c db3d ef74 e23c
000001e0: 091d d53e 3baf 6cbe 379a c3be e7f3 53bc
000001f0: 2487 8e3e 22b7 e3be e8c9 8e3d d480 383e
00000200: 8b53 2e3e b6c0 8f3e ea2b b03e 7e94 6f3d
00000210: a617 a03e d6e5 fabe 6cba 443e e05a 4d3e
00000220: 46d0 4fbe 2994 653e a01c e8be b3d2 d13e
00000230: c11a 67be a319 e43a 7a37 a7bd 4ee3 5a3e
00000240: fc03 a33e d15e 1e3e 8c51 433d e8ea 253e
00000250: 21c7 403e 422d 67bc fbd2 10be bf1d 07bf
00000260: 2c73 933e 9abc 8d3e 0219 a7be 1d47 dabe
00000270: 559e ae3e 9847 cabe 11ae d4be 979e 0d3e
00000280: da5c bebe e03c cbbe 934d 393e d017 5e3e
00000290: 3a33 a43e 88f1 eb3e ecab 2abd 8fef 8e3c
000002a0: 216d bebe e9da 7c3e c606 e03e 20cc 9d3e
000002b0: 3a4f a6be 78a6 3fbd 3a75 3cbe 2dc4 46bd
000002c0: 1228 a5ba af6b 6c3e 85da d43e df6b 9cbd
000002d0: 93ce a33e 10f0 d0be 3da0 1c3e c039 2abe
000002e0: f0a7 d53e be42 bbbd 1171 e33c 87c7 e13e
000002f0: 79ae c83d fe32 9fbe 7048 aebe f79d c73e
00000300: d1a3 763e 0e0c 60be 0a5c 92be 5f15 9abe
00000310: 33aa d03e 9b42 d93e 0406 ee3d db36 54bc
00000320: e918 8f3e 244c b33c 462b 16bf f8a1 88bd
00000330: ab14 8dbd f847 763e 73fa 363e df4e 7a3d
00000340: 4832 00be 9270 71be 37fe 593e 5efa 12be
00000350: 4d42 af3e a561 8f3e ead4 25be 5305 a63e
00000360: 41a3 b1be 446a 943e 8cb2 7dbd 3260 5d3e
00000370: bec2 113e d2b7 fb3c 8c7e 273e 63c9 e5ba
00000380: 2d59 fabd 228e 4a3e 1c33 c23e b18e a4bd
00000390: 3cbe 9fbe cb68 a6be 1150 aebd c337 973e
000003a0: 816a 1d3e d7d2 9abe 64d8 b13d 2f1e 213e
000003b0: 6ea6 283e 6367 99be 3059 bd3e 044d 4bbe
000003c0: e496 60be 8070 a73d 2535 32bc 3c91 f9bd
000003d0: 7335 abbe a929 aa3e 9ea9 f73d 8bb0 f5bd
000003e0: dbe7 03be d642 81be 457e 9c3e 50aa a63e
000003f0: 6189 753e 0d5d c7be 4296 bcbe 318d acbd

layer_1.bias f4 [400]
-0.093753934 0.06746178 0.09389402 0.058976136 0.023438366 0.08897173 0.11706234 0.13014078
0.020540241 0.07905903 0.12548585 -0.14331645 -0.15686795 0.069987856 0.08164225 -0.012313024
0.040414598 0.07554533 -0.14697704 0.05880867 -0.06031721 -0.15700522 -0.005679759 0.100590706
-0.10602895 -0.118140705 -0.06273423 0.05039248 0.025597878 -0.033223245 0.1506553 -0.1089687
-0.17470747 0.022535358 -0.09384053 -0.021552345 -0.010033616 0.08135313 0.04248573 0.12834044
0.16044486 0.1479715 -0.072490096 0.103459604 -0.12360621 -0.0072212336 0.16426907 0.19795358
-0.13023938 0.12228008 0.005531751 -0.07187167 0.13583983 0.14513324 -0.10973615 -0.1459331
-0.13286428 -0.017159047 -0.06789356 0.06587894 0.10575594 -0.072454266 0.028589318 -0.17663439
0.121051006 0.07256324 0.1645221 0.014932487 -0.1416523 0.22283742 0.03657814 -0.1008374
-0.076494835 -0.11099451 0.16146621 0.021188172 0.09466732 0.10744717 -0.04685934 -0.13201529
0.014993479 0.24589223 0.015780754 0.025063412 0.020599486 0.08902597 0.08940263 0.20974784
0.30071393 0.09380854 0.04094722 -0.13642775 -0.14565285 -0.05821712 0.12767562 0.13840514
-0.09813874 0.03666742 -0.03112862 0.13926402 0.030421238 -0.017202683 -0.04813373 0.18597408
-0.18777958 -0.05224681 0.08408098 0.15703155 0.016053226 -0.0021012453 -0.07051935 -0.13498558
0.07697371 0.10817903 0.18409204 0.101099074 0.046142746 0.19193205 -0.1190795 0.09074636
-0.15053575 -0.22556973 -0.064274624 -0.1342378 0.050497685 0.17848355 -0.014483762 0.067665085
-0.02665892 0.11247217 -0.069492266 -0.08452583 0.08954161 0.025720235 0.03294872 0.09714072
0.0052775415 0.10589242 0.23402861 0.13454683 -0.06673276 0.076593444 -0.15033315 -0.12473602
0.13682619 -0.114101745 0.019592844 -0.056716066 0.0070545897 0.01196374 -0.0633093 -0.06016225
0.03546593 -0.1847629 -0.05174612 0.008925115 -0.19454636 -0.023970895 0.040613934 -0.045155507
0.033442967 -0.06180967 0.063518435 -0.08678951 0.040155035 -0.052771904 0.0824222 0.1772346
-0.1281704 -0.11086632 -0.0055623017 -0.15156278 0.19736548 0.15483668 -0.067331195 -0.024093335
0.090055324 0.10266103 0.0430155 0.08382669 0.14800908 0.11245953 0.012944822 -0.039921332
-0.1382357 0.117461674 -0.04272472 -0.08208845 -0.024018848 0.04372898 0.17654763 0.08147285
0.029905496 0.15581056 -0.040503956 0.066756785 -0.11346347 -0.08544058 0.12522677 0.08536441
0.18430938 -0.03302213 0.106060095 0.04596488 -0.10888196 -0.029278768 0.09135815 -0.019295897
0.20528531 -0.18513915 -0.06708135 -0.024911523 0.040974993 0.07714882 0.15390486 -0.17348008
0.08326709 0.13142104 0.073853046 -0.026557399 -0.100995615 0.04315871 0.11593087 0.129711
-0.00030459033 0.0471134 -0.035456758 0.12653996 0.21551149 -0.024429591 -0.19160797 -0.12977543
-0.16055918 0.11642303 0.03379008 -0.028444799 -0.00020842554 -0.027802857 0.097879246 0.24849057
0.023627719 -0.081301175 -0.023762194 0.12491604 0.0868499 -0.017366877 -0.1747903 0.044565734
0.1046675 -0.046952546 0.09465628 0.13244024 0.081990235 0.063641906 -0.008559004 0.1729136
00000000: 1002 c0bd 6729 8a3d 824b c03d f690 713d
00000010: d101 c03c cf36 b63d 61be ef3d a043 053e
00000020: 0244 a83c b3e9 a13d 5d7f 003e 8cc1 12be
00000030: fea1 20be cb55 8f3d 0d34 a73d 91bc 49bc
00000040: c789 253d 83b7 9a3d 2681 16be 5ce1 703d
00000050: 2e0f 77bd fac5 20be 461d babb 8002 ce3d
00000060: b525 d9bd c1f3 f1bd ce7a 80bd 5868 4e3d
00000070: a4b2 d13c 1915 08bd 6245 1a3e fb2a dfbd
00000080: 84e6 32be 129c b83c 772f c0bd 8b8e b0bc
00000090: 0964 24bc 789c a63d 8405 2e3d ad6b 033e
000000a0: a84b 243e d785 173e b075 94bd a1e2 d33d
000000b0: 4125 fdbd 19a0 ecbb 2736 283e 58b4 4a3e
000000c0: 795d 05be fb6d fa3d b143 b53b 7431 93bd
000000d0: 9919 0b3e cf9d 143e 59bd e0bd 7d6f 15be
000000e0: 930d 08be 2191 8cbc c70b 8bbd 8aeb 863d
000000f0: 9296 d83d e762 94bd 2534 ea3c a5df 34be
00000100: 97e9 f73d 099c 943d 7b78 283e 64a7 743c
00000110: 4d0d 11be 7e2f 643e f6d2 153d d783 cebd
00000120: 53a9 9cbd 1751 e3bd 6657 253e d192 ad3c
00000130: f1e0 c13d 430d dc3d 94ef 3fbd 042f 07be
00000140: 35a7 753c 2ccb 7b3e a446 813c c951 cd3c
00000150: 41c0 a83c 3f53 b63d ba18 b73d 23c8 563e
00000160: 2df7 993e b11e c03d 46b8 273d b7b3 0bbe
00000170: 0526 15be 1375 6ebd 66bd 023e 14ba 0d3e
00000180: f7fc c8bd 9430 163d 7301 ffbc 3a9b 0e3e
00000190: f635 f93c a4ec 8cbc e027 45bd fd6f 3e3e
000001a0: 4a49 40be c000 56bd a632 ac3d e1cc 203e
000001b0: 0e82 833c 0cb5 09bb 736c 90bd a939 0abe
000001c0: 64a4 9d3d f88c dd3d a082 3c3e 080d cf3d
000001d0: 2d00 3d3d d689 443e f4df f3bd 3ad9 b93d
000001e0: 0b26 1abe c0fb 66be 6aa2 83bd a275 09be
000001f0: a9d6 4e3d 64c4 363e 4d4d 6dbc fe93 8a3d
00000200: cf63 dabc cf57 e63d f651 8ebd e11b adbd
00000210: 9761 b73d 3eb3 d23c 3df5 063d b7f1 c63d
00000220: 3aef ac3b 20de d83d 32a5 6f3e a5c6 093e
00000230: 2fab 88bd 06dd 9c3d eff0 19be 9975 ffbd
00000240: 2a1c 0c3e 2dae e9bd 2c81 a03c 1b4f 68bd
00000250: 302a e73b 9003 443c 4ea8 81bd b16c 76bd
00000260: b944 113d 7c32 3dbe bdf3 53bd a53a 123c
00000270: 2937 47be 9c5e c4bc cc5a 263d fbf4 38bd
00000280: 7efb 083d 232c 7dbd f415 823d b3be b1bd
00000290: 9b79 243d 5a27 58bd f8cc a83d fd7c 353e
000002a0: 1a3f 03be e20d e3bd f843 b6bb 4633 1bbe
000002b0: 2d1a 4a3e 828d 1e3e f0e4 89bd 635f c5bc
000002c0: ed6e b83d f23f d23d 0531 303d 54ad ab3d
000002d0: b18f 173e 2f51 e63d 8516 543c 8d84 23bd
000002e0: a98d 0dbe bf8f f03d 1e00 2fbd fd1d a8bd
000002f0: 2dc3 c4bc 291d 333d e7c8 343e 3ddb a63d
00000300: 5ffc f43c ce8c 1f3e 7ae7 25bd c8b7 883d
00000310: 895f e8bd 79fb aebd 723b 003e 89d3 ae3d
00000320: 99bb 3c3e 3742 07bd 0936 d93d ac45 3c3d
00000330: 81fd debd 07da efbc fb19 bb3d 6e12 9ebc
00000340: 5036 523e 1e95 3dbe f261 89bd 4013 ccbc
00000350: 65d5 273d 3300 9e3d 3c99 1d3e c3a4 31be
00000360: f087 aa3d 3d93 063e 4440 973d e78e d9bc
00000370: cad6 cebd 30c7 303d 2a6d ed3d f6d2 043e
00000380: 6cb1 9fb9 fbf9 403d 1b3b 11bd b193 013e
00000390: 0baf 5c3e 9120 c8bc e134 44be dae3 04be
000003a0: a069 24be 336f ee3d 7867 0a3d 1105 e9bc
000003b0: ce8c 5ab9 d1c2 e3bc ea74 c83d 5074 7e3e
000003c0: eb8e c13c 3b81 a6bd efa8 c2bc fbd3 ff3d
000003d0: 5cde b13d fb44 8ebc 3afc 32be 8f8a 363d
000003e0: ea5b d63d 5051 40bd 27db c13d 6a9e 073e
000003f0: 7fea a73d b056 823d 113b 0cbc 4310 313e

layer_2.weight f4 [300, 400]
0.10842112 -0.007385456 -0.027182417 -0.10284909 0.060561266 -0.04661863 -0.06819909 0.09133569
0.013740345 0.10101397 -0.114225335 0.05659333 -0.010016746 -0.17291008 0.106755525 0.0399177
-0.013779605 0.14772704 0.052824937 0.03297563 -0.070970766 -0.21366288 -0.14193939 -0.17593677
-0.18941826 -0.07189873 -0.17288749 -0.002870807 -0.11806443 -0.07845185 -0.1418061 0.17080808
0.18846951 0.014938641 -0.114091605 -0.10959283 0.16361786 -0.07160025 -0.06480131 0.17322913
0.054645278 0.122899376 -0.08916694 -0.060323685 -0.07817678 -0.13252856 -0.07432801 0.09949082
0.2789937 -0.12071158 -0.057005037 0.33832818 -0.053703904 0.14462894 0.085345834 0.11398446
0.24949455 -0.026318744 -0.18512827 -0.0534104 0.086592115 -0.13432005 0.02864366 -0.026016694
0.036459874 0.09118996 0.11550446 0.02057708 0.08710017 0.078849524 0.080514826 -0.005780251
0.04290294 0.07012042 0.011269621 -0.21172519 0.16592436 0.010051772 -0.014851853 0.20907785
0.21299277 -0.027417438 -0.13132557 -0.22205614 0.09857018 0.030685782 -0.058244716 0.0003422511
0.13479792 0.11547902 -0.120727055 0.03228365 0.07864743 0.023757534 -0.16671832 0.025449958
-0.25883755 -0.08061679 -0.1568548 -0.12825355 0.020946532 -0.05839356 -0.25274646 -0.01740775
-0.20883039 0.09942017 0.0348286 0.05867651 -0.019293271 0.22342812 -0.101264365 0.011689462
-0.034777693 0.052244026 0.03743106 -0.07032707 0.220308 0.09400251 0.24623469 -0.026307367
0.10492 0.18803322 0.049777824 -0.06945345 0.075351164 -0.015931547 0.083489805 -0.07401597
-0.041722476 0.07899627 -0.07945533 -0.11299542 0.019627977 -0.06666542 0.020090621 -0.15549234
-0.12649347 -0.11056725 -0.0965391 -0.1934965 -0.021536818 -0.07629946 0.10994787 0.07070234
0.07238074 -0.06651302 0.06740563 -0.13719887 -0.06397888 0.22348696 0.107662246 0.048233874
0.11953535 0.2065589 -0.083679266 0.12587196 -0.07163337 -0.17977376 -0.30686614 -0.13969053
-0.11734546 -0.059310064 0.034012835 -0.201919 -0.047572214 0.018140174 0.20714134 -0.02116081
0.080385335 0.17940816 0.19111413 0.14873943 0.1189956 -0.012484834 -0.22839294 -0.09479629
-0.08906327 -0.048892338 0.14842238 -0.14096364 -0.04879784 -0.053009294 0.03485186 0.0025974999
0.023158764 -0.15178835 -0.031068796 0.111097604 0.03932979 -0.103068404 0.038275003 0.4415289
0.0073842346 -0.020185713 0.2884007 -0.12557769 -0.14254583 0.043284297 0.12947512 -0.14106473
-0.12380226 0.24147494 0.008464413 -0.18136655 0.24844444 -0.047494136 -0.034983013 -0.04693664
-0.16375174 -0.06959306 -0.018718347 0.036023375 0.06957286 0.06899646 -0.042568456 -0.017295083
0.011098713 0.32047814 0.20972179 -0.116903566 0.0927576 -0.06689452 0.13373637 -0.063651115
-0.08573165 0.13325064 0.29384866 -0.08282154 0.029326398 0.23088595 -0.15667886 -0.006394499
0.23108001 0.20161214 -0.023975793 -0.16782127 -0.039844636 -0.0061831917 -0.035557747 -0.19591682
0.11579083 0.009551086 0.1909406 -0.004917744 -0.13467044 0.0028304372 0.10065208 -0.057648357
-0.06250296 0.06352495 0.03225363 0.067586705 -0.01494115 -0.19129129 -0.087576725 -0.19980603
00000000: e40b de3d b201 f2bb a9ad debc 8ba2 d2bd
00000010: 170f 783d 2df3 3ebd f7ab 8bbd 350e bb3d
00000020: 2f1f 613c 6ae0 ce3d f9ee e9bd 68ce 673d
00000030: 471d 24bc 570f 31be a4a2 da3d be80 233d
00000040: dac3 61bc c245 173e f65e 583d 7411 073d
00000050: 1f59 91bd 71ca 5abe 8f58 11be c528 34be
00000060: dcf6 41be a43f 93bd 6b09 31be 2624 3cbb
00000070: c4cb f1bd 5dab a0bd 9e35 11be 50e8 2e3e
00000080: 27fe 403e 34c1 743c dca8 e9bd 3572 e0bd
00000090: 718b 273e 27a3 92bd 8db6 84bd fa62 313e
000000a0: bad3 5f3d abb2 fb3d 289d b6bd f815 77bd
000000b0: 261b a0bd 91b5 07be 4939 98bd d8c1 cb3d
000000c0: 43d8 8e3e a237 f7bd 1d7e 69bd 5a39 ad3e
000000d0: a0f8 5bbd 9c19 143e ccc9 ae3d af70 e93d
000000e0: 807b 7f3e 689a d7bc 4492 3dbe ddc4 5abd
000000f0: 3557 b13d 328b 09be 1ca6 ea3c f620 d5bc
00000100: f356 153d cdc1 ba3d 9a8d ec3d 4491 a83c
00000110: 9361 b23d dc7b a13d f5e4 a43d 4368 bdbb
00000120: feba 2f3d 4b9b 8f3d 37a4 383c 7dce 58be
00000130: 13e8 293e 30b0 243c 3055 73bc 8118 563e
00000140: c71a 5a3e 899a e0bc 367a 06be af62 63be
00000150: 2adf c93d c060 fb3c 0392 6ebd 2a70 b339
00000160: 7708 0a3e 4480 ec3d bf3f f7bd dc3b 043d
00000170: e711 a13d 299f c23c 35b8 2abe 6e7c d03c
00000180: 5b86 84be 6a1a a5bd 8b9e 20be e654 03be
00000190: 1098 ab3c 162e 6fbd fc67 81be b39a 8ebc
000001a0: a2d7 55be cd9c cb3d 6fa8 0e3d c856 703d
000001b0: ec0c 9ebc 57ca 643e b163 cfbd 2885 3f3c
000001c0: 0e73 0ebd d5fd 553d 5051 193d a407 90bd
000001d0: 6c98 613e 6384 c03d f224 7c3e 8c82 d7bc
000001e0: 4ce0 d63d c88b 403e d5e3 4b3d 9c3d 8ebd
000001f0: b651 9a3d e082 82bc b4fc aa3d af95 97bd
00000200: 30e5 2abd ccc8 a13d 7ab9 a2bd 256a e7bd
00000210: daca a03c e187 88bd 1695 a43c 6239 1fbe
00000220: 8187 01be 1571 e2bd 4bb6 c5bd f223 46be
00000230: fb6d b0bc e442 9cbd 592c e13d 63cc 903d
00000240: 5a3c 943d fa37 88bd f70b 8a3d dc7d 0cbe
00000250: 5c07 83bd c4d9 643e 067e dc3d e290 453d
00000260: f3ce f43d 2d84 533e 0960 abbd 94e4 003e
00000270: 84b4 92bd 9d16 38be 8f1d 9dbe 090b 0fbe
00000280: d152 f0bd 1cef 72bd 0b51 0b3d dbc3 4ebe
00000290: 15db 42bd b49a 943c dc1c 543e 6f59 adbc
000002a0: 11a1 a43d c6b6 373e 6cb3 433e 264f 183e
000002b0: f7b3 f33d 308d 4cbc d7df 69be 8f24 c2bd
000002c0: ce66 b6bd 5543 48bd 09fc 173e c658 10be
000002d0: 3ee0 47bd 4620 59bd d3c0 0e3d d13a 2a3b
000002e0: 73b7 bd3c 686e 1bbe fd83 febc 2487 e33d
000002f0: 4618 213d 8715 d3bd 40c6 1c3d 1310 e23e
00000300: 73f7 f13b 825c a5bc 42a9 933e 7097 00be
00000310: 89f7 11be e04a 313d 2095 043e 4673 10be
00000320: 0a8c fdbd 3545 773e 52ae 0a3c 27b8 39be
00000330: 3868 7e3e 3689 42bd 594a 0fbd a240 40bd
00000340: 89ae 27be ce86 8ebd 3857 99bc 3f8d 133d
00000350: 377c 8e3d 044e 8d3d 435c 2ebd 6bae 8dbc
00000360: 60d7 353c b615 a43e 4fc1 563e 236b efbd
00000370: b2f7 bd3d feff 88bd 30f2 083e 845b 82bd
00000380: 1394 afbd db72 083e 5573 963e 579e a9bd
00000390: ea3d f03c 5e6d 6c3e 6c70 20be f288 d1bb
000003a0: 3da0 6c3e 6a73 4e3e e268 c4bc 57d9 2bbe
000003b0: 2134 23bd 5f9c cabb 00a5 11bd 6b9e 48be
000003c0: be23 ed3d 297c 1c3c ef85 433e 0725 a1bb
000003d0: 0ce7 09be db7e 393b ad22 ce3d af20 6cbd
000003e0: 8d01 80bd 5e19 823d 621c 043d e66a 8a3d
000003f0: bacb 74bc dde1 43be 6d5b b3bd f499 4cbe

layer_2.bias f4 [300]
-0.06377937 0.026084106 0.0065052514 0.011150098 -0.007588131 6.978831e-05 -0.020077055 -0.02127324
0.037240338 0.00074126374 0.019304486 -0.043305427 0.001556845 -0.024846299 0.058539495 0.027011627
-0.00038368301 0.001102301 -0.0025254993 -0.022398917 -0.015466763 0.021550728 0.006339235 0.015991531
-0.055011082 0.003248167 0.01988081 0.0014557248 0.032958414 -0.052928876 0.0031197383 0.013422012
-0.035501376 -0.021376073 -0.048756626 0.009590687 -0.0052996455 -0.06367309 0.036542285 0.022525206
0.016114533 -0.019001093 0.010346092 0.089405954 -0.0007792075 -0.057599217 -0.0076494385 0.033813294
0.009564209 0.053881437 0.02021453 -0.018793516 -0.0025577378 -0.009666128 0.028237458 -0.016818449
-0.023766473 -0.03261742 0.019496974 -0.05113641 0.016452592 0.035202395 0.056711335 -0.01652318
-0.028775796 0.042726964 0.022096194 0.0009830344 -0.015663257 0.010468881 -0.030252872 0.04814621
0.060421992 0.0034962662 -0.02372075 -0.06988321 -0.012535916 0.031233348 -0.010025889 -0.06851279
-0.04550816 -0.060331013 -0.0022873709 -0.029960746 -0.0031998043 -0.007223349 0.04125978 -0.07287162
-0.00019130376 0.00738061 0.016023608 0.027823737 0.10160681 -0.042675808 -0.034925275 -0.018194146
0.06411143 -0.025084546 -0.027416587 0.028042108 0.032445714 -0.012705025 0.044381995 -0.028606586
-0.015425024 -0.0492795 -0.017971646 0.01761435 -0.031243473 0.00660711 -0.059928622 0.016906409
0.012389743 0.022767484 0.009256222 0.0014877351 0.093182884 0.073015645 0.027610958 -0.04093126
-0.03610277 -0.029707339 -0.031480085 -0.0074439943 -0.0020295996 0.026113894 0.025296124 0.028949762
-0.04969977 0.062286932 -0.019688625 -0.026551137 -0.003762373 -0.07757554 0.02874255 -0.006184564
-0.04278929 -0.0013575597 0.01853269 -0.015012582 -0.0190363 -0.03309426 -0.025830736 0.03341621
0.007377902 -0.028717313 0.009060055 0.014561713 -0.02740722 -0.026407229 0.02138092 -0.04122143
0.027611334 0.018566515 0.006236679 0.009594437 -0.0139091415 -0.02035285 0.03648548 0.049755994
-0.015508918 0.015508048 0.015390562 -0.038390417 0.012761239 -0.003011736 -0.030218527 0.049022634
0.07558716 -0.030594062 0.055535033 -0.009816728 -0.037439108 -0.060291708 -0.052864194 0.018333538
0.012419617 -0.05963209 -0.023713375 0.01728859 0.0201844 0.057682764 -0.0356935 0.018788839
0.048374142 0.024160394 -0.033974055 -0.042197186 0.03404907 0.046428345 0.052660514 -0.034308184
0.0067518945 0.03264981 -0.051354986 0.013408706 0.06728027 0.041412853 0.017466947 -0.035896447
0.04266816 -0.016004607 0.023634084 0.009132013 0.023963451 -0.04908901 0.00045535585 0.005751293
0.033793047 -0.029022958 0.034634363 -0.04590371 0.019327583 0.041944873 0.011461922 0.07008537
0.007588569 -0.004751608 0.02401411 0.039022334 -0.03057602 -0.034997053 0.011610065 -0.033462703
-0.022561336 -0.03759913 0.019669272 -0.0053583127 0.008410718 -0.004844963 0.0060919747 -0.005264563
-0.006959931 0.0033700312 -0.0026320247 0.0076158363 -0.02013256 -0.05079148 0.040505484 -0.020404153
-0.0025807125 0.012267326 0.037306074 -0.04840562 0.065888934 0.03545585 0.0021111153 -0.027671551
0.045290247 -0.047243312 -0.055982415 -0.026986182 -0.053177066 -0.016438546 -0.003960129 -0.046867218
00000000: c29e 82bd 56ae d53c 012a d53b e7ae 363c
00000010: dba5 f8bb 505b 9238 a378 a4bc 3845 aebc
00000020: 5389 183d 5e51 423a 7124 9e3c 0861 31bd
00000030: 0d0f cc3a 778a cbbc 1cc7 6f3d 7d47 dd3c
00000040: 1029 c9b9 157b 903a d982 25bb ef7d b7bc
00000050: 4e68 7dbc 278b b03c 5cb9 cf3b ac00 833c
00000060: 4d53 61bd 33df 543b 15dd a23c 05ce be3a
00000070: 67ff 063d f3cb 58bd 8674 4c3b 00e8 5b3c
00000080: e469 11bd e01c afbc 07b5 47bd 4222 1d3c
00000090: a6a8 adbb 0967 82bd 5dad 153d c886 b83c
000000a0: a002 843c 2ea8 9bbc a882 293c 781a b73d
000000b0: bb43 4cba 28ed 6bbd 24a8 fabb cf7f 0a3d
000000c0: 33b3 1c3c c8b2 5c3d f198 a53c dcf4 99bc
000000d0: b89f 27bb ae5e 1ebc 3e52 e73c d8c6 89bc
000000e0: e8b1 c2bc d899 05bd 1eb8 9f3c 6a74 51bd
000000f0: 96c7 863c 6330 103d 254a 683d 9f5b 87bc
00000100: 38bb ebbc 7802 2f3d 1403 b53c 29d9 803a
00000110: 3b50 80bc ab85 2b3c dfd4 f7bc f634 453d
00000120: 0d7d 773d 9d21 653b 0552 c2bc ee1e 8fbd
00000130: 7163 4dbc 14dd ff3c a043 24bc 6f50 8cbd
00000140: c466 3abd a71d 77bd b7e7 15bb 3d70 f5bc
00000150: cfb3 51bb d8b1 ecbb 0400 293d b73d 95bd
00000160: b698 48b9 0bd9 f13b f143 833c 9bee e33c
00000170: 3b17 d03d d4cc 2ebd ce0d 0fbd e40b 95bc
00000180: da4c 833d 1b7e cdbc c098 e0bc 90b8 e53c
00000190: cce5 043d bd28 50bc e5c9 353d 5c58 eabc
000001a0: 3db9 7cbc 4dd9 49bd 4639 93bc f84b 903c
000001b0: 50f2 ffbc 7580 d83b b777 75bd 4f7f 8a3c
000001c0: 59fe 4a3c e082 ba3c 69a7 173c 1b00 c33a
000001d0: abd6 be3d 3a89 953d 6030 e23c 89a7 27bd
000001e0: 80e0 13bd ce5c f3bc 43f1 00bd c0ec f3bb
000001f0: 0803 05bb ceec d53c d139 cf3c 0d28 ed3c
00000200: fc91 4bbd 9520 7f3d 0a4a a1bc c581 d9bc
00000210: 2592 76bb eddf 9ebd 7f75 eb3c e2a7 cabb
00000220: d343 2fbd 25f0 b1ba ded1 973c 55f7 75bc
00000230: 04f2 9bbc d98d 07bd fb9a d3bc 70df 083d
00000240: 54c2 f13b 9240 ebbc a070 143c 4094 6e3c
00000250: 1b85 e0bc f953 d8bc 0a27 af3c cdd7 28bd
00000260: 2a31 e23c ce18 983c 0e5d cc3b fc31 1d3c
00000270: 2be3 63bc 05bb a6bc cc71 153d f1cc 4b3d
00000280: 1e19 7ebc 7815 7e3c b228 7c3c 453f 1dbd
00000290: 8414 513c 8c60 45bb d88c f7bc f5cb 483d
000002a0: 71cd 9a3d 66a0 fabc b478 633d 57d6 20bc
000002b0: c059 19bd 70f4 76bd 2088 58bd 3730 963c
000002c0: a67b 4b3c c740 74bd 8d42 c2bc cda0 8d3c
000002d0: c159 a53c c344 6c3d 5933 12bd 0deb 993c
000002e0: f723 463d 05ec c53c 6128 0bbd f5d6 2cbd
000002f0: 0a77 0b3d a62b 3e3d 8db2 573d bd86 0cbd
00000300: ff3e dd3b cfbb 053d 9b59 52bd 30b0 5b3c
00000310: 3dca 893d 86a0 293d d816 8f3c 2708 13bd
00000320: cfc4 2e3d 181c 83bc 449c c13c 709e 153c
00000330: 004f c43c 8f11 49bd d4bc ee39 5875 bc3b
00000340: 946a 0a3d 8ec1 edbc c3dc 0d3d 8705 3cbd
00000350: e154 9e3c 63ce 2b3d c9ca 3b3c eb88 8f3d
00000360: 88a9 f83b 60b3 9bbb 3db9 c43c e2d5 1f3d
00000370: 907a fabc 1259 0fbd 2438 3e3c 3010 09bd
00000380: 8dd2 b8bc 8c01 1abd 7421 a13c c994 afbb
00000390: 1ccd 093c 7fc2 9ebb 309f c73b 5b82 acbb
000003a0: 2210 e4bb bedb 5c3b 0c7e 2cbb 448e f93b
000003b0: 0aed a4bc ba0a 50bd 14e9 253d 9c26 a7bc
000003c0: 2c21 29bb e5fc 483c 41ce 183d f944 46bd
000003d0: c7f0 863d 273a 113d a35a 0a3b 73af e2bc
000003e0: 4482 393d 3482 41bd d14d 65bd 2012 ddbc
000003f0: 32d0 59bd 21aa 86bc f8c3 81bb d7f7 3fbd

layer_3.weight f4 [2, 300]
-0.5796338 0.04859214 0.0019743163 -0.019873777 -0.28266105 0.0032768943 -0.021779759 -0.08957303
-0.16138746 0.29032153 -0.0065327836 -0.25072283 -0.2398291 -0.11683115 -0.048722822 0.009306891
-0.009844183 0.12727003 0.051769502 0.21918543 -0.015538143 0.19193092 0.13325326 0.026352849
0.035898436 0.07093371 0.17651834 -0.14316763 0.22260633 0.11740761 -0.212386 -0.12565006
0.09094008 -0.11199298 0.24854411 -0.0063802 0.13234085 -0.07248479 -0.13613069 0.13828029
0.14558332 0.13721812 0.049806535 -0.042703245 0.0878479 -0.5190631 0.14516942 0.06651137
0.11213347 0.17215373 -0.028988354 0.14341295 0.13759948 0.025168864 0.11029505 0.1031823
0.13653733 -0.735152 0.06632278 -0.26814756 0.06515268 0.11146927 -0.101754025 0.31111515
0.1153537 0.07717285 0.08006164 -0.05372707 -0.23288351 0.10896399 0.16898872 0.05898382
0.11861322 0.09153624 0.0015853179 -0.35406005 -0.100810915 -0.038065832 0.013712121 -0.22579116
0.21558848 0.047695417 -0.22697353 0.043288168 0.11377122 -0.09469417 0.017729905 -0.41729158
0.29024118 -0.20181498 0.03845813 -0.045348983 -0.18564789 0.03206426 0.053227615 -0.59594166
-0.04612969 -0.043418173 0.10940158 0.005044578 0.101038784 0.14543171 0.15997039 -0.08216297
-0.21085314 -0.24047267 -0.53577435 -0.21035846 0.13977472 -0.017879013 0.8469352 -0.1544829
0.03968549 0.25821933 -0.0475799 0.17657568 -0.06540979 0.15764071 0.06405244 0.27408567
-0.15817912 0.0097507145 0.22597629 0.05212158 -0.13358063 0.112730384 0.017870843 0.12711637
-0.1894247 -0.13027446 0.15933311 0.37215927 0.1949835 -0.26363578 0.01776694 -0.4714911
-0.506398 -0.06607613 0.26428324 0.058118943 -0.089445956 0.124623924 -0.336158 -0.06927181
-0.13505496 0.13722172 -0.119855195 0.0010705477 0.09466928 -0.020360066 -0.09768534 0.08815366
0.049698945 0.14302337 -0.17070203 0.005123917 -0.05263995 0.05077174 -0.051729392 0.06669182
-0.14870214 -0.041483272 0.13524806 0.024381064 0.5382544 0.21113601 0.16703412 -0.0748241
-0.16508798 -0.13131197 -0.02267727 -0.09225764 -0.017663108 0.07755218 -0.039337933 0.072251365
-0.6089067 -0.35457152 -0.25743267 -0.092487216 -0.14707007 -0.016435493 0.15927322 -0.08460051
-0.12282056 -0.06607504 -0.08783398 -0.13548067 -0.10981569 0.12901093 0.040973477 0.06269748
0.15240288 -0.0068305526 -0.060489163 0.1137999 -0.14441603 0.06338494 -0.059857156 -0.0795217
0.01820858 0.051519644 0.14796261 0.16610196 -0.28697777 -0.2302225 0.52242815 0.03815329
0.12298492 0.19208963 -0.21244968 -0.029027497 0.0738757 -0.027898595 0.02053938 -0.1680876
0.027587323 0.13709915 -0.16815318 -0.029853715 -0.11134817 0.05589572 0.053944327 -0.24202222
-0.049684804 0.025996048 -0.02772823 -0.06746011 0.008969839 0.010862274 -0.16608906 0.18029168
-0.008794986 0.069773175 0.013128049 0.13772196 -0.27233878 0.0631513 -0.02319823 0.049039505
-0.017135412 0.11151295 0.07703061 0.022396786 -0.17798312 -0.04600169 -0.06594607 -0.21366368
-0.034762982 0.5539143 0.07309535 0.098832525 0.07924029 0.044084888 0.29355958 0.13224211
00000000: e162 14bf 8d08 473d 8863 013b 55ce a2bc
00000010: f3b8 90be 2ac1 563b 776b b2bc 1172 b7bd
00000020: c142 25be 06a5 943e f610 d6bb be5e 80be
00000030: c295 75be 2c45 efbd 9591 47bd ee7b 183c
00000040: 7f49 21bc 1353 023e 420c 543d 2572 603e
00000050: b293 7ebc 8a89 443e 8b73 083e eee1 d73c
00000060: 3d0a 133d b145 913d 39c1 343e 899a 12be
00000070: eaf2 633e 6773 f03d b77b 59be 69aa 00be
00000080: cb3e ba3d 935c e5bd 5982 7e3e ff10 d1bb
00000090: 5c84 073e e872 94bd d865 0bbe 5999 0d3e
000000a0: cb13 153e e882 0c3e f001 4c3d 99e9 2ebd
000000b0: 9ae9 b33d 52e1 04bf 4ba7 143e 1d37 883d
000000c0: 3ca6 e53d 1149 303e fc78 edbc d8da 123e
000000d0: e1e6 0c3e ef2e ce3c 5fe2 e13d 3e51 d33d
000000e0: 71d0 0b3e ec32 3cbf 3dd4 873d a34a 89be
000000f0: c56e 853d 004a e43d 6a64 d0bd 7c4a 9f3e
00000100: 903e ec3d cd0c 9e3d 5bf7 a33d eb10 5cbd
00000110: 0479 6ebe 8328 df3d 610b 2d3e 0599 713d
00000120: 7deb f23d 5a77 bb3d 71ca cf3a 5c47 b5be
00000130: f475 cebd ebea 1bbd cea8 603c cc35 67be
00000140: 3ac3 5c3e 455c 433d c06b 68be ef4e 313d
00000150: e300 e93d 04ef c1bd 4e3e 913c 3ea7 d5be
00000160: 7e9a 943e 96a8 4ebe 4686 1d3d dbbf 39bd
00000170: 7b1a 3ebe d055 033d 3305 5a3d a28f 18bf
00000180: 7cf2 3cbd 41d7 31bd f00d e03d fd4c a53b
00000190: 6ced ce3d 0dec 143e 47cf 233e 0f45 a8bd
000001a0: e3e9 57be 783e 76be 8228 09bf 3568 57be
000001b0: 1b21 0f3e 0277 92bc bfd0 583f c430 1ebe
000001c0: 418d 223d 5335 843e 24e3 42bd 41d0 343e
000001d0: 91f5 85bd 916c 213e ed2d 833d f554 8c3e
000001e0: b5f9 21be 76c1 1f3c 5466 673e 707d 553d
000001f0: 5cc9 08be 30df e63d e065 923c cb2a 023e
00000200: 8cf8 41be ab66 05be 3828 233e a98b be3e
00000210: c1a9 473e 45fb 86be f98b 913c 4867 f1be
00000220: 4da3 01bf ec52 87bd 2250 873e 210e 6e3d
00000230: 712f b7bd d43a ff3d e71c acbe 61de 8dbd
00000240: d94b 0abe da83 0c3e a476 f5bd 9f51 8c3a
00000250: f8e1 c13d 27ca a6bc 400f c8bd e889 b43d
00000260: 1f91 4b3d b874 123e 83cc 2ebe 88e6 a73b
00000270: fd9c 57bd 07f6 4f3d 33e2 53bd b995 883d
00000280: 6045 18be 5dea 29bd 787e 0a3e ccba c73c
00000290: 0acb 093f 0a34 583e fe0a 2b3e 613d 99bd
000002a0: d30c 29be a576 06be afc5 b9bc 93f1 bcbd
000002b0: 39b2 90bc add3 9e3d d020 21bd 86f8 933d
000002c0: 4fe1 1bbf 668a b5be 37ce 83be f069 bdbd
000002d0: 8999 16be baa3 86bc 8518 233e 0843 adbd
000002e0: 5989 fbbd 5a52 87bd 4de2 b3bd 72bb 0abe
000002f0: 0ce7 e0bd 711b 043e ced3 273d 8967 803d
00000300: 800f 1c3e d4d2 dfbb 7cc3 77bd ec0f e93d
00000310: cce1 13be f7cf 813d c72c 75bd 46dc a2bd
00000320: 292a 953c 4306 533d 8383 173e a216 2a3e
00000330: c0ee 92be 72bf 6bbe dabd 053f a046 1c3d
00000340: 85df fb3d 25b3 443e 698c 59be 13cb edbc
00000350: 254c 973d 988b e4bc 3442 a83c 281f 2cbe
00000360: cffe e13c b863 0c3e 5930 2cbe c78f f4bc
00000370: 820a e4bd e9f2 643d baf4 5c3d acd4 77be
00000380: 4b82 4bbd aaf5 d43c 5026 e3bc 8728 8abd
00000390: 3bf6 123c aef7 313c 4013 2abe 629e 383e
000003a0: d818 10bc 3de5 8e3d 0717 573c fc06 0d3e
000003b0: fd6f 8bbe 7855 813d 370a bebc a6dd 483d
000003c0: 905f 8cbc e760 e43d 39c2 9d3d 7779 b73c
000003d0: 3541 36be 456c 3cbd bc0e 87bd a7ca 5abe
000003e0: a163 0ebd 54cd 0d3f 04b3 953d b568 ca3d
000003f0: bc48 a23d 5b92 343d 714d 963e 7a6a 073e

layer_3.bias f4 [2]
0.014283371 -0.016975883
00000000: cd04 6a3c 0211 8bbc
