robot_nav/robot_nav/models/CNNTD3/checkpoint/CNNTD3_actor_target.pth (torch, 550779 bytes, 16 tensors)

cnn1.weight f4 [4, 1, 8]
0	0xbcb08aef	-0.021550624
1	0x3ce4fbd3	0.02795211
2	0x3e4ff956	0.20309958
3	0x3cb4e6be	0.022082683
4	0xbce84cea	-0.028356988
5	0x3e640666	0.22268066
6	0x3df8834d	0.12134419
7	0x3ec69338	0.38784194
8	0xbe3ef022	-0.18646291
9	0xbe9c8bfe	-0.30575556
10	0xbe6422b5	-0.22278865
11	0xbd2af50a	-0.041737594
12	0xbd8c37c1	-0.06846572
13	0xbe8c3cdc	-0.27390182
14	0xbc81c9ec	-0.015843354
15	0x3ce73b73	0.02822659
16	0xbea5efc2	-0.32409483
17	0x3d8c59d3	0.0685307
18	0xbe872070	-0.26391935
19	0xbe814d3c	-0.25254238
20	0xbe6f787f	-0.2338581
21	0x3d79ed10	0.061017096
22	0xbe73467e	-0.2375736
23	0xbe8b56fd	-0.27214804
24	0xbf0860b6	-0.5327257
25	0xbecf5271	-0.40492585
26	0xbce2d3de	-0.027688917
27	0xbd523d91	-0.051328246
28	0xbf0bfd31	-0.54683214
29	0xbe45e353	-0.19324999
30	0xbe95dae2	-0.29268557
31	0xbe7506bf	-0.23928355

cnn1.bias f4 [4]
0	0x3e9bc3d1	0.30422834
1	0x3ed2b5a5	0.4115421
2	0xbe85d6d0	-0.2614045
3	0xbe5885e8	-0.21144831

cnn2.weight f4 [8, 4, 8]
0	0x3cb4af44	0.02205623
1	0x3dfb13c4	0.12259629
2	0x3e6153be	0.22004601
3	0xbc549945	-0.012975995
4	0xbc6594a5	-0.01401249
5	0x3d3e8b38	0.046519488
6	0x3dd15498	0.10221213
7	0xbded324b	-0.11581858
8	0xbe414c53	-0.18876772
9	0xbc9c7a24	-0.01910121
10	0xbeb15026	-0.3463146
11	0xbed0e192	-0.40797096
12	0xbe9cebfc	-0.30648792
13	0xbe88c3a4	-0.26711762
14	0xbd9249f9	-0.071430154
15	0x3d2ff449	0.042957578
16	0xbe04e301	-0.1297722
17	0xbb66b731	-0.0035204405
18	0x3d55cbd3	0.052196335
19	0xbdd05372	-0.10172166
20	0x3d64bf64	0.055846587
21	0x3d90b977	0.070666246
22	0x3d0256c0	0.031821012
23	0x3daabf37	0.083372526
24	0xbdf6fea0	-0.120602846
25	0x3d4986b8	0.049200743
26	0x3c88b03f	0.016685603
27	0xbe77a331	-0.24183346
28	0xbce97fd3	-0.028503334
29	0x3d42ec62	0.047588713
30	0x3df97da9	0.12182171
31	0xbe20328d	-0.15644284
32	0x3da3e3ad	0.0800241
33	0x3cfc1a98	0.0307744
34	0x3d58d80b	0.05294041
35	0xba9afba9	-0.0011824268
36	0xbb249408	-0.0025112648
37	0xbe13bb82	-0.14426997
38	0x3dea8618	0.114513576
39	0xbdcada34	-0.099049
40	0x3e4a8da1	0.1978059
41	0x3db2e77d	0.08735559
42	0x3eb369df	0.3504171
43	0x3da1da88	0.0790301
44	0x3e98a196	0.2981078
45	0x3e02412e	0.12720177
46	0x3e9ee35d	0.3103284
47	0x3eafacc4	0.34311497
48	0xbd735e86	-0.059416316
49	0xbda62bac	-0.081137985
50	0x3dc52676	0.096264765
51	0xbbb6d0e8	-0.005579103
52	0x3de93023	0.113861345
53	0xbe03e668	-0.12880862
54	0x3e498302	0.19678882
55	0x3e2a852a	0.1665236
56	0x3de9cd21	0.11416078
57	0xbd7b812a	-0.061402477
58	0xbd6ac40d	-0.057315875
59	0xbce53cf2	-0.027983163
60	0x3db6403d	0.08898971
61	0xbcec0e93	-0.028815543
62	0xbd0973e4	-0.033557788
63	0x3db9f439	0.09079785
64	0xbd983072	-0.07431115
65	0x3d9957cd	0.0748745
66	0x3dfacb32	0.12245788
67	0x3db0c654	0.08631578
68	0x3cdf7ff0	0.027282685
69	0xbd7b5bee	-0.061366968
70	0x3d1d13bc	0.0383489
71	0xbe259a7e	-0.16172215
72	0x3e269909	0.16269316
73	0x3e5d483e	0.2160959
74	0x3e877693	0.26457652
75	0x3deaee50	0.11471236
76	0x3e121f66	0.1426979
77	0x3d3a21df	0.04544246
78	0x3e29e5de	0.16591594
79	0x3e964e4c	0.2935661
80	0xbd38c33e	-0.045108072
81	0x3df9f2fa	0.12204547
82	0x3d93569a	0.07194252
83	0x3b233c0e	0.0024907622
84	0x3df785c3	0.1208606
85	0x3cd4c332	0.025971983
86	0x3e830d9a	0.25596315
87	0x3e8eb1fb	0.27870163
88	0xbde52ff9	-0.11190791
89	0x3d4511dc	0.048112735
90	0x3d1e45ad	0.038640667
91	0x3e9b4d35	0.30332342
92	0x3db05517	0.086099796
93	0x3eb16f3a	0.34655172
94	0x3eba5e8e	0.36400265
95	0x3eb99afb	0.36251053
96	0x3e41330b	0.18867128
97	0x3d897e5f	0.067135565
98	0x3e40f481	0.18843271
99	0x3da2c758	0.07948178
100	0x3e035012	0.12823513
101	0x3e5d7ff5	0.21630843
102	0x3e353a80	0.17698097
103	0x3e2b7d96	0.16747126
104	0xbe9c595f	-0.30536935
105	0xbe97c725	-0.29644123
106	0xbd9a3529	-0.07529671
107	0xbe2edc2a	-0.17076173
108	0xbe79cda5	-0.24394853
109	0xbe7a7e31	-0.244622
110	0x3ca14d91	0.019690307
111	0xbe49d0d9	-0.19708575
112	0xba4320a8	-0.0007443526
113	0x3bbbafbd	0.0057277367
114	0x3d091bf1	0.033473913
115	0xbe1b1665	-0.15145262
116	0xbe8720fe	-0.2639236
117	0xbe1dc432	-0.15406874
118	0xbe1e6b92	-0.15470722
119	0xbd105868	-0.03524056
120	0xbe9052ca	-0.28188163
121	0xbea6bd0b	-0.32566103
122	0xbe37aaa7	-0.17936192
123	0xbe643cb2	-0.22288778
124	0xbe2199be	-0.15781304
125	0x3d1140a9	0.035462055
126	0xbe71654a	-0.23573795
127	0xbe08565d	-0.13314195
128	0x3c9f7665	0.019465635
129	0xbdd33f84	-0.10314849
130	0xbc7422b2	-0.01490085
131	0xbdc5f7d5	-0.09666411
132	0xbd6cb270	-0.05778736
133	0xbd6e5e07	-0.05819514
134	0xbe32b618	-0.17452276
135	0x3dbfe7c3	0.09370377
136	0x3cacdeff	0.021102427
137	0x3dc0fd04	0.09423259
138	0xbd532d8c	-0.05155711
139	0xbc494601	-0.012284757
140	0x3bd2c4c4	0.0064321477
141	0x3dc37420	0.095436335
142	0x3d28e647	0.041235235
143	0xbcd237c8	-0.025661364
144	0xbe22b00c	-0.15887469
145	0x3de28602	0.11060716
146	0x3cb27d4f	0.021788267
147	0xbe35b640	-0.17745304
148	0xbddeeb9e	-0.10884784
149	0x3da3c9af	0.079974525
150	0x3d955b49	0.07292802
151	0x3e594d6d	0.21220942
152	0x3bfe4155	0.007759253
153	0xbde00613	-0.109386586
154	0x3cc28685	0.023745785
155	0xbdc2cab4	-0.09511319
156	0x3b100590	0.0021975972
157	0xbdcfc4fd	-0.101449944
158	0x3e4fbcc5	0.20286854
159	0x3defc520	0.117075205
160	0xbd7b5103	-0.061356556
161	0xbdfc56e3	-0.1232126
162	0x3c6f815d	0.014618245
163	0xbdde755a	-0.10862227
164	0x3dea7f70	0.11450088
165	0x3d3575f3	0.04430194
166	0xbdfa83d8	-0.122321784
167	0x3db6cce3	0.08925798
168	0x3e9a385c	0.30121124
169	0x3dd08397	0.10181349
170	0x3d885191	0.066561826
171	0x3e6c4593	0.23073415
172	0x3e236a4e	0.15958521
173	0x3e349e16	0.1763843
174	0x3e8b79c1	0.27241328
175	0x3df02743	0.117262386
176	0x3d2988a4	0.041390076
177	0x3d34b1e8	0.044114977
178	0xbde09ca6	-0.10967378
179	0x3e522d2e	0.20525047
180	0x3df0f459	0.117653556
181	0xbd6b7499	-0.057484243
182	0x3dd965a0	0.106150866
183	0xbba354cd	-0.0049844743
184	0x3e66e1d3	0.22547083
185	0xbda492a8	-0.08035785
186	0x3d0ce6e8	0.034399897
187	0x3e07aceb	0.13249557
188	0xbde62f9b	-0.11239549
189	0x3e5b9079	0.2144183
190	0x3baeee16	0.0053384406
191	0x3dd3c1d9	0.10339708
192	0x3b34769e	0.0027536522
193	0x3cb6b405	0.022302637
194	0x3e379324	0.17927223
195	0xbcdca28f	-0.026932983
196	0x3dc26c55	0.09493319
197	0x3dcd1564	0.100138456
198	0x3d25c46f	0.040470537
199	0x3da9abfd	0.08284757
200	0xbc6249e0	-0.0138115585
201	0xbe3c7e4a	-0.1840755
202	0xbd91c653	-0.071179055
203	0xbd02027f	-0.03174066
204	0x3d3edb95	0.04659613
205	0x3c820376	0.01587079
206	0xbe5aa15a	-0.21350613
207	0xbe992708	-0.2991259
208	0xbda7d591	-0.081950314
209	0xbdfbe3f6	-0.122993395
210	0xbdd8b94b	-0.10582217
211	0xbb3704a5	-0.0027926352
212	0xbd64e11d	-0.055878747
213	0xbe3d36f6	-0.18477997
214	0xbeb32ea8	-0.34996533
215	0xbeaf2b4e	-0.34212726
216	0xbe4e967c	-0.20174593
217	0xbe2b98c9	-0.16757502
218	0xbe8a57a5	-0.27019992
219	0xbe29ee08	-0.16594708
220	0xbd933046	-0.07186942
221	0xbe740417	-0.23829685
222	0xbdffc3b2	-0.12488498
223	0xbdc6838f	-0.096930616
224	0xbd6522ed	-0.05594151
225	0xbd3e0de4	-0.046399966
226	0xbcc8e861	-0.02452487
227	0x3dea6ad4	0.11446157
228	0xbd9ad3a6	-0.075599
229	0x3e1dc8a6	0.15408573
230	0x3ca38148	0.019959107
231	0xbd263259	-0.04057536
232	0x3e8f386e	0.2797274
233	0x3e9584d7	0.2920291
234	0x3e8b6c83	0.27231225
235	0x3ea2def0	0.31810713
236	0x3e42596f	0.18979429
237	0x3e9da82f	0.30792376
238	0x3e98f680	0.29875565
239	0x3ed1a95d	0.40949526
240	0x3ddba574	0.10724917
241	0x3e0c2c9d	0.13688894
242	0xbe165c88	-0.14683735
243	0x3c767d28	0.015044488
244	0x3ca6f2eb	0.020379504
245	0xbe155e51	-0.1458676
246	0x3dc15b43	0.09441235
247	0xbe11a12f	-0.14221643
248	0x3e02268d	0.12710018
249	0x3e1657a2	0.14681867
250	0x3cfe767f	0.031062363
251	0x3e0f7b7a	0.14011946
252	0x3d917adb	0.07103511
253	0x3e471132	0.19440153
254	0x3e132b6e	0.14372036
255	0x3de30829	0.11085541

cnn2.bias f4 [8]
0	0x3e3c00ce	0.18359682
1	0xbd905c05	-0.07048801
2	0x3e338cc0	0.1753416
3	0xbb9efdce	-0.004852033
4	0x3e66d070	0.2254045
5	0x3e6a8031	0.22900464
6	0x3e4549aa	0.19266382
7	0x3d0e8d07	0.034802463

cnn3.weight f4 [4, 8, 4]
0	0x3e374a0a	0.17899337
1	0xbdda63e0	-0.10663581
2	0x3d35e70a	0.04440979
3	0xbe2aebe7	-0.16691552
4	0x3b755395	0.0037433852
5	0x3c1cddc8	0.009574361
6	0xbdd55a9d	-0.10417674
7	0x3ccff2a7	0.02538426
8	0x3db9ec1f	0.0907824
9	0x3e2333cc	0.15937728
10	0xbb105d7a	-0.0022028373
11	0xbd8b1a62	-0.067921415
12	0x3e90bb25	0.2826778
13	0x3e0eb451	0.13935973
14	0x3e354653	0.17702608
15	0x3dc562f6	0.09638016
16	0xbe10c9ce	-0.14139482
17	0x3daac344	0.08338025
18	0xbcf16d85	-0.029471168
19	0xbddb0adb	-0.1069543
20	0xbd71fd2d	-0.059079338
21	0xbe28d11d	-0.1648602
22	0xbda6ca35	-0.08144037
23	0xbdc42286	-0.09576897
24	0x3e59b7fb	0.21261589
25	0x3e71b870	0.23605514
26	0x3e16bd40	0.1472063
27	0x3e7ba36e	0.24574062
28	0xbda1f029	-0.07907135
29	0x3e0e70da	0.13910237
30	0xbdc8f9c9	-0.09813268
31	0x3daa271f	0.08308243
32	0x3de646ed	0.11243997
33	0x3e16ab22	0.1471372
34	0x3e7bdc03	0.24595647
35	0x3ca89937	0.020580871
36	0x3e6121db	0.21985571
37	0xbc8a757e	-0.016901728
38	0xbd67af66	-0.056563757
39	0x3eac51b0	0.33656073
40	0x3e1feeb3	0.156184
41	0x3db11d5e	0.086481795
42	0x3cd140df	0.025543628
43	0x3e8e326e	0.2777285
44	0x3da2647c	0.07929322
45	0xbda66a87	-0.08125787
46	0xbe0a88c4	-0.13528734
47	0xbe3e2be5	-0.18571432
48	0x3ac89e47	0.0015305959
49	0xbd30b446	-0.043140672
50	0x3dd8600c	0.105651945
51	0x3e9b5563	0.30338582
52	0x3eb82d0f	0.35971877
53	0x3ec1c60e	0.37846416
54	0x3e392ba6	0.18083057
55	0x3e38af34	0.18035585
56	0xbd63d255	-0.05562051
57	0xbd56e72f	-0.052466568
58	0xbd9ae04f	-0.07562315
59	0xbbe48ca6	-0.0069747744
60	0x3e5fbd4a	0.21849552
61	0x3e4c97f0	0.19979835
62	0x3d891264	0.06692961
63	0x3e616043	0.22009377
64	0x3d9ced57	0.076624565
65	0x3e8bbf3c	0.27294338
66	0x3e0baff7	0.13641344
67	0x3e5d4b8c	0.2161085
68	0x3e7c768c	0.24654597
69	0x3e23b0b0	0.1598537
70	0x3e4ed34a	0.20197788
71	0x3e51893e	0.2046251
72	0x3e16fab8	0.14744079
73	0x3c09d599	0.008412742
74	0xbd69b895	-0.057060797
75	0x3d32d38d	0.04365878
76	0xbe399eae	-0.18126938
77	0x3cf67a28	0.030087546
78	0xbcfec20d	-0.03109839
79	0xbd7d98a4	-0.061913148
80	0xbd882a5a	-0.06648703
81	0x3d17b318	0.03703603
82	0x3d104647	0.03522327
83	0xbcd3ebbd	-0.025869245
84	0x3e8232ed	0.25429478
85	0x3e01920d	0.1265337
86	0x3e39fd2f	0.18162988
87	0x3e4a399b	0.19748537
88	0xbdb0f9d9	-0.08641405
89	0xbdf3c5f3	-0.1190299
90	0xbdb7b701	-0.08970452
91	0xbe6fcd96	-0.23418269
92	0x3da106f7	0.078626566
93	0x3e5dc181	0.21655847
94	0x3d4fb3cd	0.05070858
95	0x3e3b9b78	0.18321025
96	0xbe0ce64e	-0.1375973
97	0x3b1b376a	0.0023684152
98	0x3c2d1e3b	0.01056629
99	0x3dc5a2e0	0.096502066
100	0x3e998dba	0.2999094
101	0xbdbdfad7	-0.092763595
102	0xbe478c62	-0.19487146
103	0xbe5cf217	-0.21576725
104	0x3e0807fc	0.13284296
105	0x3d859a1d	0.065235354
106	0x3d73c001	0.05950928
107	0x3c5851b7	0.013203076
108	0xbda53765	-0.08067206
109	0xbe3cb1e9	-0.18427242
110	0xbde2fdda	-0.110835746
111	0x3e61efb2	0.22064093
112	0x3ea050c7	0.31311628
113	0x3d495370	0.049151838
114	0xbd800d8b	-0.06252583
115	0x3cf50918	0.029911563
116	0x3e6aae2f	0.22918008
117	0x3d9a90a6	0.07547121
118	0x3e21d6f6	0.15804657
119	0xbe112df1	-0.14177682
120	0xbbeba22e	-0.007190964
121	0x3df4c958	0.11952466
122	0x3e0e7769	0.13912739
123	0x3d561a03	0.0522709
124	0x3ec1eadc	0.37874496
125	0x3e823f86	0.2543909
126	0xbc523e7d	-0.012832281
127	0x3dbaa6e4	0.09113863

cnn3.bias f4 [4]
0	0x3a1850f0	0.00058104005
1	0x3c94b4f1	0.018152686
2	0x3e2bf0dd	0.16791101
3	0x3dec1133	0.11526718

goal_embed.weight f4 [10, 3]
0	0xbf251590	-0.64486027
1	0x3e583b57	0.21116386
2	0xbf27d106	-0.6555332
3	0x3f366c84	0.7125933
4	0xbeb57c4b	-0.3544639
5	0xbe2e1b1d	-0.1700253
6	0x3f2d8d58	0.677938
7	0x3efbcf99	0.49181822
8	0x3efa328d	0.48866692
9	0x3e27ef74	0.16399938
10	0xbec46872	-0.38360935
11	0xbe77b606	-0.2419053
12	0x3ed45ecf	0.41478583
13	0x3f04d415	0.5188611
14	0xbea919a7	-0.33027384
15	0x3f3389a2	0.70131886
16	0x3ea893c5	0.3292524
17	0x3f3a7d03	0.72847
18	0xbf64dbd5	-0.8939794
19	0x3f07a741	0.52989584
20	0x3e38850b	0.18019502
21	0xbe48468b	-0.1955816
22	0xbf058325	-0.52153236
23	0x3f2f5b3b	0.6849858
24	0xbe779789	-0.241789
25	0x3edae96c	0.42756212
26	0x3e9a19f5	0.3009793
27	0x3f82ec58	1.0228376
28	0x3eb2f26c	0.34950578
29	0xbeab9166	-0.33509368

goal_embed.bias f4 [10]
0	0x3f137b7f	0.57610315
1	0x3eaf8cfb	0.34287247
2	0x3eefc1ed	0.4682764
3	0x3d66facb	0.05639152
4	0x3e7c9483	0.24666028
5	0xbe2cbdc9	-0.16869272
6	0x3e5c0c6b	0.21489112
7	0x3f23e358	0.64018774
8	0x3f009e08	0.50241137
9	0x3e16d747	0.1473056

action_embed.weight f4 [10, 2]
0	0xbf2586f6	-0.6465906
1	0x3e8541fd	0.26026908
2	0x3eba7e9b	0.36424717
3	0x3ee5a8c4	0.4485532
4	0xbe1a0d7b	-0.15044205
5	0x3ed3c21a	0.41359025
6	0x3eeb356e	0.459392
7	0x3f146995	0.57973605
8	0xbeedfc2e	-0.4648146
9	0xbf377534	-0.7166321
10	0xbef38a13	-0.4756628
11	0xbefd3eee	-0.49462074
12	0xbe8d2564	-0.2756759
13	0xbe59e1f3	-0.21277599
14	0x3f41b38d	0.756646
15	0xbe1acadc	-0.15116447
16	0xbf25369f	-0.6453647
17	0xbeffca74	-0.49959147
18	0xbf2d1616	-0.67611825
19	0xbe844999	-0.258374

action_embed.bias f4 [10]
0	0xbec982a4	-0.39357483
1	0x3dd25ba8	0.10271388
2	0x3eacaacc	0.33724058
3	0xbe66ae5f	-0.22527455
4	0x3eaa38e3	0.33246526
5	0xbe89b733	-0.26897582
6	0x3eff9c37	0.4992387
7	0xbe8aa587	-0.27079412
8	0xbecb50e9	-0.39710167
9	0xbe01637b	-0.12635605

layer_1.weight f4 [400, 36]
0	0xbe3b4e4c	-0.18291587
1	0xbdeb3f43	-0.114866756
2	0xbe2bec01	-0.16789247
3	0x3e4b3f3f	0.19848345
4	0xbe6fc0fe	-0.23413464
5	0x3e3bd0b3	0.18341331
6	0x3d230d9e	0.03980791
7	0x3ddd840a	0.108162
8	0xbeaa3a69	-0.33247688
9	0x3eebeb60	0.46078014
10	0xbce442f9	-0.027863966
11	0x3e2cf56f	0.168905
12	0xbef19cd3	-0.4718996
13	0xbe50f8ee	-0.20407459
14	0x3d3d5149	0.046220098
15	0xbe060ee7	-0.13091622
16	0x3e4037ad	0.18771239
17	0x3e37f8bc	0.17965978
18	0x3ea1e4f2	0.31619984
19	0x3ec9c4ae	0.39407867
20	0xbc57aa90	-0.013163224
21	0xbeb5827c	-0.35451114
22	0xbf042a4d	-0.51627046
23	0xbe7446f8	-0.23855197
24	0x3dd7e1a7	0.10541087
25	0x3dc63c79	0.09679503
26	0x3e40c6eb	0.18825881
27	0x3e35734e	0.17719766
28	0x3b3a3519	0.0028412996
29	0xbe95e7bd	-0.29278365
30	0x3ee7ef68	0.4529984
31	0xbc9254dd	-0.017862732
32	0xbe3f6a51	-0.186929
33	0x3ed19857	0.4093654
34	0x3e87253d	0.26395598
35	0xbea02287	-0.31276342
36	0x3e819b5f	0.2531385
37	0xbe346d62	-0.17619851
38	0xbe4774f1	-0.19478203
39	0x3da576f3	0.080793284
40	0xbe7ead13	-0.2487071
41	0xbe3315d4	-0.17488796
42	0xbe03445b	-0.12819044
43	0x3e9a6f9c	0.30163276
44	0xbe2f1a7e	-0.1709995
45	0x3ead1f75	0.33813062
46	0x3e4b0173	0.19824772
47	0x3d74b2d1	0.059740845
48	0x3e879bbc	0.26486003
49	0x3ceb3ac8	0.028714553
50	0xbdea1faf	-0.114318244
51	0xbebb6f73	-0.36608467
52	0x3e27bc4c	0.16380423
53	0xbdccb450	-0.099953294
54	0x3e8d835b	0.2763928
55	0xbe1d1614	-0.15340453
56	0xbea781fc	-0.32716358
57	0x3e613167	0.21991502
58	0x3ddb20bd	0.10699604
59	0xbece5a07	-0.4030306
60	0xbea370ab	-0.31921896
61	0x3c8167dc	0.015796594
62	0x3e62c839	0.22146691
63	0x3eb3ae7c	0.3509406
64	0xbd0895f5	-0.033346135
65	0xbe1a64aa	-0.15077463
66	0x3ee6703b	0.450075
67	0x3e5ea6c4	0.21743304
68	0x3ef12d6a	0.4710496
69	0xbe15e334	-0.14637452
70	0xbee611f1	-0.44935563
71	0x3e12f2ed	0.14350481
72	0xbe70db2e	-0.2352111
73	0x3d72f843	0.059318792
74	0x3d4f83e8	0.050662905
75	0xbebf1b4a	-0.37325507
76	0x3ef7c4a6	0.48392218
77	0x3d80c765	0.062880315
78	0x3f21e1b2	0.6323501
79	0x3e8b74f5	0.2723767
80	0xbe25ce6a	-0.16192022
81	0xbe35612a	-0.17712846
82	0x3dfd095b	0.123553
83	0xbdadeafd	-0.08492086
84	0x3de3b9f2	0.11119451
85	0xbe558b86	-0.20854005
86	0xbeb9bd44	-0.3627721
87	0x3eec25be	0.46122545
88	0xbd9eaa2e	-0.07747303
89	0xbe23a92f	-0.15982507
90	0x3e087e4f	0.13329433
91	0x3d4e39d5	0.05034812
92	0xbe94c8e4	-0.29059517
93	0x3ecfeb39	0.40609148
94	0xbe3bb0bf	-0.18329142
95	0x3e5a1dac	0.21300381
96	0xbe9a0fc7	-0.30090162
97	0x3dc67a56	0.096913025
98	0xbea6ee3a	-0.32603627
99	0x3e49ac34	0.19694597
100	0x3ed432d9	0.41445044
101	0xbe775970	-0.24155211
102	0x3eba4bca	0.36385947
103	0x3c83ec2c	0.016103826
104	0x3e2ffabf	0.17185496
105	0xbe4185df	-0.18898724
106	0xbe7f86f0	-0.24953818
107	0x3dbd6666	0.092480466
108	0xbe5c0178	-0.21484935
109	0xbe4155cd	-0.18880387
110	0xbe087f7e	-0.13329884
111	0xbbd3edac	-0.0064675417
112	0x3efc5554	0.4928385
113	0x3dc55f5c	0.09637329
114	0x3cff5279	0.031167256
115	0xbe85f25c	-0.26161468
116	0x3ebe0e52	0.371203
117	0xbeeb4354	-0.45949805
118	0x3ddbed43	0.107386135
119	0x3ce0d1a4	0.027443714
120	0x3ed543d4	0.4165331
121	0xbe6cb7c3	-0.23116975
122	0xbec2d933	-0.38056335
123	0xbc589672	-0.013219463
124	0x3e8ea521	0.27860358
125	0xbee355ff	-0.44401547
126	0x3d8d9777	0.06913655
127	0x3e3a2b31	0.18180539
128	0x3e2e434a	0.17017856
129	0x3e8f41f0	0.27979994
130	0x3eafbad4	0.34322226
131	0x3d6dae67	0.05802765
132	0x3e9fc33e	0.31203645
133	0xbefadb06	-0.48995227
134	0x3e4546c1	0.19265272
135	0x3e4d5e58	0.2005552
136	0xbe4f8284	-0.20264632
137	0x3e65bf53	0.22436266
138	0xbee82ae0	-0.4534521
139	0x3ed1d9b0	0.40986395
140	0xbe6763c2	-0.22596648
141	0x3a8190b0	0.0009885039
142	0xbda6fb1e	-0.081533656
143	0x3e5b208b	0.21399133
144	0x3ea29596	0.3175475
145	0x3e1dd15c	0.15411896
146	0x3d40c0ec	0.047058985
147	0x3e2522dd	0.1612658
148	0x3e406ba7	0.18791066
149	0xbc6cff24	-0.014465127
150	0xbe108070	-0.14111495
151	0xbf0713f2	-0.5276481
152	0x3e936691	0.2878919
153	0x3e8d9988	0.27656198
154	0xbea70828	-0.3262341
155	0xbeda1c5f	-0.4259977
156	0x3eaed614	0.34147704
157	0xbecab594	-0.39591658
158	0xbed52e48	-0.41636872
159	0x3e0e2f4e	0.13885233
160	0xbebe1798	-0.37127376
161	0xbecb8773	-0.39751777
162	0x3e38129b	0.17975847
163	0x3e5e47b4	0.2170704
164	0x3ea41487	0.3204691
165	0x3eeaf16f	0.45887324
166	0xbd291686	-0.041281246
167	0x3c8676c3	0.016414052
168	0xbebec58a	-0.37260085
169	0x3e7c43b8	0.24635208
170	0x3ee0313b	0.4378756
171	0x3e9d8fc7	0.30773756
172	0xbea69fe4	-0.32543862
173	0xbd41cb71	-0.047313157
174	0xbe3d8829	-0.18508972
175	0xbd44e093	-0.048065733
176	0xbaea7433	-0.0017887413
177	0x3e6c727d	0.23090549
178	0x3ed5156d	0.4161791
179	0xbd9ba730	-0.07600248
180	0x3ea3d605	0.3199922
181	0xbed10b22	-0.40828806
182	0x3e1bf144	0.15228754
183	0xbe2abb9c	-0.1667313
184	0x3ed50c18	0.4161079
185	0xbdbb94b7	-0.091592245
186	0x3ce474ec	0.027887784
187	0x3ee1d744	0.44109547
188	0x3dc65805	0.09684757
189	0xbe9f78ac	-0.31146753
190	0xbeae28b4	-0.3401543
191	0x3ec7b6f7	0.3900678
192	0x3e75e506	0.24013147
193	0xbe61986a	-0.22030798
194	0xbe9234a4	-0.28555787
195	0xbe9a1b2f	-0.30098864
196	0x3ed035fc	0.40666187
197	0x3ed922f4	0.4240948
198	0x3dedcd5a	0.11611433
199	0xbc57da19	-0.013174557
200	0x3e8eb017	0.2786872
201	0x3cb6594c	0.022259377
202	0xbf163ead	-0.58689386
203	0xbd8882b5	-0.066655554
204	0xbd8d98f9	-0.06913943
205	0x3e75b1c8	0.239936
206	0x3e37ab23	0.17936377
207	0x3d7608ef	0.060067113
208	0xbe00c68e	-0.12575743
209	0xbe72b758	-0.23702753
210	0x3e5b9e2c	0.21447057
211	0xbe120690	-0.14260316
212	0x3eaf81bb	0.34278664
213	0x3e8ed2a0	0.2789507
214	0xbe24ea1b	-0.16104929
215	0x3ea68e40	0.32530403
216	0xbeb16a99	-0.3465164
217	0x3e94a5c6	0.29032725
218	0xbd7aebfe	-0.061260216
219	0x3e5dd05e	0.21661517
220	0x3e12b921	0.14328434
221	0x3d001a0d	0.031274844
222	0x3e280061	0.16406395
223	0xba0d3ef1	-0.0005388102
224	0xbdf89e62	-0.12139584
225	0x3e4b449d	0.19850393
226	0x3ec27363	0.37978658
227	0xbda29ae7	-0.079397015
228	0xbe9f8112	-0.3115316
229	0xbea5c4ac	-0.3237661
230	0xbdacf6b8	-0.08445495
231	0x3e9729cc	0.29524076
232	0x3e1d8d85	0.15386017
233	0xbe9a8aea	-0.30184108
234	0x3db398db	0.08769389
235	0x3e20ff5c	0.15722412
236	0x3e293470	0.1652391
237	0xbe98e09f	-0.29858872
238	0x3ebd7598	0.3700378
239	0xbe49d315	-0.19709428
240	0xbe5fe430	-0.2186439
241	0x3da8b5f4	0.0823783
242	0xbc42eec2	-0.011897745
243	0xbdf83c59	-0.121208854
244	0xbeab16f8	-0.3341596
245	0x3eaa84fa	0.33304578
246	0x3df8868e	0.12135039
247	0xbdf716c4	-0.12064889
248	0xbe03991b	-0.12851374
249	0xbe80b5e7	-0.2513878
250	0x3e9c1efc	0.3049239
251	0x3ea63a1d	0.32466212
252	0x3e75b5a8	0.23995078
253	0xbec754c2	-0.38931853
254	0xbebcbf3e	-0.36864656
255	0xbdad1e9e	-0.084531054

layer_1.bias f4 [400]
0	0xbdc00919	-0.09376735
1	0x3d8a4288	0.06750971
2	0x3dbfcd09	0.09365279
3	0x3d70d1a4	0.05879368
4	0x3cbbd4c7	0.022928609
5	0x3db578d1	0.088609345
6	0x3df1085e	0.11769174
7	0x3e052532	0.1300247
8	0x3ca6d247	0.02036394
9	0x3da274c1	0.07932425
10	0x3e000033	0.12500076
11	0xbe12f5a8	-0.14351523
12	0xbe206e49	-0.1566707
13	0x3d8dfedb	0.069333754
14	0x3da7adb9	0.08187432
15	0xbc3cf327	-0.011532581
16	0x3d2461a9	0.0401322
17	0x3d9a51e9	0.07535154
18	0xbe164cd7	-0.1467775
19	0x3d6ff601	0.058584217
20	0xbd78d342	-0.060748346
21	0xbe208ea4	-0.15679413
22	0xbbc9f525	-0.0061632567
23	0x3dcefb40	0.10106516
24	0xbdd851f9	-0.1056251
25	0xbdf1d348	-0.11807877
26	0xbd80daab	-0.062917076
27	0x3d4dbf24	0.050231114
28	0x3cd2f81e	0.025753077
29	0xbd06c67e	-0.03290414
30	0x3e1a9aa5	0.15098055
31	0xbdde0213	-0.108402394
32	0xbe32a7d6	-0.17446837
33	0x3cb8387b	0.02248787
34	0xbdc0f07a	-0.09420867
35	0xbcac3a83	-0.021023994
36	0xbc224499	-0.00990405
37	0x3da67581	0.08127881
38	0x3d2f3fb2	0.042785354
39	0x3e037511	0.12837626
40	0x3e22f77f	0.15914725
41	0x3e1783b4	0.14796335
42	0xbd951a59	-0.07280416
43	0x3dd2b819	0.1028902
44	0xbdfc5584	-0.12320998
45	0xbbebe33b	-0.007198719
46	0x3e28307d	0.16424747
47	0x3e4ae384	0.19813353
48	0xbe056590	-0.13027024
49	0x3dfa9640	0.12235689
50	0x3bbab04e	0.0056972867
51	0xbd93bcdd	-0.07213757
52	0x3e0a9d10	0.13536477
53	0x3e149f1d	0.14513822
54	0xbddf6a67	-0.109089665
55	0xbe15deed	-0.1463582
56	0xbe07cd65	-0.13261946
57	0xbc90225f	-0.017594514
58	0xbd8b62c4	-0.068059474
59	0x3d85fb92	0.06542124
60	0x3dd98e85	0.106228866
61	0xbd910e81	-0.070828445
62	0x3ceb764f	0.028742937
63	0xbe33b125	-0.17548044
64	0x3df885e5	0.12134913
65	0x3d943335	0.072363295
66	0x3e28b8d7	0.16476761
67	0x3c780ab8	0.015139274
68	0xbe10aba6	-0.14127979
69	0x3e644175	0.22290595
70	0x3d165413	0.036701273
71	0xbdcdd965	-0.1005123
72	0xbd9bdf78	-0.07610983
73	0xbde430c7	-0.11142116
74	0x3e250377	0.16114603
75	0x3caf45c5	0.021395573
76	0x3dc0ee81	0.09420491
77	0x3ddcbd66	0.107783124
78	0xbd407809	-0.046989474
79	0xbe074760	-0.13210821
80	0x3c6732a2	0.014111193
81	0x3e7b4561	0.24538185
82	0x3c7ccc5b	0.0154295815
83	0x3cd1fb38	0.025632486
84	0x3caaa315	0.020829717
85	0x3db4e90d	0.088335134
86	0x3db716f1	0.089399226
87	0x3e57297e	0.21011922
88	0x3e99f4d3	0.300696
89	0x3dbf07ef	0.09327685
90	0x3d2602f6	0.040530168
91	0xbe0b5169	-0.13605274
92	0xbe151158	-0.14557397
93	0xbd70e7c8	-0.058814794
94	0x3e027219	0.12738837
95	0x3e0e4937	0.13895117
96	0xbdc7d3d7	-0.09757202
97	0x3d16a097	0.036774244
98	0xbcfdf883	-0.031002289
99	0x3e0e6d7d	0.13908954
100	0x3cfb313b	0.030663123
101	0xbc91bf04	-0.017791279
102	0xbd422d4e	-0.047406487
103	0x3e3e10ce	0.18561098
104	0xbe40506c	-0.18780679
105	0xbd5d815a	-0.054078437
106	0x3dad5ea5	0.08465318
107	0x3e21368b	0.15743463
108	0x3c8a0511	0.016848119
109	0xbaa1b9b8	-0.0012338674
110	0xbd8f7502	-0.07004739
111	0xbe09c06a	-0.13452306
112	0x3d9e47cd	0.07728539
113	0x3ddcc82e	0.10780369
114	0x3e3ce568	0.18446887
115	0x3dcebc78	0.10094541
116	0x3d3f90b0	0.046768844
117	0x3e4521e4	0.1925121
118	0xbdf39b9b	-0.11894914
119	0x3dbb0f3a	0.091337636
120	0xbe1a60fd	-0.1507606
121	0xbe66c882	-0.22537425
122	0xbd82dce6	-0.06389789
123	0xbe09b4f2	-0.13447931
124	0x3d5007f9	0.050788853
125	0x3e36e981	0.17862512
126	0xbc6a68b6	-0.014307192
127	0x3d8b04f6	0.067880556
128	0xbce0ed56	-0.02745692
129	0x3de7990e	0.1130849
130	0xbd8e0a0b	-0.06935509
131	0xbdab7de9	-0.08373625
132	0x3db8e370	0.09027755
133	0x3ccfb651	0.02535549
134	0x3d07408f	0.033020552
135	0x3dc763f1	0.09735859
136	0x3bb031b8	0.0053770207
137	0x3dd89d80	0.10576916
138	0x3e6fef90	0.2343123
139	0x3e09f84b	0.13473623
140	0xbd89e92b	-0.067339264
141	0x3d9d127c	0.07669541
142	0xbe1a1c89	-0.15049948
143	0xbdff094c	-0.12452945
144	0x3e0ca7df	0.13735913
145	0xbde9559b	-0.11393281
146	0x3c9c3d0a	0.019072074
147	0xbd6c8d51	-0.057751957
148	0x3bedb8a2	0.007254676
149	0x3c3e0fb4	0.011600424
150	0xbd81b5f5	-0.06333534
151	0xbd7594b0	-0.059956253
152	0x3d0fffdd	0.03515612
153	0xbe3cdc1f	-0.18443345
154	0xbd52ac11	-0.051433627
155	0x3c17671d	0.009240893
156	0xbe46ca42	-0.19413093
157	0xbcc40d52	-0.023932133
158	0x3d27f2f3	0.04100318
159	0xbd36a6c8	-0.04459265
160	0x3d0a719d	0.033799756
161	0xbd806a07	-0.06270223
162	0x3d8165ee	0.0631827
163	0xbdb21ee3	-0.086972974
164	0x3d248be6	0.04017248
165	0xbd5576af	-0.05211514
166	0x3da7e1aa	0.08197339
167	0x3e364f5c	0.1780371
168	0xbe038115	-0.1284221
169	0xbde3a9b3	-0.11116352
170	0xbba8a298	-0.005146336
171	0xbe1b6258	-0.15174234
172	0x3e49b208	0.1969682
173	0x3e1e0509	0.15431608
174	0xbd8a15dd	-0.06742451
175	0xbcc3ae2e	-0.023886766
176	0x3db64636	0.089001104
177	0x3dd17344	0.10227063
178	0x3d32064c	0.043463036
179	0x3dac57e5	0.08415202
180	0x3e16f5df	0.1474223
181	0x3de73119	0.112886615
182	0x3c5a961f	0.013341456
183	0xbd221009	-0.039566074
184	0xbe0e0230	-0.13868022
185	0x3def9285	0.11697868
186	0xbd2c15d5	-0.04201301
187	0xbda70edf	-0.08157133
188	0xbcc50c9e	-0.024053868
189	0x3d322a3c	0.04349731
190	0x3e350059	0.17675914
191	0x3da84330	0.0821594
192	0x3cf4d146	0.029884946
193	0x3e1ec195	0.15503533
194	0xbd21a22c	-0.0394613
195	0x3d89ee1e	0.067348704
196	0xbde5f6ed	-0.11228738
197	0xbdaf7667	-0.08567505
198	0x3e0064c1	0.12538435
199	0x3daf1a23	0.08549907
200	0x3e3cffab	0.18456905
201	0xbd0b6cd6	-0.03403934
202	0x3dd9740b	0.106178366
203	0x3d3b6deb	0.045759123
204	0xbddc573d	-0.10758827
205	0xbcf3f803	-0.029781347
206	0x3dbae5bb	0.09125849
207	0xbc9c044a	-0.019045014
208	0x3e525bed	0.2054288
209	0xbe3df021	-0.18548633
210	0xbd898ebf	-0.0671668
211	0xbcce15da	-0.025156904
212	0x3d26c498	0.04071483
213	0x3d9cd4ee	0.076578006
214	0x3e1d5500	0.15364456
215	0xbe318545	-0.17335995
216	0x3da9f9c7	0.08299594
217	0x3e06ca8f	0.13163207
218	0x3d9940c2	0.07483055
219	0xbcd6f05b	-0.026237657
220	0xbdced5fb	-0.10099407
221	0x3d344baf	0.04401749
222	0x3ded6c11	0.11592878
223	0x3e0566d5	0.13027509
224	0xb9c94555	-0.00038389364
225	0x3d41d3ef	0.047321256
226	0xbd0f5f91	-0.03500325
227	0x3e0191ae	0.12653229
228	0x3e5ca143	0.21545891
229	0xbcd0b9ab	-0.025479158
230	0xbe44b330	-0.1920898
231	0xbe0492fe	-0.12946698
232	0xbe2557ad	-0.16146727
233	0x3deee0bb	0.11663958
234	0x3d092b53	0.033488583
235	0xbce5b9d5	-0.028042713
236	0x3a851cbb	0.0010155657
237	0xbce75996	-0.02824096
238	0x3dc93dde	0.09826253
239	0x3e7effd6	0.24902281
240	0x3cbbcbb8	0.02292429
241	0xbda71a96	-0.08159368
242	0xbcc2b304	-0.023767002
243	0x3dfe4edf	0.12417387
244	0x3db23f32	0.0870346
245	0xbc80ebbc	-0.015737407
246	0xbe32fc6f	-0.17479108
247	0x3d355b3c	0.04427646
248	0x3dd7e4df	0.105417006
249	0xbd3e810a	-0.04650978
250	0x3dc2a224	0.09503582
251	0x3e07d9f5	0.13266738
252	0x3da88d5c	0.08230087
253	0x3d831b30	0.0640167
254	0xbc0c7a2b	-0.008574049
255	0x3e30ed9a	0.17278138

layer_2.weight f4 [300, 400]
0	0x3dde8cef	0.10866725
1	0xbbf54a61	-0.0074856733
2	0xbcd8ba1c	-0.026455931
3	0xbdd1f595	-0.10251919
4	0x3d76a3ee	0.06021493
5	0xbd3cdc86	-0.046108745
6	0xbd890f0f	-0.06692325
7	0x3dbce776	0.09223835
8	0x3c5a7db6	0.013335636
9	0x3dce9057	0.100861244
10	0xbde8edcf	-0.113734834
11	0x3d6a4ed6	0.05720409
12	0xbc155a0b	-0.009115706
13	0xbe315903	-0.17319112
14	0x3ddc9dd5	0.107722916
15	0x3d2620ca	0.040558614
16	0xbc69ac5a	-0.014262283
17	0x3e1657de	0.14681956
18	0x3d5b8837	0.0535967
19	0x3d03b2fe	0.032153122
20	0xbd926f83	-0.071501754
21	0xbe5a7a3d	-0.21335693
22	0xbe11b290	-0.14228272
23	0xbe341c46	-0.1758891
24	0xbe4275d7	-0.18990265
25	0xbd942435	-0.072334684
26	0xbe301c42	-0.1719828
27	0xbb20ea60	-0.002455376
28	0xbdefbe4c	-0.11706218
29	0xbd9f307b	-0.07772919
30	0xbe10c21f	-0.14136551
31	0x3e2ede9f	0.1707711
32	0x3e4170b1	0.18890645
33	0x3c814846	0.015781533
34	0xbde853eb	-0.11344131
35	0xbde058a2	-0.10954405
36	0x3e27cc25	0.16386469
37	0xbd8fcec3	-0.070218585
38	0xbd82d7fd	-0.06388853
39	0x3e322b35	0.17399295
40	0x3d634db2	0.055494018
41	0x3dfc9cea	0.123346165
42	0xbdb6226f	-0.088932864
43	0xbd73ff2c	-0.059569523
44	0xbd9e1f46	-0.07720809
45	0xbe06e1c7	-0.13172065
46	0xbd97b72a	-0.07407983
47	0x3dcd5c49	0.100273676
48	0x3e8ee898	0.2791183
49	0xbdf4c8ce	-0.11952363
50	0xbd69b1bb	-0.057054263
51	0x3ead4989	0.33845165
52	0xbd5d28e4	-0.053994074
53	0x3e148ba9	0.14506401
54	0x3dafd009	0.085846014
55	0x3deb9333	0.115026854
56	0x3e7f5d95	0.24938042
57	0xbcd0ccd5	-0.025488297
58	0xbe3d9d98	-0.18517148
59	0xbd5a6626	-0.053320073
60	0x3db3a704	0.0877209
61	0xbe086a46	-0.1332179
62	0x3cef5535	0.029215435
63	0xbccf1fe5	-0.025283763
64	0x3d1903b1	0.037357036
65	0x3dbb82aa	0.091557816
66	0x3deed2d2	0.116613045
67	0x3cab51f2	0.020913098
68	0x3db29c41	0.08721209
69	0x3da1f08e	0.0790721
70	0x3da73a1a	0.08165379
71	0xbbb27436	-0.0054459823
72	0x3d329b71	0.04360527
73	0x3d8e65f3	0.06953039
74	0x3c4aa8e8	0.012369372
75	0xbe587dac	-0.2114169
76	0x3e2a6c91	0.16642977
77	0x3c364cb7	0.011126689
78	0xbc78f995	-0.015196224
79	0x3e554987	0.2082883
80	0x3e5a47ed	0.213165
81	0xbce3ea46	-0.027821671
82	0xbe05f5f2	-0.13082102
83	0xbe635299	-0.22199477
84	0x3dcaefd8	0.09909028
85	0x3d003d4c	0.031308457
86	0xbd6b68a0	-0.057472825
87	0xb9a31001	-0.00031101707
88	0x3e097f14	0.13427383
89	0x3dedc142	0.116091266
90	0xbdf72c21	-0.12068964
91	0x3d06a4af	0.0328719
92	0x3da1fa2d	0.07909045
93	0x3cc517a6	0.024059128
94	0xbe2baa4e	-0.16764185
95	0x3cd88c87	0.026434196
96	0xbe83fe21	-0.25779822
97	0xbda343b2	-0.07971896
98	0xbe200f8e	-0.15630934
99	0xbe026177	-0.12732492
100	0x3cabe135	0.02098141
101	0xbd6c8cd4	-0.05775149
102	0xbe80dfc3	-0.25170717
103	0xbc887eba	-0.01666199
104	0xbe5608c6	-0.20901784
105	0x3dcc49c8	0.0997501
106	0x3d132f95	0.03593405
107	0x3d72438a	0.05914644
108	0xbc9ad2f7	-0.018899424
109	0x3e648233	0.22315292
110	0xbdcf0309	-0.10108001
111	0x3c47d3eb	0.012196521
112	0xbd0f4211	-0.034975115
113	0x3d56e7be	0.0524671
114	0x3d19f12a	0.037583508
115	0xbd9096e0	-0.07060027
116	0x3e6239b9	0.22092332
117	0x3dc0986a	0.09404071
118	0x3e7c2d17	0.24626575
119	0xbcd2bcae	-0.025724735
120	0x3dd7ff8c	0.105467886
121	0x3e40bd9b	0.18822329
122	0x3d4be19b	0.0497757
123	0xbd8cf04e	-0.06881772
124	0x3d9be818	0.07612628
125	0xbc7e04d2	-0.015504079
126	0x3dabe000	0.08392334
127	0xbd95f31a	-0.073217586
128	0xbd29a7bb	-0.041419726
129	0x3da35510	0.07975209
130	0xbda17f14	-0.07885566
131	0xbde70ea6	-0.11282091
132	0x3c9d7f50	0.019225746
133	0xbd87aa02	-0.06624223
134	0x3caa983e	0.020824548
135	0xbe1e8c19	-0.1548313
136	0xbe0163c9	-0.12635721
137	0xbde088dd	-0.109636046
138	0xbdc3aa7d	-0.095540024
139	0xbe44fd5f	-0.19237278
140	0xbcaa3c69	-0.020780759
141	0xbd9a6833	-0.07539406
142	0x3de027ac	0.10945067
143	0x3d91d4df	0.0712068
144	0x3d957129	0.07296974
145	0xbd881b4a	-0.0664583
146	0x3d887db3	0.066646
147	0xbe0d6a9b	-0.13810198
148	0xbd8153e6	-0.063148305
149	0x3e65321f	0.22382401
150	0x3dd9f784	0.10642913
151	0x3d47ebb8	0.048808783
152	0x3df61924	0.12016514
153	0x3e542031	0.20715405
154	0xbdaaf72a	-0.08347924
155	0x3e016d2f	0.12639306
156	0xbd909a6e	-0.07060705
157	0xbe375790	-0.17904496
158	0xbe9d2612	-0.30693108
159	0xbe0e4251	-0.13892485
160	0xbdeefccf	-0.11669313
161	0xbd700aa1	-0.058603887
162	0x3d0ebb47	0.03484657
163	0xbe4dfff1	-0.20117165
164	0xbd41547c	-0.04719971
165	0x3c9a0972	0.018803332
166	0x3e54c728	0.20779097
167	0xbcb4ece4	-0.022085615
168	0x3da2f56b	0.07956966
169	0x3e37ec21	0.1796117
170	0x3e44d03e	0.19220063
171	0x3e1851ed	0.14875002
172	0x3df3ceec	0.119047016
173	0xbc4693c3	-0.01212019
174	0xbe6a2a26	-0.22867641
175	0xbdc2724e	-0.09494458
176	0xbdb4de7f	-0.088315
177	0xbd440b22	-0.04786218
178	0x3e18c263	0.14917903
179	0xbe0ef46e	-0.1396043
180	0xbd472973	-0.048623513
181	0xbd5772d6	-0.05259975
182	0x3d12c392	0.03583104
183	0x3b326852	0.0027222824
184	0x3cc3640b	0.023851415
185	0xbe1bda55	-0.15220006
186	0xbcfc6661	-0.030810537
187	0x3de3e835	0.11128274
188	0x3d23c33c	0.039981112
189	0xbdd40114	-0.10351768
190	0x3d202acd	0.039103318
191	0x3ee2335d	0.44179812
192	0x3c003aaa	0.007826487
193	0xbc9ee600	-0.019396782
194	0x3e9413fd	0.289215
195	0xbdff45f6	-0.12464516
196	0xbe114047	-0.14184676
197	0x3d31eda3	0.04343952
198	0x3e03beec	0.128658
199	0xbe10219a	-0.14075318
200	0xbdfba554	-0.12287393
201	0x3e7822c0	0.24232006
202	0x3c17d109	0.009266146
203	0xbe3a1d18	-0.18175161
204	0x3e7dfb57	0.2480291
205	0xbd4133ae	-0.047168426
206	0xbd138d7c	-0.036023602
207	0xbd3ef68e	-0.04662185
208	0xbe26dcd6	-0.1629518
209	0xbd8e02d3	-0.069341324
210	0xbc933b9b	-0.017972758
211	0x3d1618e8	0.036644846
212	0x3d8f1dd5	0.06988112
213	0x3d8cd6ed	0.06876931
214	0xbd2b62ba	-0.0418422
215	0xbc86a2b4	-0.016435005
216	0x3c2d20f5	0.01056694
217	0x3ea477cb	0.32122645
218	0x3e563b1c	0.20920986
219	0xbdedb893	-0.1160747
220	0x3dbf25d7	0.09333389
221	0xbd870ff4	-0.0659484
222	0x3e0a58f0	0.1351049
223	0xbd811d6e	-0.063044414
224	0xbdadd6c7	-0.08488231
225	0x3e089422	0.13337758
226	0x3e96bcf3	0.29441032
227	0xbdaac138	-0.08337635
228	0x3cef3d7d	0.029204125
229	0x3e6c2d31	0.23064114
230	0xbe1fa825	-0.15591486
231	0xbbbb4435	-0.005714918
232	0x3e6d2b44	0.23161036
233	0x3e4ea57b	0.20180313
234	0xbcc663e7	-0.024217559
235	0xbe29f95a	-0.16599026
236	0xbd1fa3a8	-0.038974434
237	0xbbb0b6ec	-0.0053928997
238	0xbd10ce2f	-0.035352882
239	0xbe48eee1	-0.19622375
240	0x3dee4cfa	0.11635776
241	0x3c23a48e	0.009987963
242	0x3e44254a	0.1915485
243	0xbbac6f36	-0.005262281
244	0xbe08f4dd	-0.13374658
245	0x3b616551	0.0034392665
246	0x3dd0669c	0.10175821
247	0xbd693879	-0.056938622
248	0xbd7ce181	-0.061738495
249	0x3d82f5aa	0.06394513
250	0x3d01ff55	0.031737644
251	0x3d8a4ba5	0.06752709
252	0xbc82e49b	-0.015978148
253	0xbe44547c	-0.19172853
254	0xbdb0b9fc	-0.08629224
255	0xbe4ce02b	-0.20007388

layer_2.bias f4 [300]
0	0xbd80dd1b	-0.062921725
1	0x3cced48a	0.02524783
2	0x3bd07abc	0.0063622873
3	0x3c2c0b1c	0.010500696
4	0xbc012db9	-0.007884436
5	0x39416700	0.00018444285
6	0xbca402f9	-0.020020949
7	0xbca874a4	-0.020563431
8	0x3d18a5b8	0.037267417
9	0x3a263251	0.0006339895
10	0x3c9ca8e5	0.019123504
11	0xbd3424bb	-0.04398034
12	0x3ac75736	0.0015208486
13	0xbcccbfb5	-0.024993757
14	0x3d700e2b	0.05860726
15	0x3cdfc420	0.0273152
16	0xb9eaa8fb	-0.00044757858
17	0x3a8237ce	0.0009934844
18	0xbb1b5280	-0.0023700297
19	0xbcb4fa4c	-0.022092007
20	0xbc79f9ef	-0.015257343
21	0x3cafec5f	0.021475015
22	0x3bd43e30	0.00647714
23	0x3c8762da	0.016526628
24	0xbd61274b	-0.054969113
25	0x3b761ce6	0.0037553846
26	0x3ca9002a	0.020629961
27	0x3af40d6f	0.0018619726
28	0x3d057083	0.032578003
29	0xbd5b248c	-0.05350165
30	0x3b73ff6f	0.0037231108
31	0x3c58c1a1	0.0132297585
32	0xbd109121	-0.035294656
33	0xbcb17bba	-0.021665443
34	0xbd474818	-0.04865274
35	0x3c1e9685	0.009679441
36	0xbbc4172e	-0.0059842085
37	0xbd81c03b	-0.06335493
38	0x3d15fa3d	0.0366156
39	0x3cba7af2	0.022763703
40	0x3c83695a	0.016041446
41	0xbca035ad	-0.019556845
42	0x3c28587f	0.010275005
43	0x3db72a1c	0.089435786
44	0xb9c15e0f	-0.00036881908
45	0xbd707ac5	-0.058710832
46	0xbbf35adf	-0.007426604
47	0x3d0b51be	0.034013502
48	0x3c1935fd	0.009351251
49	0x3d5d2743	0.05399252
50	0x3ca657ae	0.02030548
51	0xbc97ef26	-0.018546652
52	0xbb34059c	-0.0027469164
53	0xbc1deab3	-0.009638476
54	0x3ce30a1d	0.027714783
55	0xbc8a6f03	-0.016898638
56	0xbcc449d0	-0.023960978
57	0xbd03d20b	-0.032182734
58	0x3ca2a083	0.019851929
59	0xbd5153f4	-0.051105455
60	0x3c8464aa	0.016161282
61	0x3d0f7689	0.035025153
62	0x3d691361	0.056903247
63	0xbc884b1d	-0.01663738
64	0xbce89c91	-0.02839497
65	0x3d2ec2b0	0.042666137
66	0x3cb36a9e	0.021901425
67	0x3a5136b2	0.00079808675
68	0xbc834123	-0.01602227
69	0x3c33ed8d	0.0109819295
70	0xbcf6fb04	-0.03014899
71	0x3d465e9c	0.04843007
72	0x3d7722c9	0.060335908
73	0x3b8c0c66	0.004273939
74	0xbcc103bc	-0.023561351
75	0xbd909e49	-0.070614405
76	0xbc57ff6a	-0.013183454
77	0x3cff4b46	0.031163823
78	0xbc217a6a	-0.009855846
79	0xbd8b465f	-0.068005316
80	0xbd3a102d	-0.045425583
81	0xbd775374	-0.06038232
82	0xbb1de47b	-0.0024092484
83	0xbcf1f606	-0.029536258
84	0xbb7348e8	-0.0037122313
85	0xbc0417ab	-0.0080622835
86	0x3d2bc631	0.041937057
87	0xbd956bce	-0.07295953
88	0xb91ee6e2	-0.00015154065
89	0x3bfc3bea	0.007697572
90	0x3c834fb6	0.01602922
91	0x3ce6b590	0.028162748
92	0x3dcfd063	0.101471685
93	0xbd35be50	-0.04437095
94	0xbd1239fa	-0.035699822
95	0xbc9062c3	-0.017625218
96	0x3d834b72	0.064108744
97	0xbcce4f4c	-0.025184296
98	0xbce384d1	-0.027773293
99	0x3ce1c291	0.027558597
100	0x3d056633	0.032568168
101	0xbc615302	-0.013752701
102	0x3d35bb3b	0.04436801
103	0xbcebd49c	-0.028787903
104	0xbc773d9e	-0.015090374
105	0xbd49816a	-0.049195684
106	0xbc971f00	-0.0184474
107	0x3c8abcaa	0.016935665
108	0xbd00d412	-0.031452246
109	0x3bec36d6	0.0072086854
110	0xbd720f97	-0.0590969
111	0x3c8347cb	0.016025444
112	0x3c4f3e52	0.012649136
113	0x3cc7b043	0.02437604
114	0x3c15b454	0.009137232
115	0x3b1a8232	0.0023576138
116	0x3dbef365	0.093237676
117	0x3d964b00	0.07338524
118	0x3ce0daaa	0.027448017
119	0xbd288297	-0.041140165
120	0xbd12c253	-0.035829853
121	0xbcf44b6c	-0.02982112
122	0xbcfbcb67	-0.030736638
123	0xbbf6a5bb	-0.007527081
124	0xbb040bb2	-0.0020148573
125	0x3cd5a087	0.026077522
126	0x3cd04950	0.025425583
127	0x3ced7ef6	0.028991204
128	0xbd48ac40	-0.048992395
129	0x3d7e6ebb	0.06211732
130	0xbca2cb0a	-0.019872207
131	0xbcd86e7c	-0.02641987
132	0xbb91e5bb	-0.004452435
133	0xbd9ddb93	-0.07707896
134	0x3ced1514	0.028940715
135	0xbbd58168	-0.0065156706
136	0xbd2d40ff	-0.042298313
137	0xbabad0fa	-0.0014252954
138	0x3c95f370	0.018304557
139	0xbc6afd23	-0.014342579
140	0xbc9925dd	-0.018694812
141	0xbd06ab2b	-0.032878082
142	0xbcd0fbcb	-0.02551069
143	0x3d07a082	0.033112057
144	0x3beb4e3a	0.007180956
145	0xbceada0e	-0.02866843
146	0x3c21453a	0.009843165
147	0x3c6de1ea	0.014519194
148	0xbcdf27e2	-0.027240697
149	0xbcd78c73	-0.026312089
150	0x3cb1e61e	0.021716174
151	0xbd2ab8e5	-0.041680235
152	0x3ce60776	0.02807973
153	0x3c93746b	0.017999848
154	0x3bc6c101	0.0060654883
155	0x3c26f4ec	0.01019023
156	0xbc648e3e	-0.013949929
157	0xbca170bf	-0.019707082
158	0x3d1594f1	0.036518995
159	0x3d4ca99b	0.049966436
160	0xbc7fc857	-0.01561173
161	0x3c775b81	0.0150975
162	0x3c80f6c6	0.01574267
163	0xbd1c7b74	-0.03820367
164	0x3c50cdc3	0.01274437
165	0xbb363bde	-0.002780668
166	0xbcf96404	-0.030443199
167	0x3d4a9187	0.049455192
168	0x3d9a8f1b	0.075468265
169	0xbcf7ca7c	-0.03024792
170	0x3d656d07	0.05601218
171	0xbc1b9981	-0.009497047
172	0xbd196c61	-0.037456874
173	0xbd74877f	-0.05969953
174	0xbd590b5c	-0.05298935
175	0x3c988da7	0.018622233
176	0x3c4c8c56	0.012484631
177	0xbd7557f5	-0.059898335
178	0xbcc252e1	-0.02372116
179	0x3c8cc882	0.017185453
180	0x3ca5c0d4	0.02023355
181	0x3d6ca3c5	0.05777337
182	0xbd127e7f	-0.035765167
183	0x3c9be64b	0.01903071
184	0x3d46bead	0.048521686
185	0x3cc64cb1	0.024206491
186	0xbd0a1388	-0.033710033
187	0xbd2d22b2	-0.042269416
188	0x3d0af2c9	0.033922944
189	0x3d3e23e1	0.046420936
190	0x3d56ff92	0.052489825
191	0xbd0c464a	-0.03424672
192	0x3bcf3af4	0.0063241664
193	0x3d067c99	0.03283367
194	0xbd51b785	-0.05120041
195	0x3c5c9d8f	0.013465299
196	0x3d8846c8	0.066541255
197	0x3d29f778	0.04149577
198	0x3c90a5f4	0.017657258
199	0xbd142c4c	-0.036175057
200	0x3d2e798b	0.04259638
201	0xbc82837a	-0.015931834
202	0x3cc404ce	0.023928072
203	0x3c24224a	0.010017941
204	0x3cc43974	0.023953177
205	0xbd49568b	-0.0491548
206	0x3a4ae9e6	0.0007740542
207	0x3bba9c12	0.0056948746
208	0x3d0b94ea	0.034077562
209	0xbcf114f7	-0.029428942
210	0x3d0e8284	0.03479244
211	0xbd3bd8df	-0.04586112
212	0x3c9e6ade	0.019338068
213	0x3d2c4871	0.042061273
214	0x3c4008d9	0.011720859
215	0x3d900d06	0.07033734
216	0x3bfad967	0.007655311
217	0xbb8a6332	-0.004223251
218	0x3cc0e159	0.023544954
219	0x3d1fc6db	0.039008003
220	0xbcfd4019	-0.030914353
221	0xbd110e8f	-0.035414275
222	0x3c333ed7	0.010940275
223	0xbd08f8c0	-0.03344035
224	0xbcbb8d7a	-0.02289461
225	0xbd19ecef	-0.037579473
226	0x3ca3591e	0.019939955
227	0xbbab2286	-0.0052226214
228	0x3c08adbc	0.008342203
229	0xbb9b1f8c	-0.0047339853
230	0x3bc2eb95	0.0059484937
231	0xbbbfb47e	-0.005850374
232	0xbbdffe83	-0.00683576
233	0x3b50188e	0.0031752917
234	0xbb28f417	-0.0025780255
235	0x3bf8e281	0.0075953607
236	0xbca76a86	-0.020436537
237	0xbd5169f3	-0.05112643
238	0x3d2532a7	0.04033151
239	0xbcad48c1	-0.021152856
240	0xbaef994e	-0.0018279941
241	0x3c53671e	0.012903003
242	0x3d19e233	0.037569236
243	0xbd474f61	-0.048659686
244	0x3d86a829	0.06575043
245	0x3d1043e5	0.035221
246	0x3b07191c	0.0020614332
247	0xbce82aff	-0.028340815
248	0x3d39329f	0.04521429
249	0xbd425e9c	-0.047453508
250	0xbd65a39e	-0.05606424
251	0xbcdf344a	-0.027246613
252	0xbd5b78a9	-0.053581867
253	0xbc87e76b	-0.01658984
254	0xbb87e17b	-0.0041467524
255	0xbd412471	-0.047153894

layer_3.weight f4 [2, 300]
0	0xbf144aa3	-0.57926387
1	0x3d455c3b	0.04818366
2	0x3b15b6c1	0.0022844526
3	0xbca50306	-0.020143043
4	0xbe90538e	-0.28188747
5	0x3b679724	0.003533789
6	0xbcb11894	-0.021618165
7	0xbdb77c85	-0.08959297
8	0xbe24fc82	-0.16111949
9	0x3e951f82	0.291256
10	0xbbc873e8	-0.0061173327
11	0xbe802792	-0.2503019
12	0xbe75268e	-0.23940489
13	0xbdeebd67	-0.116572194
14	0xbd4799aa	-0.04873053
15	0x3c1fa698	0.009744309
16	0xbc2e52a3	-0.010639819
17	0x3e02925f	0.12751149
18	0x3d554b1f	0.052073594
19	0x3e60c938	0.21951759
20	0xbc704846	-0.014665669
21	0x3e449321	0.1919675
22	0x3e08aded	0.13347597
23	0x3cd99546	0.026560437
24	0x3d129204	0.035783783
25	0x3d909775	0.07060138
26	0x3e34c968	0.17654955
27	0xbe12190a	-0.14267364
28	0x3e64ec6f	0.22355817
29	0x3df0fee1	0.11767364
30	0xbe59629a	-0.2122902
31	0xbdffe654	-0.124951035
32	0x3dba67d3	0.09101834
33	0xbde497f0	-0.11161792
34	0x3e7e8b75	0.24857886
35	0xbbce1225	-0.006288784
36	0x3e072ce4	0.13200718
37	0xbd93c073	-0.07214441
38	0xbe0b6b15	-0.13615067
39	0x3e0dd7a4	0.13851792
40	0x3e15328c	0.14570063
41	0x3e0cae54	0.13738376
42	0x3d4ce525	0.050023217
43	0xbd2ddbc4	-0.042445913
44	0x3db44013	0.08801284
45	0xbf04cea4	-0.5187781
46	0x3e14b25c	0.14521164
47	0x3d8929f2	0.066974536
48	0x3de81ca4	0.11333588
49	0x3e308d5d	0.17241426
50	0xbceca06f	-0.028885094
51	0x3e125f5d	0.1429419
52	0x3e0d53b9	0.13801469
53	0x3ccec3a5	0.025239775
54	0x3de2a6f9	0.11067004
55	0x3dd2cf75	0.102934755
56	0x3e0c9aaa	0.13730875
57	0xbf3be80b	-0.73400944
58	0x3d8781f3	0.06616583
59	0xbe893554	-0.267985
60	0x3d860379	0.06543631
61	0x3de43cd6	0.11144416
62	0xbdd0795f	-0.101794
63	0x3e9f67d5	0.31133905
64	0x3dec7cde	0.11547254
65	0x3d9d68ee	0.076860294
66	0x3da4568e	0.080243215
67	0xbd5afcdb	-0.053463798
68	0xbe6e515e	-0.23273227
69	0x3ddf0ba9	0.10890896
70	0x3e2d3e51	0.16918303
71	0x3d7247d9	0.05915055
72	0x3df4af3b	0.11947485
73	0x3dba3200	0.09091568
74	0x3ae28962	0.0017283375
75	0xbeb4b93b	-0.3529757
76	0xbdcb079e	-0.09913562
77	0xbd159026	-0.036514424
78	0x3c613f7e	0.013748048
79	0xbe65f4f2	-0.2245672
80	0x3e5c84ac	0.21534985
81	0x3d41c210	0.047304213
82	0xbe67bb3f	-0.22630022
83	0x3d31ca91	0.043406073
84	0x3de9cb60	0.11415744
85	0xbdc3c4c2	-0.09559013
86	0x3c8c153d	0.017099971
87	0xbed5e08e	-0.41772884
88	0x3e94929f	0.29018113
89	0xbe4e0576	-0.2011927
90	0x3d1bf82e	0.03807848
91	0xbd37d8e4	-0.044884577
92	0xbe3df6d3	-0.18551187
93	0x3d070aa0	0.032969117
94	0x3d535f25	0.05160441
95	0xbf18504f	-0.5949754
96	0xbd3cd6ff	-0.046103474
97	0xbd2c5f9e	-0.042083375
98	0x3de03bf1	0.10948933
99	0x3bb3df77	0.0054892856
100	0x3dcf31f5	0.101169504
101	0x3e13efd6	0.14446959
102	0x3e24be2d	0.16088171
103	0xbda7d18f	-0.08194267
104	0xbe580f8b	-0.21099679
105	0xbe7611e5	-0.24030264
106	0xbf08d134	-0.5344422
107	0xbe56fe6a	-0.20995489
108	0x3e0f1768	0.13973773
109	0xbc911cec	-0.017713986
110	0x3f58aeec	0.8464191
111	0xbe1d8490	-0.153826
112	0x3d22cd13	0.039746355
113	0x3e83b822	0.2572642
114	0xbd411e3a	-0.047147967
115	0x3e352d44	0.17693049
116	0xbd85ce02	-0.065334335
117	0x3e220499	0.15822066
118	0x3d836910	0.064165235
119	0x3e8c57c4	0.2741071
120	0xbe208a26	-0.156777
121	0x3c2de278	0.010613076
122	0x3e67bb5c	0.22630066
123	0x3d56c5fd	0.05243491
124	0xbe08a056	-0.13342413
125	0x3de83139	0.113375135
126	0x3c94b68c	0.018153451
127	0x3e0259ad	0.12729521
128	0xbe41922a	-0.18903413
129	0xbe052cc2	-0.13005355
130	0x3e2290e1	0.1587558
131	0x3ebe0c6d	0.37118855
132	0x3e47cec9	0.19512476
133	0xbe874118	-0.2641685
134	0x3c9302c2	0.017945651
135	0xbef0d175	-0.47034803
136	0xbf01b2ef	-0.50663656
137	0xbd86f2c7	-0.06589275
138	0x3e87dfb9	0.26537874
139	0x3d6d3d5d	0.05791985
140	0xbdb6d99d	-0.08928225
141	0x3dfed392	0.124426976
142	0xbeabf062	-0.33581835
143	0xbd8c7635	-0.06858484
144	0xbe0a0e50	-0.13482022
145	0x3e0c7466	0.13716277
146	0xbdf6418f	-0.12024223
147	0x3a83eed4	0.0010065683
148	0x3dc1022e	0.09424244
149	0xbcad43ee	-0.021150555
150	0xbdc6f0d3	-0.09713902
151	0x3db57b1e	0.08861373
152	0x3d4c71e7	0.049913313
153	0x3e12fcb8	0.14354217
154	0xbe2e69cc	-0.17032546
155	0x3ba7c049	0.0051193577
156	0xbd571946	-0.052514337
157	0x3d4d1b8c	0.0500751
158	0xbd539385	-0.051654357
159	0x3d89348f	0.06699478
160	0xbe185b23	-0.14878516
161	0xbd2a5f84	-0.041594997
162	0x3e0b1612	0.13582638
163	0x3cce9653	0.025218165
164	0x3f0a160d	0.53939897
165	0x3e585479	0.21125974
166	0x3e2b74e7	0.16743813
167	0xbd98bc9c	-0.074578494
168	0xbe28cc5a	-0.16484204
169	0xbe06bc3f	-0.13157748
170	0xbcb85f7d	-0.02250647
171	0xbdbc93c4	-0.092078716
172	0xbc90ddbf	-0.017683862
173	0x3d9d0813	0.07667556
174	0xbd1c6459	-0.038181636
175	0x3d9426c6	0.07233958
176	0xbf1b9308	-0.60771227
177	0xbeb52f42	-0.35387617
178	0xbe835354	-0.25649512
179	0xbdbbae77	-0.09164136
180	0xbe167ef6	-0.14696869
181	0xbc8423a3	-0.016130274
182	0x3e232ed8	0.15935838
183	0xbdacfcb4	-0.08446637
184	0xbdfae53c	-0.12250754
185	0xbd8746d4	-0.06605306
186	0xbdb379e7	-0.087634854
187	0xbe0aab84	-0.1354199
188	0xbddfd848	-0.10929924
189	0x3e043d0b	0.12913911
190	0x3d289c64	0.04116477
191	0x3d80dc97	0.06292074
192	0x3e1c9fb7	0.15295301
193	0xbbed118e	-0.0072347587
194	0xbd782840	-0.06058526
195	0x3dea414b	0.11438235
196	0xbe1328b6	-0.14370999
197	0x3d821165	0.06350974
198	0xbd744deb	-0.05964462
199	0xbda25389	-0.07926089
200	0x3c947e6d	0.01812669
201	0x3d54b226	0.051927708
202	0x3e17a68d	0.14809628
203	0x3e2a8c38	0.16655052
204	0xbe92f6e6	-0.28703994
205	0xbe6bab0e	-0.23014471
206	0x3f059b7c	0.52190375
207	0x3d211676	0.03932806
208	0x3dfbf375	0.12302295
209	0x3e44165e	0.19149157
210	0xbe587e26	-0.21141872
211	0xbcf00f0b	-0.029304048
212	0x3d97b303	0.07407191
213	0xbce1b2f5	-0.027551154
214	0x3ca49ff4	0.020095803
215	0xbe2c528a	-0.16828361
216	0x3ce0a7f9	0.027423846
217	0x3e0c819e	0.1372132
218	0xbe2c163b	-0.16805355
219	0xbcf3ec7e	-0.029775854
220	0xbde34f6c	-0.11099133
221	0x3d664c61	0.056225184
222	0x3d5cc1a0	0.053895593
223	0xbe76d094	-0.24103004
224	0xbd4bba5a	-0.049738266
225	0x3cd96fef	0.026542632
226	0xbce4cf78	-0.02793096
227	0xbd88b7e7	-0.066757016
228	0x3c0a42cc	0.008438777
229	0x3c32fe82	0.010924937
230	0xbe2a25f8	-0.16616046
231	0x3e38de4f	0.18053554
232	0xbc13e238	-0.009026103
233	0x3d8e53c3	0.0694957
234	0x3c558aa6	0.013033545
235	0x3e0d010f	0.13769935
236	0xbe8b3566	-0.27189177
237	0x3d80e1b4	0.062930495
238	0xbcc1ab2b	-0.02364119
239	0x3d4e1861	0.05031622
240	0xbc88970d	-0.01667359
241	0x3de4c0ba	0.11169572
242	0x3d9e52f0	0.07730663
243	0x3cbd73cc	0.023126505
244	0xbe35fe39	-0.1777276
245	0xbd3bc9d6	-0.045846783
246	0xbd86e3da	-0.06586428
247	0xbe5a5d74	-0.21324712
248	0xbd089201	-0.033342365
249	0x3f0de010	0.5542002
250	0x3d95003f	0.072754376
251	0x3dcae802	0.09907533
252	0x3da2ef9e	0.079558596
253	0x3d336e64	0.04380645
254	0x3e961bbc	0.29318035
255	0x3e070df6	0.1318892

layer_3.bias f4 [2]
0	0x3c6dcfbc	0.01451486
1	0xbc8be09d	-0.017074877
