robot_nav/robot_nav/models/CNNTD3/checkpoint/CNNTD3_actor.pth (torch, 550433 bytes, 16 tensors)

cnn1.weight f4 [4, 1, 8]
000000 5a eb c7 bc a2 48 b1 bd e1 3e 3d 3e 0f cd a1 be
       -0.024404217 -0.08656432 0.18481018 -0.3160176
000010 3c 2b 19 be e2 df 8d be 42 b0 12 3e 72 a1 47 be
       -0.14957899 -0.27709872 0.1432505 -0.1949518
000020 2f 3b b0 be 17 88 b1 be 00 14 d1 3d 99 34 0f bb
       -0.34420153 -0.3467414 0.10208893 -0.002185142
000030 55 7c 99 3e c5 1f 54 be c4 6b a4 be 99 5d a8 3e
       0.2997767 -0.20715244 -0.3211347 0.3288391
000040 24 87 3e be 70 2d 8e be 3b 9c be be ea 1e 02 be
       -0.1860624 -0.2776904 -0.3722857 -0.12707105
000050 d4 56 68 3d 74 39 14 3e 26 88 89 be e4 0b 17 3d
       0.05672343 0.14475042 -0.26861686 0.036876574
000060 af 36 c3 3e 1c 55 bf 3e 1c 50 14 3e dd 69 81 3d
       0.38127658 0.3736962 0.14483684 0.0631902
000070 9a 13 c4 3e 66 25 87 3e 81 12 58 3e 23 2c 97 3c
       0.38296205 0.2639572 0.21100809 0.018453663

cnn1.bias f4 [4]
000000 d7 f4 b9 3e a4 b5 af be ca b8 a7 3e 86 c8 3b bd
       0.3631961 -0.34318268 0.3275817 -0.04584553

cnn2.weight f4 [8, 4, 8]
000000 d6 16 86 3e 96 49 54 3e 02 f9 37 3e ab da 41 3d
       0.26189297 0.20731196 0.17966083 0.04732768
000010 77 2f b7 3d 89 1b 29 3d c0 05 85 3d 19 3a 6e 3e
       0.089446 0.041286025 0.06495237 0.2326435
000020 2c 92 0c be 26 e4 c6 bb cc 10 85 be 96 f5 0b be
       -0.13727635 -0.006069678 -0.25989377 -0.13667902
000030 fa 8c 03 bc b9 bf 7a be 47 08 da bd bd 25 07 be
       -0.008029217 -0.24487199 -0.1064611 -0.1319799
000040 da 44 af 3e a8 73 74 3e 64 1f c1 3e b6 b0 a0 3e
       0.34232217 0.23872244 0.37719262 0.3138482
000050 11 3c 96 3e fb 94 88 3e cf 92 a8 3e 5d 47 20 3f
       0.29342702 0.26676163 0.32924506 0.6260889
000060 b5 c3 60 bd 0e 8c 82 3d 8b 73 ac 3b 7f ed bb 3d
       -0.05487414 0.063743696 0.005262797 0.09176158
000070 d6 d4 dd bb 78 5f 22 3e 09 bd e4 bd 41 ac 72 bd
       -0.006769757 0.15856731 -0.11168868 -0.059246305
000080 7e 36 44 3b 64 45 3d 3d d2 31 d6 3d bf 15 d7 3d
       0.0029939706 0.046208754 0.10458721 0.105021946
000090 2c f5 7c bd 60 74 51 3d 21 35 0b 3e 5d a1 69 3e
       -0.06175725 0.051136374 0.13594486 0.22815461
0000a0 5c b3 a9 3c 91 27 11 be b1 00 0c be 91 d3 29 be
       0.020715408 -0.1417525 -0.13672139 -0.16584612
0000b0 bc 68 b9 3b 67 67 12 3c 5e 68 75 bc 9e 8d 17 be
       0.0056582373 0.008935786 -0.014978496 -0.14800116
0000c0 a8 1c a0 3e 55 eb 91 3e 3e ed a6 3d a7 88 9f 3e
       0.31271863 0.28499857 0.08150719 0.31158945
0000d0 31 bf a0 3e e1 c5 5d 3e e7 8e 36 3e 60 49 79 3e
       0.31395867 0.21657516 0.1782795 0.24344397
0000e0 7e 18 79 be 0d 83 37 be 2b cc 5c bd e0 1e d6 bb
       -0.2432575 -0.17921086 -0.053905647 -0.0065344423
0000f0 2b a5 b4 3c a3 f3 ba bd c3 72 4a 3e a1 b1 57 bb
       0.022051414 -0.09128501 0.1977034 -0.0032912272
000100 d9 90 87 be cf 3b 63 be d0 65 0a be 33 e7 fe bb
       -0.26477697 -0.22190784 -0.13515401 -0.007779026
000110 5b 0f 55 be 42 c6 57 3c c0 99 25 be c7 f7 1f be
       -0.20806639 0.013169827 -0.16171932 -0.15621863
000120 e4 9a 3a be 39 db 62 3e 90 f5 81 3d bb 4c 6a 3e
       -0.18223149 0.2215394 0.063456655 0.22880833
000130 bd f7 19 3e f3 84 82 bc 6e 32 7b 3b b4 f0 c6 3d
       0.15035911 -0.015932536 0.003832962 0.09713879
000140 71 e6 e5 be 45 c6 e6 be 8c 12 c2 be a1 04 03 bf
       -0.44902375 -0.45073143 -0.37904775 -0.5117894
000150 86 4d 13 bf ee f4 e1 be af 6b c1 be b7 6a e9 be
       -0.57540166 -0.4413218 -0.3777747 -0.4558923
000160 6f 96 1e 3e 09 7d 44 3e 22 1e 88 3d 30 b2 e4 3d
       0.15487073 0.19188322 0.066463724 0.11166799
000170 04 5c c3 3b 0a f0 be bc 2f 2b 85 bb bd 59 a0 bc
       0.005961897 -0.023307819 -0.004063986 -0.01957404
000180 84 33 92 3d 43 ac 2e be 1f ec 16 3e 93 bd ab 3d
       0.07138732 -0.170579 0.1473851 0.08385768
000190 d5 b4 2e be f6 39 32 be 33 25 96 3c ed 17 03 be
       -0.1706117 -0.17404923 0.018328285 -0.12802096
0001a0 f5 3c 37 bb ae 1b e7 3b 1f bc 8c bd 60 ba 40 bc
       -0.0027959917 0.00705286 -0.06871819 -0.011763185
0001b0 fb a8 f9 3d fb a8 ae bd 19 72 20 3e f0 8c e7 bc
       0.121904336 -0.08528324 0.15668525 -0.028265446
0001c0 2e 20 20 3a cd 02 41 3c ef ee 80 3d ce 16 33 bd
       0.0006108311 0.011780453 0.06295573 -0.04372292
0001d0 ad 6e 90 be 63 95 8d be e5 76 e6 be a9 c8 1f bf
       -0.2820944 -0.27653036 -0.45012584 -0.6241556
0001e0 7f dc be bd 9f e9 a7 ba fe 5b 6c be 18 f7 bd 3a
       -0.093194 -0.0012810713 -0.23081967 0.0014493195
0001f0 18 a1 ed 3d fe ed 88 3d 04 d1 ae bd f3 3d 47 be
       0.11602992 0.066860184 -0.0853596 -0.19457226
000200 a9 98 e9 bc ee b7 bd bd c8 82 b7 bd 5f de af bd
       -0.028515177 -0.092635974 -0.089604914 -0.08587336
000210 84 95 20 be 98 d4 6e be 80 ee 88 be cc 17 57 be
       -0.15682036 -0.23323286 -0.2674446 -0.21005172
000220 c5 19 b1 3d e4 a8 8f bd d0 9c 39 3e ec d0 e5 3d
       0.08647493 -0.07014635 0.18126225 0.11221489
000230 28 9e af bd 0b e3 ae bd 72 e0 aa bd 23 83 fd bc
       -0.08575088 -0.08539399 -0.08343591 -0.03094632
000240 f9 8a 62 be 4e 52 1a be 6d f6 b2 be e5 67 a6 be
       -0.22123326 -0.15070459 -0.34953633 -0.3250114
000250 b6 e9 09 be 69 fe 18 be e0 f8 87 be 61 6d fa be
       -0.1346806 -0.149408 -0.26557064 -0.48911574
000260 82 7b d2 bd d0 d4 6d be 90 e1 d3 bd c3 fc 1c be
       -0.102774635 -0.23225713 -0.10345757 -0.15330796
000270 95 76 0c be 92 55 80 bb 43 ae 17 3e aa 33 59 bd
       -0.1371711 -0.003916451 0.1481257 -0.053027786
000280 5f 9d 4e 3e 57 1e df 3d 6a bb 1e bd 3d ae f7 3d
       0.2017722 0.10894459 -0.03875295 0.1209378
000290 a0 64 b7 bd b5 fc 34 bd 4d 46 21 be 54 fd 5a be
       -0.089547396 -0.044186313 -0.15749474 -0.213857
0002a0 65 16 13 bd 68 45 78 3d a4 00 83 bd ab 2b 3c be
       -0.03591003 0.060613066 -0.063966066 -0.18376033
0002b0 b4 9e 76 3d 0a 63 c1 3d 28 35 5c be b5 19 80 3c
       0.060209945 0.09442718 -0.21504653 0.015637258
0002c0 e4 b8 1b 3e 7b 71 40 3e 4f 97 63 bc fb 35 14 3e
       0.15207249 0.1879329 -0.013891055 0.14473717
0002d0 ea 33 2d bd 95 29 34 be ef 4a ff be 35 7f ec be
       -0.042285837 -0.17593987 -0.49861857 -0.461908
0002e0 66 a2 06 3e e8 79 d4 3d e6 a8 bd 3d 0f 8e 80 3d
       0.13147888 0.10374814 0.092607304 0.062770955
0002f0 d3 af 27 3e 8e 3f 64 3e f6 3b d1 3d 7a ed 91 3e
       0.16375665 0.22289869 0.10216515 0.28501493
000300 20 3d 3b be 6b 82 27 be 7c 12 0c be 64 c8 3c 3d
       -0.18285036 -0.16358344 -0.13678926 0.046089545
000310 c5 41 14 3e 9c 18 cd 3d 01 16 21 3d 3f 29 b0 bc
       0.14478214 0.100144595 0.039327625 -0.021504043
000320 25 ed a2 3c 23 8f 83 bd 50 29 2b 3e 5c 74 90 3d
       0.01988847 -0.064237855 0.16714978 0.07053444
000330 1e 69 18 bd ce 7d d3 3a 6f 76 c1 3d c2 82 20 bd
       -0.037209623 0.0016135515 0.094464175 -0.0391872
000340 bb c6 63 3e fb 5f 9f 3e 5f 2b 37 3e 2e e3 00 3e
       0.22243778 0.31127915 0.17887639 0.12586662
000350 cf 78 93 3c 0d 67 f2 3d 5a 16 5e 3e 99 fa 63 3e
       0.018001942 0.118360616 0.21688214 0.22263564
000360 bb 2a 5a be 75 8d 0f be e1 3b 9f be f8 a3 58 be
       -0.21305363 -0.14018805 -0.3110037 -0.21156299
000370 9e 72 ac be b8 3d cd bd 9f c9 ec bd 6c a2 97 bd
       -0.33681196 -0.100215375 -0.11561894 -0.074040264
000380 71 d1 f5 3c 86 6a 09 be ac 7b 00 be 99 32 34 3e
       0.030007096 -0.13419542 -0.12547177 0.17597426
000390 6c 1c 9e 3c 13 10 06 3e e9 29 c1 ba bd 7e ae 3e
       0.019300662 0.1309207 -0.0014737222 0.3408107
0003a0 a2 1a 12 3e ac f8 b3 3d 46 d2 04 bd 0a 5a 6d be
       0.14267972 0.08787665 -0.032427095 -0.23178878
0003b0 a7 e7 45 be 32 a4 c8 bd e5 d1 8a bd 9e 98 9b 3d
       -0.1932665 -0.09796943 -0.067783155 0.07597469
0003c0 a4 03 69 3e 5e 3e 0b 3e b6 ad 80 3e 7c 40 b6 3d
       0.22755295 0.1359801 0.2513253 0.08899018
0003d0 2e ed 05 3e fb ce 8f 3e 4e 62 d8 3d 60 86 92 3e
       0.13078758 0.280876 0.10565625 0.28618145
0003e0 4e a2 b2 bd 1a 57 1b 3d f3 df bc 3c 74 30 d0 bc
       -0.087223634 0.037924863 0.023056006 -0.02541373
0003f0 6c 92 59 ba dd 8f 90 3c fc 47 bb 3c 28 a4 0b 3d
       -0.00082997116 0.017646724 0.022861473 0.0340921

cnn2.bias f4 [8]
000000 aa d5 07 3e 42 60 38 3e 06 d0 52 bd b8 43 72 be
       0.132651 0.1800547 -0.051467918 -0.23658645
000010 e9 3b 88 be bc 5d 66 3d 1e 63 79 bc 18 d8 40 3e
       -0.26608208 0.056241736 -0.015221385 0.18832433

cnn3.weight f4 [4, 8, 4]
000000 8e 69 60 bd 13 68 58 be 18 f4 82 3d 52 cd 40 3e
       -0.054788165 -0.21133451 0.063942134 0.18828323
000010 78 62 8d be e1 2b 2b 3d 67 92 78 be 0c c6 89 bd
       -0.27614188 0.041789893 -0.24274598 -0.067272276
000020 76 b8 9d be 71 a6 d6 be e3 36 de be 94 e4 97 be
       -0.30804795 -0.4192386 -0.4340125 -0.2966658
000030 81 0e 48 3e f2 aa a3 3e 68 3f 6f 3e b1 43 17 bd
       0.19536783 0.31966358 0.23364031 -0.03692979
000040 30 a6 18 3e 52 8e 4c 3e d2 0d 0b 3e 4d 36 3d be
       0.14907146 0.19976166 0.13579491 -0.18477745
000050 c2 e2 26 bf 75 85 df be 07 71 e5 be b1 6a 5c bf
       -0.65189755 -0.43656507 -0.44812796 -0.861003
000060 49 7f 27 be 6d 5c 66 3d 43 c1 43 3c 8c d3 c0 3d
       -0.16357149 0.056240488 0.011947933 0.09415349
000070 10 fe b1 bd f6 1f b2 be 2d 60 ed be 8b b2 53 bd
       -0.08691037 -0.3479001 -0.4636244 -0.051683944
000080 06 3f 64 3e 25 01 10 3d d8 a0 85 3e 8f 2d 8b 3e
       0.22289667 0.03515734 0.26099277 0.27183196
000090 7b 20 86 bb d3 0d 38 3e 2e fc 10 3e 80 e2 cd 3d
       -0.0040932274 0.17974024 0.14158699 0.10052967
0000a0 0a 22 81 3d 90 9e 87 bc 3e 70 a0 bd 79 96 73 be
       0.063053206 -0.0165551 -0.078339085 -0.2378787
0000b0 e3 5f 09 be d6 80 69 be 5c 1f c4 bc 5d bd b3 be
       -0.13415484 -0.22803053 -0.023940735 -0.3510541
0000c0 09 7c 8c be b7 9e 92 be 2c e7 47 3d 0a fa 96 3b
       -0.2743838 -0.28636715 0.048804447 0.0046074437
0000d0 8d fa 8a 3d d1 bf e0 bd a1 73 c2 bc 76 40 cc bd
       0.0678607 -0.10974086 -0.023736777 -0.099732324
0000e0 37 88 72 3e 08 27 9f 3e 47 58 8b 3e 72 d4 52 3e
       0.23684774 0.31084466 0.27215788 0.20588854
0000f0 f2 41 f5 3d 53 f2 b4 bd bb 96 14 3e da 78 9a 3d
       0.11975469 -0.08835282 0.14510624 0.07542582
000100 cf 1d 41 bd d0 58 ca 3d d5 f0 51 3d ba 85 b6 3e
       -0.04714757 0.09880221 0.051255066 0.356489
000110 2b b6 30 bc 2d ac c9 3d 19 60 1b bc cd da 2f 3e
       -0.01078562 0.09847293 -0.009483361 0.1717331
000120 b9 7c 07 3e 5a e6 01 3e 6a f8 d4 bd 45 77 f8 bd
       0.13231172 0.12685528 -0.10398944 -0.12132124
000130 aa 8c 3e bd a5 e6 04 3e 94 bc d3 bd 52 17 c4 bb
       -0.046520866 0.12978609 -0.10338703 -0.0059842253
000140 b6 5c 12 be 1a 20 22 be 68 29 ae bd 0c 53 19 be
       -0.14293179 -0.15832558 -0.08503991 -0.14973086
000150 51 5e b2 3d 10 00 91 3d 50 7c 20 3e c1 b6 50 be
       0.08709396 0.0708009 0.15672421 -0.20382215
000160 07 45 44 3e 5b af 69 3e c8 88 b5 3d 2c dd bb 3e
       0.19166957 0.22820799 0.088639796 0.36692178
000170 73 01 24 bd 9a d2 10 be 53 81 4e bc e2 56 27 3e
       -0.040040445 -0.14142838 -0.0126040755 0.16341737
000180 9c 91 ab 3e 71 12 11 bd 13 b2 60 3d 33 93 0f 3e
       0.3350953 -0.035417978 0.054857325 0.14020996
000190 48 c0 ed 3e dd 9f 2a 3e c3 6a a5 3d b9 18 3c 3e
       0.4643576 0.16662546 0.08077004 0.18368806
0001a0 47 2d 97 be 0c 08 1a be e1 2f 5b 3d 27 6a 0b 3e
       -0.2952673 -0.15042132 0.053512458 0.13614713
0001b0 56 82 38 bd 65 50 62 be a4 ef 0f 3e 10 32 ab be
       -0.045046173 -0.2210098 0.1405626 -0.33436632
0001c0 92 5e 62 be a4 e1 fa 3d bd fc b9 bd 89 0a 96 be
       -0.22106388 0.12250069 -0.09081409 -0.29304913
0001d0 4d 46 46 3c 4f d9 47 bd 45 e3 f4 3d fc d5 da 3d
       0.012101722 -0.048791226 0.11957411 0.106853455
0001e0 17 a7 c3 3e 55 10 17 3e ca d0 a9 3e 4c f7 96 3e
       0.38213417 0.14752324 0.33167106 0.29485548
0001f0 78 75 14 3e 72 27 8c bd 68 d4 81 bd 1a 2d cd 3b
       0.14497936 -0.06843461 -0.063393414 0.00626148

cnn3.bias f4 [4]
000000 c0 1a b3 be 44 94 77 3e a3 24 af bd 71 2a 79 bd
       -0.34981346 0.24177653 -0.0855191 -0.06083149

goal_embed.weight f4 [10, 3]
000000 ac b7 4b 3f e9 1b b0 3e 68 6d e5 be 6b 63 83 be
       0.79577136 0.34396294 -0.44810033 -0.25661787
000010 57 72 34 bf 45 74 12 bf 4d 57 86 3f 3f 9e d9 bd
       -0.7048697 -0.57208663 1.0495392 -0.10625886
000020 91 8a 97 3d 04 af 7d 3e ce 1a 09 3f 98 af 6a be
       0.07399476 0.24773794 0.53556526 -0.22918546
000030 e8 c2 28 bf 34 9a 0b 3f 5f 09 b0 39 81 73 a0 bd
       -0.65922403 0.5453217 0.00033576318 -0.078345306
000040 fe f7 34 bf d3 3c 25 3f fb 7e f9 3e 48 10 05 3f
       -0.70690906 0.64545935 0.4872969 0.5197797
000050 e1 24 80 3e e6 ef 0b 3d 3e ad 26 3f d8 48 20 bf
       0.25028136 0.03416433 0.65108097 -0.6261115
000060 40 a9 b2 be bb 57 6f 3e 23 b1 21 3f 09 c5 23 3f
       -0.34894753 0.2337331 0.63160914 0.63972527
000070 28 3a bf 3d 88 4c 46 3f
       0.09337264 0.7746053

goal_embed.bias f4 [10]
000000 14 f7 f8 bd b3 44 a8 3e c3 60 9e 3d 4f f2 72 be
       -0.121565014 0.32864913 0.077332996 -0.23725246
000010 97 69 ab 3d e4 24 e3 bd 3d 8a a1 3b f5 33 4a 3e
       0.08369749 -0.11091021 0.0049298094 0.19746383
000020 eb 5e 0c 3d 43 9a 81 3e
       0.03427021 0.25313005

action_embed.weight f4 [10, 2]
000000 20 4f a5 3e 47 b4 08 3f e1 8f c6 3e 2a 1e 6f bd
       0.3228693 0.5340008 0.38781646 -0.058378376
000010 1e 05 06 bf 11 87 c1 3e 2c 6f cb 3e a9 64 13 3f
       -0.5235156 0.3779836 0.39733255 0.5757547
000020 87 60 b6 be ca 1f 0c 3f 92 e6 7b 3e 32 b3 00 3f
       -0.3562052 0.54736006 0.24599674 0.5027343
000030 0e 33 e5 3e 75 72 0b 3f c7 7b 0d be 32 7d 1b bf
       0.44765514 0.5447152 -0.13816749 -0.6073791
000040 3d e3 d9 3e 85 4c 16 3f d5 67 50 3e 0d 93 e9 3e
       0.42556182 0.5871051 0.20352109 0.45620003

action_embed.bias f4 [10]
000000 4f 04 2b bf 8b 42 48 3f f6 da 06 3f e1 ca 80 bd
       -0.6680345 0.78226537 0.5267786 -0.06288696
000010 b6 8a b4 be 45 79 88 3e a0 40 10 be c8 4b 51 bf
       -0.35262078 0.2665502 -0.14087152 -0.8175626
000020 b2 46 3c bf 0c 1d cc bd
       -0.7354537 -0.09966478

layer_1.weight f4 [400, 36]
000000 47 eb 40 be 4a e1 61 3e 25 a6 63 3e 1b 79 7a be
       -0.18839751 0.22058597 0.22231348 -0.2446026
000010 9a 9d 40 3e e5 a5 d5 be 03 88 ae bd c6 7e a7 3e
       0.1881012 -0.4172813 -0.08522036 0.32713908
000020 28 6b ac 3e d7 c7 38 bd 6e f8 17 be fb c6 0a bf
       0.33675504 -0.045112457 -0.14840862 -0.5420987
000030 14 69 db 3e 19 e1 6d 3e d6 da b3 be 13 d1 53 be
       0.42853606 0.23230399 -0.35127896 -0.20685224
000040 70 fa f2 3d 8d 7a 4a be 09 bf 10 3f bf 97 8b 3e
       0.118641734 -0.19773312 0.56541497 0.2726421
000050 34 05 44 bb 03 2b 86 3e ad ef 6a 3e cb b2 c1 be
       -0.0029910328 0.2620469 0.22942992 -0.3783172
000060 8b c5 a4 be 09 07 b1 be 2f 5e 37 3e 82 b2 da 3d
       -0.32181963 -0.3457568 0.17907022 0.10678579
000070 15 a2 76 3e 62 b5 c5 bd 22 76 6a 3e 60 47 bc be
       0.24085267 -0.09653737 0.22896627 -0.36773205
000080 6c 47 ae 3e d2 a6 63 3e 3d 4b 20 be a7 fb 89 3e
       0.34038866 0.22231606 -0.15653701 0.26949808
000090 9a 6f 61 be 94 0c 9b 3d e8 94 83 be b7 d0 a0 bd
       -0.22015229 0.075707585 -0.25699544 -0.07852309
0000a0 45 ad 20 be 58 e6 c3 3d 7f 4a 2e 3e 63 94 e0 3c
       -0.15691097 0.09565419 0.17020606 0.027414506
0000b0 ae 5a 9d 3e be 3a 20 be cb 54 80 be ca d2 6d bd
       0.30733246 -0.15647408 -0.25064692 -0.058062352
0000c0 90 95 a4 be 6c ab 9d 3c a8 fa b8 3e 00 67 cd 3e
       -0.32145357 0.01924678 0.36128736 0.40117645
0000d0 71 3e 3d 3c f8 6b ae 3e ab dd c6 bd 8d e3 56 be
       0.011550532 0.3406675 -0.097102486 -0.20985241
0000e0 15 d3 a0 3e 15 56 c1 be d4 4a ec be 8a 41 c5 3e
       0.31411043 -0.37760988 -0.4615084 0.38526565
0000f0 49 0a 23 bd a4 f9 8e be a5 3b a9 3e 1b 0a 49 be
       -0.03980473 -0.27924836 0.33053318 -0.19632761
000100 ad 93 63 3d f4 d0 c4 be f1 1a db 3c fe c7 b5 3e
       0.055560756 -0.3844067 0.026746245 0.35504144
000110 4d ac b5 bd a2 d5 2c 3d 01 c4 7b ba db 37 46 3e
       -0.088707544 0.042195924 -0.0009604097 0.19357245
000120 90 a0 1f 3d 14 7b c2 be 2c 31 8e 3e ef ff 85 3e
       0.038971484 -0.37984526 0.2777189 0.26171824
000130 46 f4 83 3e 7d 2b c2 3e 25 71 9d bd a2 71 7f bd
       0.25772303 0.37923804 -0.07687596 -0.062364228
000140 a9 f9 3d 3e e4 b2 16 3d bf e9 c9 be a4 2e 50 3e
       0.18552269 0.036791697 -0.39436147 0.20330292
000150 71 89 1b 3e a8 f8 48 3e 21 9c f8 ba dc ea 46 bd
       0.15189148 0.19626105 -0.0018967428 -0.048563823
000160 65 fa b9 be 2e 5f 97 be b6 4a 84 3e 35 23 2b be
       -0.36323848 -0.29564804 0.2583825 -0.16712649
000170 41 c9 88 3d b3 1d 5b be 13 3b bf 3e 75 8a 62 be
       0.06679011 -0.21398048 0.37349758 -0.2212313
000180 2f 1c df 3d 4a 5b 1d be 78 0a a0 3e fa 84 ea 3d
       0.108940475 -0.15366855 0.31257987 0.114511445
000190 6a 66 d2 bd a9 23 af 3e fb b6 99 bd dc ba 84 be
       -0.1027344 0.34206894 -0.07505604 -0.25923812
0001a0 79 07 15 be f5 66 a4 be ee 5f f6 bd 74 4a 91 be
       -0.14553632 -0.321098 -0.12030016 -0.28377116
0001b0 a1 a8 54 3e c3 a6 2c 3d 03 e0 f9 be 6f 7d a5 3d
       0.20767452 0.042151224 -0.4880372 0.08080565
0001c0 f7 f2 a1 3e b1 f8 b0 3d d2 e7 ad be 37 24 ae 3e
       0.3163068 0.08641184 -0.33965927 0.34012005
0001d0 3f 89 b8 3d 78 02 ed bd 23 25 bb be 80 1d c5 3c
       0.090105526 -0.115727365 -0.3655177 0.024061918
0001e0 24 3a 6c 3e dd 13 19 3e 84 a2 9f be 2b 99 ef 3e
       0.23069054 0.14948983 -0.31178677 0.46796545
0001f0 09 81 ec 3c 3c 1e 95 3e f9 3c ab be 57 32 45 3e
       0.028870123 0.2912463 -0.33444956 0.19257484
000200 57 46 3a 3e ed 90 ed 3d be 72 aa be ad f7 6d 3e
       0.18190895 0.11599908 -0.33290666 0.23239012
000210 b3 c5 89 be fa 4a 9d 3d 35 14 89 be bb 9b 15 3d
       -0.26908645 0.07680316 -0.2677323 0.03652547
000220 40 0b 24 3e a5 e6 98 be c6 3b 46 3e 63 09 2b be
       0.16019917 -0.29863468 0.1935874 -0.167028
000230 05 10 b8 be 40 ab a7 3e 02 15 d0 3d 86 73 97 be
       -0.35949722 0.3274784 0.10160257 -0.29580325
000240 57 e8 a5 3e d9 34 b5 3e 77 e1 f2 bd 90 16 5b 3e
       0.32403824 0.35391882 -0.1185941 0.21395326
000250 85 29 47 bc 07 4d be 3d c9 03 81 3e 19 42 86 3e
       -0.012155895 0.092920355 0.251982 0.26222304
000260 90 b8 2f 3e d7 0d 8f 3d 97 31 e7 3d bf 64 22 be
       0.17160249 0.069850616 0.112887554 -0.15858744
000270 5a 6a 91 bd bf 5e 4a bd bb a3 53 be 56 7f 28 bc
       -0.07100363 -0.049406763 -0.20667927 -0.0102842655
000280 1b 82 44 3e 3f 58 05 3e ba ec 61 3e e1 32 52 be
       0.19190256 0.13021944 0.2206296 -0.20527221
000290 c5 3b b2 be 6e 0f fd 3e 2b dd 75 be 1d 2c 11 3d
       -0.34811226 0.49425834 -0.2401015 0.03544246
0002a0 e2 f0 41 be df ed 05 bd a9 10 ad 3e 41 63 90 3d
       -0.18939546 -0.032697555 0.33801773 0.07050181
0002b0 e3 78 0a be 92 29 01 be cf c5 95 be 69 98 9d bd
       -0.13522677 -0.12613514 -0.29252478 -0.076950856
0002c0 22 6e 82 bd c6 c2 c1 3c b4 6a 97 3e 85 f4 4a 3e
       -0.063686624 0.023652446 0.29573596 0.1981984
0002d0 a2 b3 a2 3e ff a7 81 3d e4 41 84 3e 9e 2c 7c bd
       0.31777674 0.06330871 0.2583152 -0.061565988
0002e0 03 de 3c 3e 6a ac 80 3e 97 07 16 be 09 3f ea 3d
       0.18444066 0.25131541 -0.14651333 0.11437804
0002f0 6b 47 d3 3e ed c1 6a be 02 ce 37 be 28 b8 98 be
       0.41265425 -0.2292554 -0.1794968 -0.29828
000300 25 c2 bc 3e 43 fe e9 3e 05 a5 b6 3e 9b cf b1 3d
       0.3686687 0.457018 0.35672775 0.08682176
000310 28 3a cd bc a8 a6 8c be 82 5f ed 3e 38 4c 7d bd
       -0.025052145 -0.274709 0.4636193 -0.061840266
000320 b8 bc 3a bf b0 ec d8 bd 2c d3 34 be 83 cc 27 be
       -0.7294421 -0.105920196 -0.1765868 -0.16386609
000330 fe 19 d6 be bf 5c df be b3 60 eb 3d 19 ae 3e 3e
       -0.41816705 -0.43625447 0.11493053 0.186211
000340 42 b2 ac be 74 20 9b 3d 22 bd ab bd 00 0a 56 3e
       -0.3372975 0.07574549 -0.083856836 0.20902252
000350 b2 2a b5 3d 6f 48 29 3d 08 2e 16 be 1d dd 01 bd
       0.08846034 0.041328844 -0.14665997 -0.03170501
000360 73 b8 08 bd 16 d6 66 be 38 a1 58 bc ca c1 f0 3e
       -0.03337903 -0.22542605 -0.013222031 0.4702285
000370 2f dc 86 be cb f6 01 bf 28 2e b9 3e 5c 0c 51 bc
       -0.26339862 -0.507672 0.36168027 -0.012759294
000380 dc 32 bf be 10 95 4e 3e bf ab c7 3e 07 15 32 3c
       -0.3734349 0.2017405 0.3899822 0.010869271
000390 e1 7c 7d be 99 56 91 3e 2a e7 32 be d6 e4 c9 3e
       -0.24754669 0.2838638 -0.17470995 0.394324
0003a0 27 be 7c 3e 7b 14 11 bf 3e 5f 53 3e a4 64 f5 bd
       0.24681912 -0.56671876 0.20641801 -0.11982086
0003b0 6d 93 2c 3d 3a 03 c0 3e a6 40 ec bd 8a 9d 86 be
       0.042132784 0.37502462 -0.11535768 -0.26292068
0003c0 52 6a a1 3d 89 15 cd 3c 44 f6 dd be 08 fe 60 3e
       0.07881607 0.025034683 -0.43351948 0.21971905
0003d0 11 56 3c 3e 7a d4 70 3e f4 1c 5b 3e 08 c4 12 be
       0.18392207 0.23518553 0.21397763 -0.14332592
0003e0 47 a0 9c 3d a2 34 ab 3d 74 38 fb bd 0b b3 08 3e
       0.07647758 0.08359648 -0.12266627 0.1334955
0003f0 cc 17 26 3e 81 9c 34 be 35 74 8a 3e 76 04 c4 bd
       0.16220015 -0.17637827 0.27041784 -0.09571163

layer_1.bias f4 [400]
000000 2e d6 dc 3d 9e 3a 28 3c dc f2 02 be b7 a9 18 3e
       0.10783039 0.010267882 -0.12787956 0.14908491
000010 74 b4 c7 bd 7b 1d 99 3c 50 9d bf bd bd cf 76 3b
       -0.097512156 0.018690815 -0.09356177 0.0037660443
000020 30 b8 62 3d ec 5d 96 3d 81 96 e0 3c 69 32 cc bd
       0.055351436 0.07342133 0.027415516 -0.099705525
000030 6b 92 0f 3e ff c2 27 be 22 99 ba 3d 04 6a fe bd
       0.14020698 -0.16382979 0.09111239 -0.124225646
000040 9e bd 44 3e 6b cc 59 3d c7 b5 7c ba 67 4d 07 3e
       0.19212958 0.053173464 -0.0009640124 0.1321312
000050 ff 03 d0 3d 28 16 08 be 5c 4f 54 3d 86 f9 8f 3d
       0.10157012 -0.13289702 0.051833495 0.07030015
000060 11 12 64 bd fd f2 a6 3d bf 9c 72 bd eb 04 1e 3e
       -0.055681292 0.08151815 -0.059231516 0.15431564
000070 c3 eb 3e 3e 1f 3a 0f 3e 49 0f 0d bc f6 5d e9 3d
       0.18644623 0.13987015 -0.008609601 0.11394875
000080 33 66 2b 3d 09 eb 34 bb 66 0f c5 bc db bb 18 bd
       0.04184551 -0.0027605912 -0.024055194 -0.037288528
000090 3b aa 4f 3e b0 e3 03 3e 17 62 4e 3e e5 30 a3 bc
       0.20279782 0.12879825 0.20154606 -0.019920776
0000a0 71 66 b0 3d 93 83 1e 3e 8f 72 58 be ce 75 b6 bd
       0.08613289 0.15479879 -0.2113745 -0.08909188
0000b0 a1 04 ab 3c 18 82 29 bd a6 a8 69 bd 3a f8 ed bd
       0.02087623 -0.041383833 -0.0570456 -0.11619611
0000c0 45 02 90 3e 08 4f 81 3d fe 9e 96 3d 0e e4 06 be
       0.28126732 0.06313902 0.07354544 -0.13172933
0000d0 9e 97 7f 3d e6 07 86 ba 90 77 18 3e 6b 2d 4a bd
       0.062400453 -0.0010225743 0.1488936 -0.04935972
0000e0 af ef 80 bd 19 d6 87 3d 68 52 6b 3d 15 89 0f 3e
       -0.06295716 0.06632633 0.057451636 0.14017136
0000f0 df a2 45 3e 59 5f f7 bd cd a6 5a 3e 7a a0 1d 3e
       0.19300412 -0.12078733 0.21352692 0.15393248
000100 8e 8f 62 3e 26 7c f0 3c 22 ec cc bd 2a 88 2e bd
       0.22125074 0.029356074 -0.10005976 -0.042610325
000110 94 0c a2 3d ce 8e 59 3e af 4e 40 bd c6 c1 64 bd
       0.07912555 0.21245882 -0.04695004 -0.05584886
000120 08 94 ce 3d 80 93 fa 3d cd 21 c0 bc 19 e2 8f 3b
       0.100868285 0.12235165 -0.023453617 0.0043909666
000130 bc 7a 94 3d 36 19 89 3d 8a ce 11 3e 3f c5 04 bc
       0.07249972 0.06694262 0.14238945 -0.008103668
000140 99 5b 63 3d f0 2f c4 3c dd ff c3 bd 4f 56 a1 bd
       0.055507276 0.02394864 -0.095702864 -0.0787779
000150 58 67 9e 3d 09 cd 6c be 76 bd c5 bd 48 8b a5 3d
       0.07734555 -0.2312509 -0.096552774 0.080832064
000160 93 11 08 bd 0a 1c fc bd 6a c0 13 3e 8b 7f 1a be
       -0.033219885 -0.123100355 0.14428869 -0.15087716
000170 4b 89 1d 3b 62 91 5c be 4e 4b 00 3d 02 de b0 3c
       0.0024038132 -0.21539834 0.031321816 0.021590237
000180 5e c7 49 bc 34 59 71 bc e1 7a 0c be 93 0e 74 3e
       -0.012315599 -0.01473074 -0.1371875 0.23833685
000190 0d 34 8c bd 92 37 6f 3d 54 d1 d1 bc d5 61 24 be
       -0.068458654 0.058402605 -0.02561251 -0.16052945
0001a0 77 11 2e 3d 92 37 21 3e 64 f3 a3 bd 0c f3 4e 3d
       0.042497125 0.15743855 -0.080054075 0.050524756
0001b0 49 ee 34 bd 29 b5 2f 3e 95 eb 43 be 58 38 51 bb
       -0.04417256 0.17158951 -0.19132836 -0.0031924453
0001c0 c1 c5 20 bd 56 92 8d 3e 28 57 06 3d 47 87 3d 3e
       -0.039251093 0.27650708 0.032797962 0.18508635
0001d0 82 5f 0a 3e 65 79 41 bd 15 4f 5a 3e 04 0d 35 bd
       0.13512996 -0.04723491 0.2131923 -0.044201866
0001e0 11 a1 31 be 50 4c 0d 3e 0f 71 03 3e 25 88 e7 3d
       -0.17346598 0.13798642 0.12836097 0.113052644
0001f0 3d 23 11 bd 90 aa 36 3d 96 ab b4 bc 28 73 24 3e
       -0.035433996 0.044596255 -0.022054475 0.16059554
000200 90 37 47 3d 3c 0e 6c bd 20 3b 65 bd 25 10 83 3d
       0.048636973 -0.057630762 -0.05596459 0.06399564
000210 56 b2 35 3e 2e 1e 9d 3d b9 92 2d 3e 61 18 c7 3d
       0.17743811 0.07671772 0.16950502 0.09721447
000220 91 b5 d7 bc 90 60 2d bd af b1 8b bd a4 0e 9f 3d
       -0.026331695 -0.042328417 -0.06821 0.07766464
000230 1b df b9 bc 47 c4 fb bc 05 e1 d8 3d 4d 17 6f bc
       -0.022689393 -0.03073324 0.10589794 -0.014592958
000240 6e cd 97 bc 4a cf 2a 3e fd 14 3f be ee e8 13 bd
       -0.018530574 0.16680637 -0.1866035 -0.03611081
000250 1e db 43 3e bb 97 1a 3d 74 c7 1d 3e 2a c4 20 bd
       0.19126555 0.037742358 0.15408117 -0.039249577
000260 62 01 8c be 2b 1e ec 3d 46 1e 1a be b8 d9 e4 bc
       -0.27344805 0.115291916 -0.15050611 -0.027935848
000270 04 1a 44 3d ea ee 89 bd f7 3e 12 3e 83 50 17 be
       0.047876373 -0.06735022 0.14281832 -0.14776807
000280 72 f7 b7 bd bb 43 cd 3d db 64 bd 3c 80 23 c1 bd
       -0.08982743 0.10022684 0.02311938 -0.09430599
000290 5c df 53 3e 69 9f 0b 3e 71 c3 eb bd a3 3e a3 bc
       0.20690674 0.13635029 -0.11511887 -0.019927328
0002a0 45 5c ef 3d f7 8e 1b 3e dc d8 1c bd 7a b2 88 bb
       0.11687521 0.15191256 -0.03829275 -0.0041716667
0002b0 56 1e f3 3c 5d 6e 21 bc 13 db 3f bd a7 c9 19 3e
       0.029677551 -0.009852973 -0.046839785 0.1501833
0002c0 05 d9 9e bd f0 b0 83 3d 85 12 4e be 07 5c 0d 3e
       -0.07756237 0.064302325 -0.20124252 0.13804637
0002d0 f6 c6 d9 3d 9b 8c 29 bc 30 ad 8e 3c 9b 5a d0 bd
       0.10633652 -0.010348464 0.017416567 -0.101735316
0002e0 6b 5b 19 3e 92 95 2a 3d 3a ab 91 3e 1b eb 17 bc
       0.1497628 0.041646548 0.28450948 -0.009272362
0002f0 e8 7f d2 bd 15 1d 38 3e 09 9a 3a 3c 60 78 d4 bd
       -0.102783024 0.17979844 0.011389264 -0.10374522
000300 f1 d3 07 be 20 e6 39 3e 9d 1c 80 3d 28 01 b2 bc
       -0.13264443 0.18154192 0.062554576 -0.021729067
000310 20 d2 0b be 0f 88 a7 bd d1 03 a9 bd f7 46 0d 3e
       -0.13654375 -0.08180248 -0.08252681 0.13796602
000320 47 49 40 3e 7e 3a 1b be 0c 4d 8b bd d4 0d 0e 3e
       0.18777953 -0.15159032 -0.06801805 0.13872463
000330 e0 73 e6 3d 67 36 5e be 17 9d 75 be 7c c8 6e 3e
       0.1125257 -0.2170044 -0.23985706 0.23318666
000340 fa e3 8a bd 65 64 54 3d 2c db 8a bd e5 d7 05 3d
       -0.06781764 0.051853556 -0.06780085 0.032676596
000350 67 3b c2 3d ae fb 5f bc cc 06 05 3e 84 23 de 3d
       0.09483986 -0.013670845 0.12990874 0.10846618
000360 1c 5d b7 3d a7 0d 39 bd 91 d3 7b 3b f7 57 06 be
       0.08953306 -0.045179036 0.0038425664 -0.13119493
000370 b1 ba 97 bd aa e4 fe 3d 60 ae 10 bd 39 7b f7 3c
       -0.074086554 0.12445958 -0.035322547 0.030210124
000380 c4 82 4c 3d c7 54 62 3e 83 cd 36 3c be 60 98 bd
       0.049929395 0.22102652 0.011157396 -0.07440327
000390 80 5b 25 be 65 63 42 3e bd 9c 1f 3d 12 3e 54 3d
       -0.16148186 0.18983229 0.038967837 0.051817007
0003a0 b1 53 3e 3e ee c4 d8 bd dc ce 2d be 50 96 42 be
       0.18586613 -0.10584436 -0.16973442 -0.19002652
0003b0 11 63 09 3e 81 06 67 3a 58 ad 04 be f9 fc 83 bd
       0.13416697 0.000881292 -0.1295675 -0.06444735
0003c0 d7 6e b7 bd 92 21 eb bc 9a 8a 01 3e ec c0 89 bc
       -0.08956688 -0.028702531 0.12650529 -0.016815625
0003d0 c9 c7 47 3e 57 45 47 3d e2 8d 49 3e 68 5b 6a 3d
       0.19509806 0.048650112 0.1968303 0.057216078
0003e0 6a 02 95 3d b5 0b 34 be 90 95 53 bd 5e 9c f2 bc
       0.07275851 -0.17582591 -0.051656306 -0.029615577
0003f0 d0 60 bb bd b3 53 03 3d ea ad 34 be d0 7d ce 3b
       -0.09149325 0.032062244 -0.17644468 0.006301619

layer_2.weight f4 [300, 400]
000000 0a b7 04 bd 1e 69 10 bc d8 59 9c 3d e0 1d b8 bd
       -0.032401122 -0.008814124 0.07634324 -0.08990073
000010 cd b8 32 bd 79 85 21 3e a6 c1 08 be 40 23 1c 3d
       -0.04363327 0.15773572 -0.13355121 0.038119555
000020 ec 86 9c 3d 84 da 32 be b6 be ab bd 9b 83 c5 bd
       0.07642922 -0.1746617 -0.083859846 -0.096442424
000030 b9 98 31 bd e5 02 c1 bd 64 08 89 3d ec b4 07 be
       -0.04335854 -0.0942438 0.066910535 -0.1325261
000040 75 47 18 be be 3b 9b 3c 65 27 04 bc 1e 43 02 be
       -0.14871009 0.018949386 -0.008066033 -0.12720916
000050 a0 cf 17 3e 07 05 a9 bc d1 bf 6e 3d fd b1 bc bd
       0.14825296 -0.02063228 0.0582884 -0.09213636
000060 39 2e 15 be 04 3a 8e 3c 18 dd 22 3e 8a 3b 2e 3d
       -0.14568414 0.017361648 0.15904653 0.04253725
000070 b0 61 97 bc 80 cc 03 be 61 12 8e 3b f3 13 16 bd
       -0.018479198 -0.1287098 0.004335687 -0.03664012
000080 7e 86 d3 3c 69 65 85 bd 64 28 c0 b9 55 e5 9b bd
       0.025820967 -0.06513483 -0.00036651187 -0.07612101
000090 20 93 ae bd 82 3e 9d bd a5 d5 89 3e ec c4 b2 3d
       -0.085241556 -0.07677938 0.2692081 0.08728966
0000a0 88 2b f3 bd a2 88 ca 3d e7 f6 5b 3d 61 10 ae 3d
       -0.11873537 0.09889342 0.05370226 0.08499218
0000b0 30 97 01 3e f4 a1 00 3e 41 c5 04 be dc 12 a7 3d
       0.1265533 0.1256178 -0.12965871 0.08157894
0000c0 bd ce 61 be 1b 14 1c be ac 8b ca 3c cd 54 ad 3d
       -0.2205152 -0.15242045 0.024724804 0.0846344
0000d0 d4 53 cb bc 58 fd 23 be 7b 64 cb 3d b9 6c 1d 3e
       -0.024820246 -0.16014612 0.099312745 0.15373506
0000e0 6c 44 21 bd cd 89 b7 3d 8b 2d 1e 3d 3b 3b c3 bd
       -0.039371893 0.0896183 0.038617652 -0.09532782
0000f0 c7 6a c1 3d 98 80 12 3d 44 b1 db bc ad cd 40 3d
       0.09444194 0.035767168 -0.026817925 0.047071148
000100 0c 97 38 be d4 75 94 3d 10 c3 97 be 58 e9 88 bd
       -0.1802637 0.072490364 -0.29641008 -0.06685132
000110 c3 dd bc 3d c6 a5 36 3d 7f 5d 2b be 2f 5e 9d 3d
       0.09221985 0.044591688 -0.16734885 0.0768398
000120 2f 95 69 bd 13 80 a3 3d fa 98 0a 3e e4 65 86 be
       -0.05702704 0.079834126 0.13534918 -0.2624961
000130 04 d5 ab 3d 8e 40 0a 3e 4b a9 2c 3d f7 7b 64 3e
       0.08390239 0.13501188 0.042153638 0.22312914
000140 42 0e 38 3e c8 3b 79 3d df da d6 3d 28 2e 52 bd
       0.17974189 0.060848027 0.10490965 -0.05131355
000150 08 fd ac ba 98 52 2f 3e 01 77 7b 3c a7 72 9f bd
       -0.0013197968 0.17121351 0.015348197 -0.0778554
000160 bd 12 5c bd 68 cd 8a bd 58 5e 40 bd 59 a3 a2 bd
       -0.053728808 -0.067774594 -0.046964973 -0.07941312
000170 b4 ef f0 3b 08 b7 74 3d dc 92 3e 3d 84 d2 87 3b
       0.0073527936 0.059744865 0.046526775 0.0041449685
000180 d7 5d 05 bd ed 78 dc 3d 79 fe 37 3c 25 a0 8a 3d
       -0.032560196 0.10765252 0.011230105 0.067688264
000190 55 2c 82 3d 25 4b 18 3e 4c a9 ea bd bc f7 fb bc
       0.06356112 0.14872415 -0.11458072 -0.030757777
0001a0 f5 27 83 bd 39 a1 30 3e a0 f2 d4 bd 18 eb 0d be
       -0.064041056 0.17249002 -0.103978395 -0.13859212
0001b0 1e 7e 4f 3d 5d 8c f9 bd 00 42 97 3d 7a df d5 bd
       0.050657384 -0.12184975 0.073856354 -0.104430154
0001c0 c5 c7 6d bd f3 53 82 3d 42 87 4e 3c 59 ee 06 be
       -0.058051843 0.06363668 0.01260549 -0.1317686
0001d0 ed 14 51 3d 4e bd 7d bd d0 dd 67 bd 37 30 dd 3d
       0.051045347 -0.061948113 -0.05660802 0.10800212
0001e0 35 25 57 bd 07 9c 97 3b 9b 84 6c be a9 7e 64 3d
       -0.052525718 0.004626754 -0.2309746 0.055784855
0001f0 47 17 c4 3d eb ef 25 bd 1b a1 73 bd af 9b f9 3b
       0.09574752 -0.040512007 -0.059479814 0.007617436
000200 f0 dc 3f bd e0 55 34 bd b9 e0 38 be 2b f0 30 3d
       -0.04684156 -0.04402721 -0.18054475 0.043197792
000210 b3 bb 02 be 48 cc 77 bd 4f 34 6b bc c5 83 3a be
       -0.12766914 -0.060497552 -0.014355733 -0.18214329
000220 dc 46 87 bc 6f 6d 94 3d d9 42 81 3d 15 6f e9 bd
       -0.01651328 0.07247435 0.06311578 -0.1139814
000230 2c e9 09 3e ea 8e 69 be 0d c7 06 be 0a 51 4e bd
       0.13467854 -0.22808424 -0.1316187 -0.050370254
000240 54 87 66 bd 07 23 9e bc 4b 5d 19 3d c2 1f 56 bb
       -0.056281403 -0.019303812 0.037442487 -0.0032672738
000250 cf 0a 48 3b d9 19 98 bd 3e 21 4b 3d 71 d3 cd bd
       0.003052402 -0.07426805 0.04959225 -0.10050095
000260 a1 37 10 be 33 b4 e5 bd 87 f0 f0 3c a6 c8 fb bd
       -0.1408372 -0.11216011 0.029411567 -0.1229413
000270 7a a4 b9 3d c3 d9 ea 3c b8 7c 25 3d d0 dc 58 bd
       0.090645745 0.02866829 0.040402144 -0.05294496
000280 b8 aa 97 3d 32 45 22 be 83 47 17 bd 1d 80 5d bd
       0.07405609 -0.15846708 -0.036933433 -0.054077256
000290 b5 1a 04 be 96 c4 99 bb 64 b0 1b 3d 87 4a 70 bc
       -0.12900813 -0.0046926243 0.038010016 -0.014666206
0002a0 97 c0 ae bb 0d 5d 1e be 7f 82 4e 3e b3 c6 4e 3d
       -0.005333017 -0.15465184 0.20166968 0.050482463
0002b0 73 f8 a6 bd 9a b9 ee 3b 9c e8 61 3e 57 68 37 be
       -0.08152857 0.007285309 0.2206139 -0.17910896
0002c0 1b 5e aa 3d ad eb 9e 3d 05 2c 82 bc 5d cd 06 be
       0.083187304 0.07759795 -0.01589013 -0.13164277
0002d0 3f 12 53 be 1f f0 d8 bc d5 37 ef 3d 66 0e d0 3d
       -0.20612429 -0.026481686 0.11680571 0.10158996
0002e0 06 65 ca bd 1d 49 55 3d dc 9d 5e be 1b f8 15 3d
       -0.0988255 0.05207168 -0.21739906 0.036613565
0002f0 6c ad 08 be 5f 7f dc bb 50 53 8c 3d 03 83 f0 bc
       -0.13347405 -0.006729051 0.06851828 -0.029359346
000300 6e e8 a8 3d 1c 4d 02 bd 72 d8 77 3d ae 7a 42 bd
       0.082474574 -0.03181182 0.060509153 -0.047480278
000310 4a 64 3c be 82 d0 e3 bc 6f 4d a9 bc e2 06 35 3c
       -0.18397632 -0.027809385 -0.020666806 0.011049004
000320 8b 35 8e bd de 76 e7 bd 90 4c f0 3d 1d 78 fc bd
       -0.06943806 -0.11301969 0.11733353 -0.12327597
000330 4c ea 2c be 09 de c1 3d 5f 17 91 bc 9e 23 39 bd
       -0.16886252 0.09466178 -0.01771134 -0.045199983
000340 38 92 b5 bd f2 8c 55 bc 3c a0 f2 3d 0c 1f 34 3e
       -0.0886578 -0.013034092 0.118469685 0.17589968
000350 d3 57 b3 bd a1 cb 2b be e9 e7 f4 be a7 c4 63 3d
       -0.087569855 -0.16776897 -0.47833183 0.055607464
000360 48 d4 b5 bd 3d 7e ec bd 77 f3 8c be 2d bb 16 3e
       -0.0887838 -0.115475155 -0.275295 0.1471984
000370 1a 50 ed 3c 4f f0 d9 3d 7e 77 fc bd c1 f3 d6 3d
       0.02896886 0.10641538 -0.12327479 0.10495711
000380 e7 95 1e be 76 df 7e 3d 38 a2 47 bb 48 da d9 3c
       -0.1548687 0.062224828 -0.003046168 0.026593342
000390 fd a2 5b 3c 4d a8 43 be 0f c1 5c bd be e1 84 bd
       0.013405559 -0.1910717 -0.053895053 -0.064883694
0003a0 65 d3 7f bd e6 b2 36 3d cf b1 c3 bb b6 95 9f bd
       -0.06245746 0.044604205 -0.005972124 -0.07792227
0003b0 77 0e 0b 3d d9 d3 99 bd 48 e5 5f 3d b4 bf 4f 3d
       0.03394934 -0.0751111 0.05466202 0.05071993
0003c0 f3 8a 97 3d 18 64 e5 bd 19 f2 ba bd c3 9e ef 3d
       0.07399549 -0.11200732 -0.09128208 0.11700203
0003d0 68 e3 16 be c2 d7 1b 3c 65 c0 10 3e a3 12 e0 3c
       -0.14735186 0.00951189 0.14135893 0.027352637
0003e0 d1 11 c2 3c 7e 4c 92 bd 73 3a 99 bd 27 e3 40 bd
       0.023690136 -0.07143496 -0.074818514 -0.04709163
0003f0 60 d4 6c be e2 02 4b be 93 3b 1b be f0 58 08 3e
       -0.2312789 -0.19825318 -0.15159445 0.13315177

layer_2.bias f4 [300]
000000 67 47 d6 bc 55 94 79 bd 62 30 eb 3c 9f 5a 90 bc
       -0.026157094 -0.060932476 0.028709594 -0.017621337
000010 2a c3 db 3c fe f3 e1 bc d6 5a aa 3b 52 fd 6d ba
       0.02682646 -0.027582165 0.005198817 -0.000907858
000020 68 a7 15 bd de d9 39 bd 82 98 e0 3b 54 94 9d bc
       -0.036536604 -0.04537379 0.006854118 -0.019235767
000030 ab 9f e9 3c 9d 73 8a 3b 7f 91 b2 ba a9 02 d6 bc
       0.028518518 0.004225208 -0.0013623683 -0.026124315
000040 71 de 2b 3d 4b 24 48 3b 6e ac dc bc 95 64 a3 bc
       0.041960184 0.003053921 -0.02693769 -0.019945422
000050 b7 96 17 bc 11 16 61 ba 7f d2 1a 3d 93 8d 09 3b
       -0.009252242 -0.0008586357 0.0377984 0.0020988926
000060 d8 09 7a bd dd 07 2d 3d 22 0e 66 bd 12 0c ee bc
       -0.061044544 0.042243827 -0.05616582 -0.02905849
000070 11 00 21 3d 16 aa 2e 3d 0a 60 19 bd c0 d7 44 3b
       0.039306704 0.042642675 -0.037445106 0.0030035824
000080 1c c9 07 bd 38 ae e7 3c 0b fe a1 bc 18 5a 83 bd
       -0.033150777 0.028281316 -0.019774457 -0.064136684
000090 fe 45 39 3d a1 48 86 bb a0 aa 1b 3c 9a f3 1d 3d
       0.045232765 -0.0040980135 0.009501129 0.038562395
0000a0 64 b9 3c bc ab 82 3e bd 47 89 70 3d eb 9b 18 3d
       -0.01151881 -0.046511333 0.058724668 0.03725807
0000b0 fc fd 05 3d 62 89 42 bb ea a6 30 bd f6 7a 66 3d
       0.03271292 -0.0029683937 -0.04312793 0.05626961
0000c0 2f d6 07 bd 09 2e 43 bd 0f cd 93 3c 0e a2 07 3d
       -0.033163246 -0.047651324 0.018042115 0.03311353
0000d0 ef cd 0d bd b0 b8 ee bb ab ad 1b 3c e4 85 22 3d
       -0.03462022 -0.0072852 0.009501855 0.03967847
0000e0 4c 90 3b 3d 3b 0f 3b bc 8b e1 a9 3c fc 64 84 3c
       0.04579191 -0.011417205 0.02073743 0.016161434
0000f0 ac 0b 57 3c 85 17 1f 39 fd 9c 9e bc a8 cf 86 bd
       0.013125341 0.00015172183 -0.019361967 -0.06582576
000100 73 f2 23 bd 55 00 4a 3c 6d 08 6d bd 05 4d b2 3c
       -0.04002614 0.012329181 -0.057869364 0.021765241
000110 ff 92 0f 3c 3e ac b1 3c da 5a 34 bd 01 2b 6d bc
       0.008763074 0.021688577 -0.044031955 -0.014475585
000120 b3 2e 75 bc 9e 37 96 bc d2 4a cf 3c 57 5b 4c bd
       -0.014964747 -0.018337067 0.025304232 -0.049891796
000130 65 32 9c bd d9 4a 50 bd 70 00 3b bd 33 93 e7 3c
       -0.076267995 -0.05085263 -0.045654714 0.028268432
000140 a8 0b e6 bc b4 52 84 ba d8 b8 24 bc 61 f3 5b 3d
       -0.02808173 -0.0010095448 -0.010053836 0.0536989
000150 c0 9e 05 bd 7f a6 28 3d 00 c4 bb 3c 74 ed 1d 3d
       -0.0326221 0.041174408 0.022920609 0.03855653
000160 a2 74 bd b9 21 c9 16 3d 6d 37 86 3c 97 9d 24 3d
       -0.00036135787 0.036812905 0.016383851 0.040189352
000170 bc 8f 7f bd f8 11 8a bd c3 6f 84 bc 54 73 61 bd
       -0.062392935 -0.067417085 -0.016166573 -0.055041626
000180 e6 6f 16 bd 44 f8 98 bd 27 94 49 3d 10 b9 d2 bc
       -0.03672781 -0.07469228 0.049213555 -0.02572301
000190 30 1f 23 bd 9c 73 a4 bd 94 d1 f0 bc 78 ce b5 3b
       -0.039824665 -0.08029863 -0.02939681 0.0055482946
0001a0 6f 6d 60 bc 99 e1 0a 3b 0c 03 b7 3c 2e ac 34 3c
       -0.013697966 0.0021191596 0.02234032 0.011027379
0001b0 8c 63 af bd 50 5c bb 3c dd de bb 3b c1 3f 58 3c
       -0.08563909 0.022871166 0.0057333545 0.013198794
0001c0 96 4d bc ba b1 a0 42 3d cc 3e 08 bd 7e 1a 63 bd
       -0.0014366384 0.04751653 -0.033263013 -0.055445187
0001d0 66 ec 50 3d d4 89 60 bb 02 d9 bf bc 67 31 37 bd
       0.051006697 -0.003426184 -0.023418907 -0.044724848
0001e0 71 c1 d4 bb bc 23 48 3c f0 df 04 bd 28 1f 80 bb
       -0.0064927866 0.012215551 -0.032440126 -0.003909964
0001f0 22 be 2d bd 36 47 a5 3b 9a 65 3e 3d c9 2b 09 3c
       -0.042417653 0.0050438894 0.046483614 0.008372256
000200 39 4f 03 bd f1 7a f9 3c 00 35 15 bd 9b f9 d3 ba
       -0.032057974 0.03045413 -0.036427498 -0.0016172411
000210 0c 6b e9 bc 00 5e d6 bc 0e 20 cb 3c 15 40 4e 3d
       -0.028493427 -0.02616787 0.024795558 0.050354082
000220 46 24 e0 bc 7b b7 60 bc 12 e3 01 ba 29 37 d1 bc
       -0.027361047 -0.01371562 -0.00049547956 -0.025538998
000230 27 c1 90 3c d8 51 23 bd f0 9d 07 3d 76 16 07 3b
       0.017670227 -0.039872974 0.033109605 0.0020612753
000240 16 44 94 3c 08 d8 31 3d 07 55 a9 bc f7 1b 49 3d
       0.018098872 0.043418914 -0.020670427 0.049098935
000250 27 17 d3 3c d6 1a cd 3c b3 48 01 3d eb 52 41 3c
       0.025767876 0.02503721 0.031563472 0.011799554
000260 92 f2 87 bc e3 d5 92 3b 6c 40 a6 3c b4 b9 42 bd
       -0.016595159 0.0044810637 0.02029439 -0.04754038
000270 c3 10 83 bb 16 e3 f4 3c 47 54 75 bc 78 1f f4 3b
       -0.003999801 0.02989344 -0.014973707 0.0074500404
000280 fc f6 95 bc 22 06 2c bd ea 92 6c 3a 85 b9 90 bd
       -0.018306248 -0.041998036 0.00090245774 -0.07066635
000290 ae 39 44 3d 76 a5 8a 3c 4f a5 5f bd 1f 9f d3 3c
       0.04790657 0.016924601 -0.05460101 0.02583271
0002a0 26 71 02 bd 8c 4f 31 bc 60 9d ad bb 83 15 b8 3b
       -0.031846188 -0.010822188 -0.0052983016 0.005617799
0002b0 4a e5 1f bd fc b8 18 bd 49 dd 12 bd a2 e8 1e bd
       -0.039037026 -0.03728579 -0.035855565 -0.038796075
0002c0 26 dc b3 bc 67 b1 37 3d d0 a7 99 3c f7 b2 23 bc
       -0.02195556 0.04484692 0.018756777 -0.009991399
0002d0 48 03 68 3c ed c5 3e 3d 78 37 29 bd 5d ca 05 bc
       0.014160939 0.046575475 -0.041312665 -0.008165923
0002e0 27 0c ca 3a 1c 5b 52 3a 62 1d 9c bb c7 85 9e bb
       0.0015414999 0.00080244406 -0.004764245 -0.004837725
0002f0 f8 45 50 3d 42 ca 0a bd 62 23 01 bb 6b 53 a0 bd
       0.050847977 -0.033884294 -0.0019704928 -0.07828411
000300 60 a9 0a bc 31 2b 17 bd 5e 6e 85 bd d4 80 1b 3d
       -0.008463234 -0.036906425 -0.065151915 0.037964657
000310 d1 07 ab bc 11 08 e9 bc 27 5c 36 3d 81 1d 8f bd
       -0.02087775 -0.02844623 0.044521477 -0.06988049
000320 d6 14 db 3c e8 d0 aa bc b0 44 8f bd 99 fc f1 bc
       0.026743334 -0.020851567 -0.06995523 -0.029539393
000330 e0 87 24 3c 02 83 95 bd f9 34 da bc 1f 0a 8e 3c
       0.010042161 -0.073003784 -0.026636587 0.01733881
000340 00 1a 60 bc ca 1b 63 bc 3a 23 13 3d 42 54 77 bd
       -0.013678074 -0.013861606 0.035922267 -0.06038309
000350 84 bd 57 bd 80 c8 23 3c d2 04 6d 3c be aa 01 bd
       -0.05267097 0.009996533 0.014466481 -0.031656973
000360 41 58 ba bc 1a f7 2a 3d e0 3f 9b 3c 3a 46 61 3c
       -0.02274716 0.04173956 0.018951356 0.0137496535
000370 ab 90 3b bd 56 94 a3 bd 75 01 8c 3c 37 14 ae bb
       -0.045792263 -0.07987277 0.017090539 -0.0053124684
000380 aa 1e 01 bd 33 78 04 bd 84 fd aa 3c d4 5a 5e bd
       -0.031523384 -0.032341193 0.020872839 -0.05428584
000390 57 a9 95 bd 3a d4 29 3d 26 ad 3c bb 43 aa 1b 3d
       -0.0730769 0.04146216 -0.0028789728 0.03800417
0003a0 f6 40 9f 3c eb f0 0a bb 19 3c b1 bc 1c c7 29 3d
       0.019440155 -0.0021200727 -0.021635102 0.04144965
0003b0 f3 71 d3 3c 1d fe 14 bc cd 20 cb 3b 9a d2 40 3d
       0.025811171 -0.009093788 0.0061989785 0.047075845
0003c0 57 89 9d 3c 70 61 10 3d 90 82 47 bb f8 d6 0f bb
       0.019230528 0.035249174 -0.0030442812 -0.00219482
0003d0 d6 3f 2d bc 02 88 d1 bc 05 ab 69 bd 9e 52 16 bc
       -0.010574302 -0.025577549 -0.057047863 -0.009174971
0003e0 8c af ca 3b ec 60 dd bc c0 90 12 3c 3f 46 0e 3c
       0.0061854776 -0.027023755 0.008945644 0.00868374
0003f0 b2 2b 74 bc 89 d5 6f 3d 80 2a 70 3c 79 86 32 bd
       -0.014902996 0.058553252 0.01465857 -0.043585274

layer_3.weight f4 [2, 300]
000000 2a 0c 42 3e cf aa aa be f6 85 0b be 5e 58 bd bd
       0.18949953 -0.33333442 -0.13625321 -0.0924537
000010 ca 6b 84 3b f9 1b 03 be c8 d2 b0 3d 95 5e 5f 3d
       0.00404117 -0.1280364 0.08633953 0.05453356
000020 0d c4 f3 3c a6 74 0c bf 4e e9 8c 3c 7a e5 c8 bd
       0.02975657 -0.5486549 0.017201092 -0.09809394
000030 57 be 05 3b 59 f1 a4 3e 13 6b 3d 3e 76 95 34 3e
       0.002040764 0.32215384 0.18497877 0.1763514
000040 37 ed e5 3d 78 7c df bd 8b f9 95 bd 04 60 79 3e
       0.11226886 -0.109124124 -0.07322987 0.24353033
000050 58 79 ab 3b 95 f4 b6 bd 3c 6d 2d 3e 00 93 9a be
       0.005232971 -0.08933369 0.16936201 -0.30190277
000060 12 c2 39 3e 8d e0 e5 3d 48 de 4d 3e 94 0a d3 3e
       0.18140438 0.1122447 0.20104325 0.41219008
000070 e1 bf 9e 3e 9b 26 2d be 05 38 02 3e 3f 1b 69 3e
       0.31005767 -0.16909258 0.12716682 0.227643
000080 1c 9d 5d be ed 7c 4e 3e 9b e8 a1 bd cd 47 05 be
       -0.21641964 0.20164843 -0.07905694 -0.13015671
000090 24 6f 65 3e 21 4d 29 3d 9f d5 1e 3d 45 d1 89 be
       0.22405678 0.04133332 0.038777944 -0.26917472
0000a0 09 ed 1c 3e 03 7f c3 bd aa 94 2d be e1 77 75 3d
       0.15324797 -0.0954571 -0.16951242 0.05992878
0000b0 a0 1b 75 be cd 36 c5 3d 2a 53 26 3e f4 d3 28 bc
       -0.2393632 0.09629593 0.16242662 -0.01030444
0000c0 ef 2c 6d bd 46 d7 14 3e ab 93 83 3d e2 13 4b be
       -0.05790418 0.14535245 0.0642465 -0.19831803
0000d0 28 cd aa 3b 80 89 2f be 29 3b 7b 3e 25 1e a3 3d
       0.005212445 -0.17142296 0.24534287 0.07964734
0000e0 99 ff 4a 3e 7b 1a 61 bd d4 b6 ce 3d be 88 92 be
       0.19824065 -0.054956894 0.100934654 -0.2861995
0000f0 85 6d 07 bd 46 56 a1 be df ff 04 3e b7 22 20 bf
       -0.03306343 -0.31511134 0.12988232 -0.6255297
000100 9e 35 11 3e 3c 8c 51 3d bb 4f 4b 3d c2 71 4a 3e
       0.1418061 0.05115913 0.049636584 0.19769958
000110 46 09 01 be 79 0c e6 bd 20 b8 b5 3b 34 2b 77 be
       -0.12601194 -0.11232848 0.005545631 -0.24137574
000120 57 02 9d 3d 95 fe 0d 3c 58 43 00 3e a2 6d d5 bd
       0.07666462 0.008666654 0.1252569 -0.104213014
000130 49 33 c5 be 32 1d 14 3f 58 89 a8 be bd 09 ce bd
       -0.3851569 0.5785705 -0.32917285 -0.10060451
000140 cb 7b 4c bd 7a 56 f4 3d 67 8c eb bb ac 35 8c be
       -0.049922746 0.119305566 -0.007188368 -0.27384698
000150 b0 03 d1 bd 01 64 29 be b3 9d 52 be ea 1e 17 bd
       -0.102057815 -0.16542055 -0.2056797 -0.036894716
000160 95 84 b3 bd d7 32 1e bd de e1 43 be 17 3d 73 3e
       -0.087655224 -0.038622703 -0.1912913 0.23753773
000170 57 ab d3 3d 07 cc d4 3c 7d f5 03 be c6 99 f2 be
       0.10335415 0.025976194 -0.12886615 -0.47382945
000180 74 7e 06 3e ac 07 dd bd 87 0d a8 3e 36 33 89 bc
       0.13134176 -0.10792479 0.3282282 -0.016748052
000190 ec 0e 01 3e 91 e6 46 3d e1 03 d5 be 50 00 14 3e
       0.12603348 0.04855973 -0.41604522 0.14453244
0001a0 00 73 96 be 99 c9 95 bd 49 28 9f 3e 7d 8b 29 be
       -0.29384613 -0.07313842 0.31085423 -0.16557117
0001b0 28 39 be be 2d ad fd 3c f9 87 3e 3e 4c fc 46 be
       -0.37152982 0.030966366 0.18606557 -0.19432181
0001c0 10 78 55 3e 94 2a 54 bc d0 d5 e0 bd 49 0c aa 3d
       0.20846581 -0.012949605 -0.109782815 0.083031245
0001d0 3f 35 9b be be ca 5c bd 6a a9 05 bf bf 9f 13 bd
       -0.3031406 -0.053904288 -0.5221163 -0.036041018
0001e0 00 94 89 3d fe 2b 96 3c 74 95 a5 3d 15 8c 07 bf
       0.06717682 0.018331524 0.080851465 -0.52948123
0001f0 0c 61 a0 bc 2e 11 8c be 14 3a ad 3e ea 08 46 bf
       -0.019577526 -0.27356857 0.33833373 -0.7735735
000200 dd 7b f1 3e a2 19 09 3e 15 a9 f4 3d 10 74 19 be
       0.47164813 0.13388684 0.11946312 -0.1498568
000210 96 62 bd 3e 13 61 4c 3e 14 51 30 3e 90 0a 79 3d
       0.36989278 0.19958906 0.17218429 0.06080109
000220 15 0a 9c 3b fb 01 82 3d fd d4 df 3d 1e 36 70 be
       0.004761944 0.06348034 0.10929296 -0.23458144
000230 93 3e 28 be e3 42 64 3e 28 53 70 3d f4 df f8 bd
       -0.1643012 0.2229114 0.058673054 -0.12152091
000240 bb 74 4e 3e 59 93 f4 bd 96 3b e6 3d 07 15 03 bd
       0.20161717 -0.11942167 0.11241834 -0.032002475
000250 21 91 77 be 2e 8a 96 bd 99 5b 3f be 62 71 81 3e
       -0.24176456 -0.073505744 -0.18687285 0.25281817
000260 0c d3 f6 bd a5 e3 fd bc ed 47 2c 3e 08 9a 1c 3e
       -0.12051973 -0.030992338 0.16824313 0.15293133
000270 d1 53 82 3c ca 9f 99 bd c1 ea 30 3e 7a 0e 96 3d
       0.015909107 -0.075011805 0.17277052 0.0732698
000280 f0 9c ca 3d 71 37 a2 3e f3 28 70 3c 81 16 98 3d
       0.09893215 0.31682923 0.014658201 0.07426167
000290 38 63 7d be 98 8f c1 bc 7b 55 23 bd ad c5 0c 3e
       -0.2474488 -0.023628041 -0.039876442 0.13747282
0002a0 4f 09 6b 3c 9d aa 2e 3e 36 55 22 be 3d c7 83 be
       0.014345481 0.17057271 -0.15852818 -0.25737944
0002b0 17 2e 03 3e 6b 9a aa be 85 f2 ac be 73 01 9a 3d
       0.1281055 -0.33320937 -0.33778778 0.07519808
0002c0 bb 34 ed 3d f9 46 e1 3d 6a fa 12 be 65 49 58 3e
       0.11582323 0.10999865 -0.14353338 0.21121748
0002d0 31 dc 39 3e 2f db 88 be c1 f1 34 be f7 09 42 be
       0.18150403 -0.26729724 -0.17670347 -0.18949114
0002e0 2a 61 84 3d 79 95 50 bd 00 97 bf 3a 01 cf b9 be
       0.06463845 -0.0509238 0.0014617145 -0.36290744
0002f0 fe 2f 55 3e 1d 18 a7 be df 18 94 be 35 ff ab be
       0.20819089 -0.32635584 -0.28925225 -0.33593145
000300 53 e7 18 3e c3 48 47 3e 72 e9 26 be 00 ac 87 be
       0.14931993 0.1946135 -0.1629999 -0.26498413
000310 9d d3 9f bd 19 0f d5 bc f4 32 c0 bd db ac ae be
       -0.07804034 -0.026008176 -0.093847185 -0.34116253
000320 d3 72 bf 3d 3c 8e 03 3e 0b e7 36 bf a7 60 14 3d
       0.09348073 0.12847227 -0.71446294 0.036224987
000330 d0 28 c9 3d 8f d1 18 be 54 dd c6 bd aa 20 4e 3e
       0.098222375 -0.1492369 -0.09710184 0.20129648
000340 7f 65 84 be 8f 00 01 be 2e 0a 35 3e a9 59 97 3e
       -0.25858685 -0.1259787 0.17679664 0.29560593
000350 e0 85 cb 3d 1b 0f ed 3d 7e fd ad bd 75 4d 03 3e
       0.09937644 0.11575147 -0.084956154 0.12822516
000360 49 d8 3f 3e db 09 0c bd d0 56 01 be 0a 4a 1d bd
       0.1873485 -0.034189086 -0.12630773 -0.038400687
000370 5b a7 a3 3d ab 20 62 3d 49 eb 6f be 26 c7 45 be
       0.07990905 0.055206936 -0.23429598 -0.1931425
000380 dc 71 54 be 8b 01 de bc 21 e6 4b 3d f7 45 1d bd
       -0.20746559 -0.027100345 0.049780015 -0.0383968
000390 c3 50 33 bf 57 67 e9 3d 39 81 9e 3d a9 d5 a4 bd
       -0.7004511 0.11396664 0.07739491 -0.08048565
0003a0 79 1b 82 3d 6b 3c d5 bc aa fe d1 bd 3e eb 12 3e
       0.06352896 -0.026029786 -0.102536514 0.1434755
0003b0 04 6a 37 3e b3 50 7f 3e 2c 7b 84 3e ad b7 ea bb
       0.17911536 0.24933128 0.25875223 -0.007163009
0003c0 d7 06 6b be 06 2e 91 3d ae 59 0c 3c 8e 7b 82 3e
       -0.22951828 0.070888564 0.008566303 0.2548489
0003d0 d6 81 76 be 77 b1 72 3d 9b 8b 9e 3e 88 ab 05 bf
       -0.24072966 0.059251275 0.30965886 -0.5221486
0003e0 22 bc 77 3e 09 1f 45 3e 6e d4 82 bd db 38 d4 bc
       0.2419286 0.1925012 -0.06388174 -0.025906017
0003f0 4b 8e aa 3d ab 55 2a be 56 b2 dd 3d 4e 91 fa 3c
       0.083279215 -0.16634242 0.108250305 0.030586865

layer_3.bias f4 [2]
000000 39 4d ee 3c 2c dc 43 3c
       0.029089557 0.011954349
