robot_nav/robot_nav/models/CNNTD3/checkpoint/CNNTD3_actor.pth (torch, 550561 bytes, 16 tensors)

cnn1.weight f4 [4, 1, 8]
0	0xbce11b0c	-0.027478717
1	0xbdbf3b28	-0.09337455
2	0x3e3fc244	0.1872645
3	0xbe9c9e27	-0.3058941
4	0xbe0e3250	-0.1388638
5	0xbe88eca2	-0.26743037
6	0x3e1beac6	0.15226278
7	0xbe380641	-0.17971136
8	0xbeb052e8	-0.34438252
9	0xbeb07e1f	-0.34471223
10	0x3dd38558	0.10328168
11	0xbbbb8b1f	-0.0057233716
12	0x3e980c8d	0.29697075
13	0xbe547cab	-0.20750682
14	0xbea42c81	-0.32065204
15	0x3ea8bb2e	0.32955307
16	0xbe3b8c90	-0.18315339
17	0xbe8dff0d	-0.2773365
18	0xbebeeda7	-0.3729069
19	0xbdfad292	-0.12247194
20	0x3d783891	0.06060082
21	0x3e1205db	0.14260046
22	0xbe8d1f1b	-0.27562794
23	0x3d31d648	0.043417245
24	0x3ebd4482	0.3696633
25	0x3ebd6787	0.36993048
26	0x3e049b04	0.12949759
27	0x3d150b49	0.036387715
28	0x3ebff882	0.37494284
29	0x3e815c22	0.25265604
30	0x3e42b164	0.19012982
31	0xbcbf9a5e	-0.023389038

cnn1.bias f4 [4]
0	0x3ebc92f8	0.36830878
1	0xbeaf59fb	-0.34248337
2	0x3ea8b960	0.3295393
3	0xbd37b0a9	-0.04484621

cnn2.weight f4 [8, 4, 8]
0	0x3e82b059	0.25525168
1	0x3e58d06b	0.21173255
2	0x3e3ac9fe	0.18241116
3	0x3d4f0301	0.050539974
4	0x3dc5bb7c	0.096549004
5	0x3d3a6bcb	0.045512956
6	0x3d8b1ee1	0.06792999
7	0x3e6121d8	0.21985567
8	0xbe1402ec	-0.1445424
9	0xbc111c93	-0.00885691
10	0xbe873f64	-0.2641555
11	0xbe0c3335	-0.13691409
12	0xbbb722ab	-0.0055888495
13	0xbe773fc0	-0.24145412
14	0xbdd46aa4	-0.103719026
15	0xbe03ae04	-0.1285935
16	0x3eae1a59	0.34004477
17	0x3e7e68ac	0.24844617
18	0x3ec63eee	0.38719887
19	0x3ea2caf6	0.31795472
20	0x3e9ab859	0.3021877
21	0x3e8b4b2d	0.27205792
22	0x3eaa6306	0.33278674
23	0x3f20e887	0.6285481
24	0xbd2c1711	-0.042014185
25	0x3d8bfd97	0.06835478
26	0x3bebe4c1	0.0071989005
27	0x3db786e5	0.08961276
28	0xbc81591e	-0.015789565
29	0x3e1a0ff0	0.15045142
30	0xbdecf7f8	-0.11570734
31	0xbd642d30	-0.055707157
32	0xbaa33381	-0.0012451262
33	0x3d58652a	0.052830853
34	0x3de34bf1	0.11098469
35	0x3de8f4f3	0.11374845
36	0xbd5d2049	-0.053985868
37	0x3d5f7909	0.054558787
38	0x3e0c5eaa	0.13707986
39	0x3e618bcf	0.22025989
40	0x3cb2b8dc	0.021816663
41	0xbe0dc5d4	-0.13844997
42	0xbe07ac5a	-0.1324934
43	0xbe23fdee	-0.16014835
44	0x3c3f55fb	0.011678214
45	0x3c8baa8c	0.017049097
46	0xbc51ff5b	-0.012817229
47	0xbe1b49ad	-0.15164824
48	0x3ea022b3	0.31276473
49	0x3e9601f3	0.29298362
50	0x3dc104d2	0.094247475
51	0x3ea3b541	0.31974223
52	0x3ea82209	0.32838467
53	0x3e6b2d1e	0.2296643
54	0x3e3ca4f3	0.18422298
55	0x3e7cabee	0.24674961
56	0xbe79119d	-0.24323125
57	0xbe42b1a9	-0.19013084
58	0xbd90cfdc	-0.07070896
59	0xbc959424	-0.018259116
60	0x3c292c25	0.010325466
61	0xbdc4f513	-0.09617057
62	0x3e5210fa	0.20514289
63	0x3c1e5489	0.009663709
64	0xbe840e4b	-0.25792155
65	0xbe4a30e0	-0.19745207
66	0xbdd2c85e	-0.10292123
67	0x3d12be35	0.035825927
68	0xbe42dbcd	-0.1902916
69	0x3cf5b90d	0.029995466
70	0xbe2f10fe	-0.17096326
71	0xbe209cd6	-0.15684828
72	0xbe4561d3	-0.19275598
73	0x3e4dbb02	0.20090869
74	0x3d712b4a	0.058879174
75	0x3e62aab9	0.22135438
76	0x3e1b5e5a	0.15172711
77	0xbc9b18ba	-0.018932689
78	0xbb935c86	-0.0044971136
79	0x3da18903	0.07887461
80	0xbee1fb2c	-0.4413694
81	0xbef24a24	-0.4732219
82	0xbeb7da4c	-0.35908735
83	0xbee8e1f3	-0.45484886
84	0xbf0cab03	-0.54948443
85	0xbedfb085	-0.4368936
86	0xbec7d007	-0.390259
87	0xbef64e68	-0.48106694
88	0x3e219cfb	0.1578254
89	0x3e46c213	0.19409971
90	0x3d74e186	0.05978539
91	0x3dcbc6e7	0.09950047
92	0xbba2300b	-0.004949575
93	0xbce569dd	-0.028004581
94	0x3b75243c	0.003740563
95	0xbc000dd6	-0.007815799
96	0x3da193b1	0.07889498
97	0xbe2d1765	-0.16903456
98	0x3e170176	0.14746651
99	0x3dac31b5	0.08407918
100	0xbe36ec71	-0.17863633
101	0xbe33b1bb	-0.17548268
102	0x3c922809	0.017841356
103	0xbdf3da0f	-0.11906826
104	0xbba6917e	-0.005083262
105	0x3c05d66c	0.008168798
106	0xbd846137	-0.06463855
107	0xbc3acf5d	-0.011401978
108	0x3df4c0b7	0.1195082
109	0xbdc0bbc6	-0.09410815
110	0x3e1a5237	0.15070425
111	0xbd0b317b	-0.033982735
112	0xbbd02b1b	-0.006352795
113	0x3bea7ffe	0.007156371
114	0x3d50c179	0.05096576
115	0xbd806010	-0.062683225
116	0xbe9b6df8	-0.30357337
117	0xbe998139	-0.29981402
118	0xbeec7574	-0.4618336
119	0xbf205ee3	-0.62644786
120	0xbdc9033c	-0.0981507
121	0xbbe61435	-0.007021452
122	0xbe727af1	-0.23679711
123	0x3b3695b7	0.0027860233
124	0x3e017e3a	0.12645808
125	0x3d9fad25	0.077966966
126	0xbda0025c	-0.0781295
127	0xbe454d87	-0.19267856
128	0xbc99a32e	-0.018754568
129	0xbdddbae8	-0.10826665
130	0xbdcf2ff8	-0.10116571
131	0xbdcf4a10	-0.10121548
132	0xbe2f5f2a	-0.17126146
133	0xbe74d21f	-0.2390828
134	0xbe831895	-0.25604692
135	0xbe34a39a	-0.17640534
136	0x3dc2af83	0.095061325
137	0xbd7bd76b	-0.061484735
138	0x3e3a542b	0.1819617
139	0x3dde1b66	0.108450696
140	0xbdc16878	-0.09443754
141	0xbdc25905	-0.094896354
142	0xbdb59b7d	-0.08867548
143	0xbd00fded	-0.031492162
144	0xbe635255	-0.22199376
145	0xbe2444ed	-0.16041918
146	0xbebb6b27	-0.36605188
147	0xbea957d5	-0.33074823
148	0xbe142e0e	-0.14470693
149	0xbe1ff93c	-0.15622419
150	0xbe84ab03	-0.25911722
151	0xbef0c7c2	-0.47027403
152	0xbdea61e5	-0.11444453
153	0xbe6ca639	-0.23110284
154	0xbdbb7cd7	-0.09154671
155	0xbe0a9397	-0.13532864
156	0xbde9471d	-0.11390517
157	0x3c677ab2	0.014128374
158	0x3e1bb83a	0.15206996
159	0xbd88c44b	-0.06678065
160	0x3e46a564	0.19399029
161	0x3e074b82	0.13212398
162	0xbcf8220f	-0.030289678
163	0x3df9d8d3	0.12199559
164	0xbdc9e010	-0.0985719
165	0xbd7e14aa	-0.062031426
166	0xbe3b19d1	-0.18271567
167	0xbe61a71a	-0.220364
168	0xbd1a5508	-0.03767875
169	0x3d4f101a	0.050552465
170	0xbd72483b	-0.059150916
171	0xbe3cb15f	-0.18427037
172	0x3d6a1598	0.0571495
173	0x3db6d104	0.08926585
174	0xbe69933b	-0.2281007
175	0x3bb7e72a	0.0056122737
176	0x3e108928	0.14114821
177	0x3e3a4e5c	0.18193954
178	0xbc134d33	-0.008990574
179	0x3e104c36	0.14091572
180	0xbd31fd59	-0.0434545
181	0xbe353b89	-0.17698492
182	0xbf01eb3d	-0.5074957
183	0xbef5c6f8	-0.48003364
184	0x3e0b72fb	0.1361808
185	0x3dd158ad	0.10221992
186	0x3dac65e4	0.084178716
187	0x3d79c56c	0.06097929
188	0x3e2926c9	0.16518702
189	0x3e6675f0	0.22505927
190	0x3dd7021d	0.1049845
191	0x3e8bdfb6	0.27319115
192	0xbe33f09d	-0.17572255
193	0xbe20da66	-0.15708312
194	0xbe0527fa	-0.13003531
195	0x3d572510	0.05252558
196	0x3e1a67fd	0.15078731
197	0x3dd9c245	0.10632757
198	0x3d433689	0.04765943
199	0xbc714523	-0.014725956
200	0x3b315840	0.0027060658
201	0xbdaab107	-0.083345465
202	0x3e17485e	0.147737
203	0x3d54901e	0.051895253
204	0xbd656d01	-0.056012157
205	0xbc91b84d	-0.017788077
206	0x3d9baee1	0.07601715
207	0xbd617266	-0.05504074
208	0x3e684f9e	0.22686622
209	0x3e9f84e3	0.31156072
210	0x3e36897f	0.17825888
211	0x3e00bf55	0.12572987
212	0x3c90d8c0	0.01768148
213	0x3df12c2c	0.11776003
214	0x3e5ef6e9	0.21773876
215	0x3e6820f8	0.22668827
216	0xbe261802	-0.16220096
217	0xbd9777c1	-0.07395888
218	0xbe77ab6e	-0.24186489
219	0xbe12e9ac	-0.14346951
220	0xbe8996be	-0.2687282
221	0xbd03581f	-0.03206646
222	0xbd820270	-0.06348121
223	0xbd167801	-0.03673554
224	0x3d09e338	0.03366396
225	0xbe0455bc	-0.1292333
226	0xbe039f83	-0.12853818
227	0x3e372eef	0.17888997
228	0x3cebfefa	0.028808106
229	0x3e0a6fea	0.13519254
230	0x3c4b6c1e	0.012415914
231	0x3eaa0a62	0.33211046
232	0x3e14e212	0.14539364
233	0x3dd011e3	0.101596616
234	0xbd226b8b	-0.039653342
235	0xbe706499	-0.23475875
236	0xbe436635	-0.19081958
237	0xbdbe0b27	-0.09279471
238	0xbd73b13d	-0.0594952
239	0x3db7f927	0.08983069
240	0x3e65ad5c	0.22429413
241	0x3e20f5cf	0.15718769
242	0x3e8a2c26	0.26986808
243	0x3dc0c141	0.0941186
244	0x3e13184e	0.1436474
245	0x3e914c6e	0.28378624
246	0x3de4c6dd	0.11170743
247	0x3e977fd4	0.29589713
248	0xbda5c2bb	-0.080937825
249	0x3d313c8d	0.043270636
250	0x3d1c3c88	0.038143665
251	0xbc85a0ab	-0.016311964
252	0xbbc21c6e	-0.0059237992
253	0x3c3899c8	0.011267133
254	0x3c6a0861	0.014284224
255	0x3d0c618a	0.034272708

cnn2.bias f4 [8]
0	0x3e09d765	0.13461073
1	0x3e3773ca	0.17915264
2	0xbd154733	-0.036444854
3	0xbe6fdc5d	-0.23423906
4	0xbe8a6141	-0.27027324
5	0x3d7a005b	0.061035495
6	0xba10e206	-0.0005526844
7	0x3e3b03ae	0.18263122

cnn3.weight f4 [4, 8, 4]
0	0xbd4abcc7	-0.04949644
1	0xbe58e2d0	-0.21180272
2	0x3d90bc6f	0.07067191
3	0x3e43364f	0.19063686
4	0xbe837fc4	-0.25683415
5	0x3ca6ca77	0.020360215
6	0xbe7e7774	-0.24850255
7	0xbd6a8728	-0.0572578
8	0xbe937da8	-0.28806806
9	0xbec10639	-0.3770006
10	0xbec8041f	-0.39065644
11	0xbe8d936a	-0.2765153
12	0x3e3b6e09	0.18303694
13	0x3e993a11	0.29927114
14	0x3e54c880	0.2077961
15	0xbd529583	-0.051412117
16	0x3e0f7a7f	0.14011572
17	0x3e39be84	0.18139082
18	0x3de3f2ca	0.11130293
19	0xbe46daa5	-0.19419344
20	0xbf1d55e8	-0.6145921
21	0xbecbcfdb	-0.3980702
22	0xbedb7c64	-0.4286834
23	0xbf55e8cc	-0.83558345
24	0xbe40c702	-0.18825915
25	0xbb0b33cf	-0.0021240597
26	0xbd0c1798	-0.03420219
27	0x3d4112b7	0.04713699
28	0xbda6ec2d	-0.08150516
29	0xbeaead6a	-0.3411668
30	0xbee80783	-0.4531823
31	0xbd3f7b61	-0.046748523
32	0x3e6edbf1	0.23326088
33	0x3c9d0f5b	0.019172361
34	0x3e887c0f	0.2665715
35	0x3e96ce2b	0.2945417
36	0x3c593df3	0.013259399
37	0x3e37ee91	0.179621
38	0x3e1e96ca	0.15487209
39	0x3da5aad9	0.08089227
40	0x3d815887	0.063157134
41	0xbcf49af6	-0.029859047
42	0xbda3d38f	-0.07999336
43	0xbe5f0540	-0.21779346
44	0xbe0485c4	-0.12941653
45	0xbe7149db	-0.2356333
46	0xbcadb795	-0.021205703
47	0xbebc77ee	-0.3681025
48	0xbe8e09db	-0.27741894
49	0xbe8dd01b	-0.27697834
50	0x3d525ee4	0.051360026
51	0xbccfeabf	-0.02538049
52	0x3d81fc12	0.06346907
53	0xbde18749	-0.11012132
54	0xbbe003ba	-0.0068363817
55	0xbdfb08fa	-0.122575715
56	0x3e3d4000	0.18481445
57	0x3e71d4b0	0.2361629
58	0x3e5f4bcc	0.21806258
59	0x3e1460b1	0.1449001
60	0x3df696aa	0.12040456
61	0xbdb694c6	-0.08915095
62	0x3e17ff3f	0.14843462
63	0x3db8f401	0.09030915
64	0xbd49d0eb	-0.049271505
65	0x3dba6ed2	0.091031685
66	0x3d545adb	0.05184446
67	0x3eb27da5	0.34861484
68	0xbd0b8cf1	-0.03406996
69	0x3dca2c93	0.09871783
70	0xbcdf193f	-0.027233718
71	0x3e28c454	0.16481143
72	0x3e192dd4	0.14958888
73	0x3de3efa5	0.11129693
74	0xbdd3df87	-0.10345369
75	0xbdec4d20	-0.11538148
76	0xbd55d74b	-0.052207272
77	0x3e087d02	0.13328937
78	0xbddc85fe	-0.107677445
79	0xbc52cd4c	-0.012866329
80	0xbe1f0d4f	-0.1553242
81	0xbe19f5e9	-0.15035214
82	0xbdbaef0c	-0.09127626
83	0xbe1a8a16	-0.15091738
84	0x3db12a69	0.08650667
85	0x3da118ab	0.07866033
86	0x3e217123	0.15765814
87	0xbe544bc8	-0.20732033
88	0x3e1d3d74	0.15355474
89	0x3e1dfba9	0.15428032
90	0x3c905b5a	0.017621685
91	0x3e9deb98	0.30843806
92	0xbd3a4972	-0.0454802
93	0xbe16186b	-0.14657752
94	0xbc207144	-0.00979263
95	0x3e2633f1	0.16230752
96	0x3ea9726e	0.33095115
97	0xbce54385	-0.027986297
98	0x3d7dae58	0.061933845
99	0x3e080634	0.13283616
100	0x3ef29a73	0.4738346
101	0x3e2aa229	0.16663422
102	0x3d99de9d	0.07513163
103	0x3e571c59	0.21006908
104	0xbe95b28f	-0.29237792
105	0xbe182c51	-0.14860655
106	0x3d98aca3	0.07454803
107	0x3e0e5087	0.13897906
108	0xbd4b4988	-0.04963067
109	0xbe5f2182	-0.21790126
110	0x3e09767e	0.13424107
111	0xbeab6f69	-0.33483437
112	0xbe62c539	-0.22145547
113	0x3df1af6b	0.118010364
114	0xbdd1d85e	-0.10246347
115	0xbe8f3221	-0.27967933
116	0x3c8cac6e	0.017172065
117	0xbd3614a4	-0.04445328
118	0x3dd5681e	0.104202494
119	0x3dd255d3	0.10270276
120	0x3eb6a786	0.35674685
121	0x3d69fd4a	0.05712632
122	0x3e962350	0.29323816
123	0x3e89247b	0.26785645
124	0x3e0ca3bd	0.13734336
125	0xbd8a7baa	-0.06761868
126	0xbd6f0a5a	-0.05835948
127	0x3aea856b	0.0017892545

cnn3.bias f4 [4]
0	0xbeacedf6	-0.337753
1	0x3e71ea97	0.23624645
2	0xbd9e706b	-0.07736286
3	0xbd777611	-0.06041533

goal_embed.weight f4 [10, 3]
0	0x3f47feb0	0.78123
1	0x3eb1cf79	0.34728602
2	0xbee2c88d	-0.44293633
3	0xbe7ed69c	-0.24886554
4	0xbf2fa695	-0.6861356
5	0xbf172cf7	-0.59052986
6	0x3f84f85b	1.0388292
7	0xbdd0c85d	-0.10194466
8	0x3d909c6a	0.070610836
9	0x3e5c9fd0	0.21545339
10	0x3f08b637	0.5340304
11	0xbe533560	-0.2062583
12	0xbf265aac	-0.64982104
13	0x3f092af7	0.53581184
14	0xbb1f3338	-0.0024292003
15	0xbdb9be00	-0.09069443
16	0xbf2eb885	-0.68250304
17	0x3f21e671	0.6324225
18	0x3ef18296	0.47169942
19	0x3f0462be	0.5171317
20	0x3e80c3db	0.25149426
21	0x3c308434	0.010773707
22	0x3f2641cd	0.64944154
23	0xbf209002	-0.6271974
24	0xbeaaffda	-0.33398324
25	0x3e793961	0.24338295
26	0x3f1dfd8f	0.61715025
27	0x3f2415b7	0.64095634
28	0x3dcc267d	0.099682786
29	0x3f40ec0f	0.75360197

goal_embed.bias f4 [10]
0	0xbdf045a3	-0.11732032
1	0x3ea9c1ad	0.33155575
2	0x3db87dba	0.090083554
3	0xbe810c61	-0.25204757
4	0x3d98e99e	0.07466434
5	0xbe05863b	-0.13039486
6	0x3afb3edc	0.0019168514
7	0x3e3e2de9	0.18572201
8	0x3d1e88ea	0.03870479
9	0x3e83e8f8	0.2576368

action_embed.weight f4 [10, 2]
0	0x3ea2da73	0.3180729
1	0x3f07d0fa	0.5305325
2	0x3ec1a791	0.37823156
3	0xbd8a426c	-0.0675095
4	0xbf07f459	-0.5310722
5	0x3ecd5990	0.40107393
6	0x3eca4a0c	0.39509618
7	0x3f12ca2c	0.5733974
8	0xbec00c2c	-0.37509286
9	0x3f0788d5	0.52943164
10	0x3e7a411b	0.24438898
11	0x3f036c13	0.51336783
12	0x3ee3d296	0.44496602
13	0x3f069608	0.5257268
14	0xbe070e94	-0.13189155
15	0xbf1a930f	-0.60380644
16	0x3ed36a32	0.41291958
17	0x3f139def	0.5766286
18	0x3e51852c	0.20460957
19	0x3eec7b26	0.46187705

action_embed.bias f4 [10]
0	0xbf2cd143	-0.6750681
1	0x3f46305e	0.7741755
2	0x3f079c43	0.5297281
3	0xbd897c94	-0.067132145
4	0xbebd3e84	-0.36961758
5	0x3e83b002	0.2572022
6	0xbe1a4a4a	-0.15067402
7	0xbf4f31ef	-0.8093557
8	0xbf3f52e2	-0.74735844
9	0xbdbd5a38	-0.092457235

layer_1.weight f4 [400, 36]
0	0xbe469a90	-0.19394898
1	0x3e5bc5f5	0.21462233
2	0x3e6611ad	0.2246768
3	0xbe7c2deb	-0.24626891
4	0x3e36c729	0.17849411
5	0xbed58bfe	-0.41708368
6	0xbd97c90b	-0.07411393
7	0x3eab8ec9	0.33507374
8	0x3eac0330	0.33596182
9	0xbd045e8c	-0.03231673
10	0xbe0a7b5c	-0.1352362
11	0xbf093ba2	-0.5360662
12	0x3edbc6e6	0.42925185
13	0x3e654b4d	0.22392006
14	0xbeb2f521	-0.34952644
15	0xbe3694f9	-0.17830266
16	0x3de50e24	0.11184338
17	0xbe480b15	-0.19535477
18	0x3f0cb141	0.5495797
19	0x3e8a009e	0.26953596
20	0x3b964163	0.0045854314
21	0x3e889650	0.2667718
22	0x3e66ecb6	0.22551236
23	0xbec1c835	-0.37848058
24	0xbea298ed	-0.31757298
25	0xbeb3353a	-0.35001546
26	0x3e3d1b17	0.18467365
27	0x3dda0f9a	0.10647507
28	0x3e735879	0.23764218
29	0xbdc7ffe1	-0.09765602
30	0x3e67d2b3	0.22638969
31	0xbebcdec1	-0.36888698
32	0x3eadeb34	0.33968508
33	0x3e64da1a	0.22348824
34	0xbe0a02d2	-0.13477638
35	0x3e8950dc	0.26819503
36	0xbe63c9ba	-0.22244921
37	0x3da2a0e5	0.079408444
38	0xbe7e3080	-0.24823189
39	0xbd90f4b9	-0.07077927
40	0xbe296086	-0.16540727
41	0x3db98c91	0.09060014
42	0x3e2bd23e	0.1677942
43	0x3ca4725b	0.02007406
44	0x3e9e4152	0.3090921
45	0xbe188c3e	-0.14897248
46	0xbe811672	-0.25212437
47	0xbd8c8ff0	-0.068633914
48	0xbea54a27	-0.32283136
49	0x3c07b937	0.008283905
50	0x3eb2b903	0.34906778
51	0x3ec89750	0.39177942
52	0x3cb58336	0.022157293
53	0x3eb14648	0.34623933
54	0xbda1a47f	-0.07892703
55	0xbe5dcdbb	-0.21660511
56	0x3e958548	0.29203248
57	0xbeb6df70	-0.35717344
58	0xbef4b3fa	-0.4779356
59	0x3ec28c57	0.37997696
60	0xbd8ec1d2	-0.06970562
61	0xbe936535	-0.28788152
62	0x3eac9c90	0.33713198
63	0xbe4ed21a	-0.20197335
64	0x3d6d9b95	0.058009703
65	0xbec822c1	-0.39089015
66	0x3d0570ce	0.032578282
67	0x3eb350eb	0.35022673
68	0xbdc3199c	-0.09526369
69	0x3d3c6419	0.045993898
70	0x3b4fb871	0.003169563
71	0x3e42718c	0.18988627
72	0x3cf82333	0.030290222
73	0xbec3afe7	-0.3822014
74	0x3e8c5c10	0.27413988
75	0x3e7f93f4	0.24958783
76	0x3e891b29	0.26778534
77	0x3ec8bbc6	0.3920576
78	0xbd87e8ee	-0.06636225
79	0xbd86f349	-0.06589372
80	0x3e498e66	0.19683227
81	0x3d417963	0.047234904
82	0xbecba981	-0.3977776
83	0x3e47b175	0.19501288
84	0x3e2c0380	0.1679821
85	0x3e4de5e8	0.20107234
86	0x3b895b04	0.004191758
87	0xbccd0c2d	-0.02503022
88	0xbeb69508	-0.35660577
89	0xbe8f5acd	-0.27998963
90	0x3e842e00	0.25816345
91	0xbe29944a	-0.16560474
92	0x3d7db080	0.0619359
93	0xbe596e2d	-0.21233435
94	0x3ebeac00	0.372406
95	0xbe61b44d	-0.22041436
96	0x3dddc9c2	0.10829498
97	0xbe1e9cef	-0.15489553
98	0x3e89e48c	0.2693218
99	0x3df662cf	0.12030565
100	0xbdd72436	-0.105049536
101	0x3ead079e	0.33794874
102	0xbdbe8a42	-0.09303714
103	0xbe851e88	-0.25999856
104	0xbe18edb6	-0.1493443
105	0xbea51eff	-0.3225021
106	0xbe18c94f	-0.14920543
107	0xbe94981c	-0.290223
108	0x3e5c8aba	0.21537295
109	0x3d60555f	0.054768916
110	0xbef541c2	-0.47901732
111	0x3dc48e10	0.09597409
112	0x3ea2a1e9	0.31764153
113	0x3dbe6fe1	0.09298683
114	0xbeaedb10	-0.34151506
115	0x3ead4f74	0.3384968
116	0x3de12496	0.10993306
117	0xbdd88591	-0.10572351
118	0xbebe6bb5	-0.3719155
119	0x3c92ca35	0.017918685
120	0x3e5b6511	0.21425273
121	0x3e1cb01b	0.15301554
122	0xbe9d436e	-0.30715507
123	0x3ee5fc95	0.44919267
124	0x3cd9bae8	0.026578382
125	0x3e8f4f17	0.27990028
126	0xbeadb5ee	-0.33927864
127	0x3e425065	0.1897598
128	0x3e311075	0.17291434
129	0x3de0a15e	0.10968278
130	0xbeade170	-0.33961058
131	0x3e693940	0.22775745
132	0xbe909268	-0.282367
133	0x3d86c9cc	0.065814584
134	0xbe954a25	-0.2915813
135	0x3ccd51d8	0.02506344
136	0x3e312b68	0.17301714
137	0xbe9c311e	-0.30506223
138	0x3e4c7aad	0.19968672
139	0xbe30dc0f	-0.17271446
140	0xbebc35e2	-0.3675986
141	0x3eaa449d	0.33255473
142	0x3d963591	0.07334436
143	0xbe98850e	-0.29789013
144	0x3ea54d99	0.32285765
145	0x3eb47c56	0.3525111
146	0xbdf66860	-0.12031627
147	0x3e545831	0.20736767
148	0xbc335333	-0.010945129
149	0x3dc4e93a	0.09614797
150	0x3e76f368	0.2411629
151	0x3e815c16	0.25265568
152	0x3e391db0	0.18077731
153	0x3d8b1572	0.067912
154	0x3dcd61d3	0.10028424
155	0xbe263161	-0.16229774
156	0xbd987627	-0.07444411
157	0xbd357369	-0.044299517
158	0xbe4f82dd	-0.20264764
159	0xbcbeb71b	-0.02328067
160	0x3e49f857	0.1972364
161	0x3e042541	0.12904836
162	0x3e6ba5cf	0.2301247
163	0xbe56cac4	-0.20975786
164	0xbebb8ab0	-0.36629248
165	0x3ef9ad7c	0.4876517
166	0xbe6f0576	-0.23341927
167	0x3cedd501	0.029032232
168	0xbe2f551f	-0.17122315
169	0xbcbc82c0	-0.023011565
170	0x3e9971f1	0.29969743
171	0x3d8ac34f	0.067755334
172	0xbe00507f	-0.12530707
173	0xbe090fbe	-0.13384911
174	0xbea1065c	-0.31450164
175	0xbda2e022	-0.07952906
176	0xbd9ad48a	-0.0756007
177	0x3cc15c30	0.023603529
178	0x3e80abc6	0.25131053
179	0x3e4319ec	0.19052857
180	0x3ea622a8	0.32448316
181	0x3d8f69b0	0.0700258
182	0x3e8c3653	0.27385196
183	0xbd5a4cef	-0.053296026
184	0x3e350d41	0.17680837
185	0x3e7e36e4	0.24825627
186	0xbe122e43	-0.1427546
187	0x3deffc07	0.11717992
188	0x3ecb0fa9	0.39660385
189	0xbe6ecb9b	-0.23319857
190	0xbe362b89	-0.17790045
191	0xbe9e0030	-0.30859518
192	0x3ec1d538	0.37857985
193	0x3ee2e449	0.44314793
194	0x3eb32b48	0.34993958
195	0x3dd5f877	0.104477815
196	0xbd2a22bb	-0.041537028
197	0xbe87ab61	-0.2649794
198	0x3eef5cc5	0.46750465
199	0xbdb03033	-0.08602943
200	0xbf3fc8a7	-0.74915546
201	0xbdbfebf8	-0.09371179
202	0xbe3e5614	-0.18587524
203	0xbe3c8547	-0.18410216
204	0xbeca401d	-0.3950204
205	0xbed6512b	-0.418588
206	0x3dccda0f	0.10002529
207	0x3e360cde	0.17778346
208	0xbeb06f9e	-0.34460157
209	0x3d73bec3	0.059508096
210	0xbdc847a2	-0.09779288
211	0x3e48f173	0.19623356
212	0x3d92a7b9	0.07160897
213	0x3d54785c	0.051872596
214	0xbe21eaaa	-0.15812173
215	0xbd4980e7	-0.049195196
216	0xbd3868c9	-0.045021806
217	0xbe6c6a08	-0.23087323
218	0xbc973dd2	-0.018462095
219	0x3ee72089	0.4514201
220	0xbe853113	-0.26014003
221	0xbf00baa8	-0.50284815
222	0x3eb70e94	0.3575331
223	0xbc4d7eaa	-0.012542406
224	0xbeb781f5	-0.35841337
225	0x3e4ae029	0.19812073
226	0x3ec4ea00	0.38459778
227	0x3c8ddf1e	0.017318305
228	0xbe797022	-0.24359182
229	0x3e923cfb	0.2856215
230	0xbe2ae60e	-0.16689321
231	0x3eca0346	0.39455622
232	0x3e7401c3	0.23828797
233	0xbf10aa3a	-0.56509745
234	0x3e473d3f	0.19456957
235	0xbde8dcf3	-0.11370268
236	0x3d844cad	0.06459937
237	0x3ec4a23a	0.3840502
238	0xbded267e	-0.115796074
239	0xbe819d43	-0.25315294
240	0x3db5e1d1	0.08880962
241	0x3cc703a1	0.024293723
242	0xbecf4e60	-0.40489483
243	0x3e67aa70	0.2262361
244	0x3e49ff14	0.19726211
245	0x3e78de8f	0.2430365
246	0x3e6805f8	0.22658527
247	0xbe09fe7c	-0.13475984
248	0x3daa4c33	0.08315315
249	0x3d98ec0f	0.074668996
250	0xbdbdcc93	-0.09267535
251	0x3e116580	0.14198875
252	0x3e202e34	0.15642625
253	0xbe3fe7b8	-0.18740737
254	0x3e8a4e38	0.270128
255	0xbdc3a6f7	-0.095533304

layer_1.bias f4 [400]
0	0x3ddb8237	0.10718196
1	0x3bd6065a	0.006531519
2	0xbdfb12ec	-0.122594684
3	0x3e10e5bd	0.14150138
4	0xbdc58eef	-0.09646403
5	0x3c37bfe4	0.011215184
6	0xbdaefa63	-0.08543851
7	0x3ba2d4a4	0.0049691964
8	0x3d39ca43	0.045358907
9	0x3d94c27a	0.07263656
10	0x3cbc3274	0.022973277
11	0xbddc4598	-0.107554615
12	0x3df1308d	0.117768385
13	0xbe26b85d	-0.16281267
14	0x3da59f97	0.0808708
15	0xbdede026	-0.116150185
16	0x3e3ed15d	0.18634553
17	0x3d738b5f	0.059459087
18	0x3b950d58	0.00454871
19	0x3e092430	0.1339271
20	0x3dc3c20a	0.095584944
21	0xbe0f7351	-0.14008833
22	0x3d65ee76	0.056135617
23	0x3d8a3c0c	0.06749734
24	0xbd877526	-0.06614141
25	0x3da80bf0	0.08205402
26	0xbd6eebc3	-0.05833031
27	0x3e1c24b3	0.15248375
28	0x3e2d355d	0.16914888
29	0x3e081132	0.1328781
30	0xbc0b587b	-0.008504982
31	0x3ddd8541	0.10816432
32	0x3d4dbab3	0.05022688
33	0xbc8158f2	-0.015789483
34	0xbd14fe08	-0.036375076
35	0xbd5d2d91	-0.053998534
36	0x3e4ef147	0.20209228
37	0x3e054fdb	0.13018744
38	0x3e495f98	0.19665372
39	0xbc2b7167	-0.010464049
40	0x3da7b39b	0.08188554
41	0x3e20334e	0.15644571
42	0xbe4da9ee	-0.20084354
43	0xbdd90ac6	-0.10597758
44	0x3ce550df	0.027992664
45	0xbd3443d9	-0.044010017
46	0xbd427897	-0.047478285
47	0xbdf423bd	-0.11920879
48	0x3e8477c1	0.25872615
49	0x3d3e3c1a	0.046444036
50	0x3d6aefce	0.0573576
51	0xbe0af34a	-0.1356937
52	0x3d752420	0.059848905
53	0x3bc1ecd8	0.0059181266
54	0x3e0dea24	0.13858849
55	0xbd404057	-0.04693636
56	0xbd6c166c	-0.05763857
57	0x3d892064	0.06695631
58	0x3d714c57	0.058910694
59	0x3e090c7b	0.13383667
60	0x3e4cd382	0.20002559
61	0xbddda547	-0.1082254
62	0x3e5c96fa	0.21541968
63	0x3e2efa62	0.17087701
64	0x3e65bcb5	0.22435267
65	0x3cec733e	0.028863546
66	0xbdae26c9	-0.085034914
67	0xbd2a218f	-0.04153591
68	0x3db4b2cb	0.088231646
69	0x3e54dd56	0.20787558
70	0xbcd5614c	-0.026047371
71	0xbd2344b3	-0.03986044
72	0x3dc3a537	0.095529966
73	0x3e0563d9	0.1302637
74	0xbcc14fb0	-0.023597568
75	0xbc021a2d	-0.007940811
76	0x3d900396	0.07031934
77	0x3d8cbd69	0.068720646
78	0x3e1755a7	0.14778768
79	0xbc0eef99	-0.008724117
80	0x3d7820fd	0.060578335
81	0x3c3e5385	0.011616592
82	0xbdb86313	-0.09003272
83	0xbd954d88	-0.072901785
84	0x3d932e2c	0.07186541
85	0xbe67f144	-0.2265063
86	0xbdeb5dea	-0.11492522
87	0x3dad6454	0.08466402
88	0xbd00adc4	-0.031415716
89	0xbe059b78	-0.13047588
90	0x3e0c7a2c	0.1371848
91	0xbe182fb9	-0.14861955
92	0x3bc508a8	0.006012995
93	0xbe5d2d53	-0.21599321
94	0x3d4632fa	0.04838846
95	0x3c77120e	0.015079988
96	0xbc858dd5	-0.016302982
97	0xbc4a8a0d	-0.012362015
98	0xbe19e61c	-0.15029186
99	0x3e6fd207	0.23419963
100	0xbd66a1e2	-0.056306727
101	0x3d81eb9f	0.06343769
102	0xbcea9f3a	-0.028640378
103	0xbe283cc7	-0.16429435
104	0x3d00838d	0.031375457
105	0x3e20c83a	0.1570138
106	0xbd99a73a	-0.07502599
107	0x3d5fdd57	0.054654445
108	0xbd0fb4c3	-0.035084497
109	0x3e33d1d6	0.17560515
110	0xbe43300b	-0.19061296
111	0xbc19affe	-0.009380339
112	0xbcf29fa8	-0.029617146
113	0x3e8dc4b4	0.27689135
114	0x3d2ce116	0.042206846
115	0x3e4175da	0.18892613
116	0x3e14d212	0.1453326
117	0xbd8201e1	-0.063480146
118	0x3e5484ab	0.20753734
119	0xbd272b0a	-0.04081253
120	0xbe328d83	-0.17436795
121	0x3e19f310	0.15034127
122	0x3dfcf193	0.12350764
123	0x3dda64ba	0.10663743
124	0xbd032ab1	-0.032023136
125	0x3d254627	0.040350106
126	0xbbd1f375	-0.006407196
127	0x3e1f927d	0.15583225
128	0x3d3f4f1d	0.046706308
129	0xbd6f2a47	-0.05838993
130	0xbd66d43a	-0.05635474
131	0x3d652772	0.05594582
132	0x3e313d4f	0.17308544
133	0x3d930bf9	0.07180018
134	0x3e368a59	0.17826213
135	0x3dc308ca	0.09523161
136	0xbcb62942	-0.02223647
137	0xbd2effe3	-0.0427245
138	0xbd8751fc	-0.06607434
139	0x3d874cc3	0.06606438
140	0xbca7f1c5	-0.020501027
141	0xbcd9d3eb	-0.026590308
142	0x3dd8dfde	0.10589574
143	0xbc87e6b8	-0.016589507
144	0xbca1e089	-0.019760387
145	0x3e1ccc36	0.15312275
146	0xbe36672b	-0.17812793
147	0xbd133b02	-0.035944946
148	0x3e3a40a7	0.18188725
149	0x3cb7fcb4	0.022459365
150	0x3e1b893f	0.15189074
151	0xbd37d33a	-0.044879176
152	0xbe8868d3	-0.26642475
153	0x3df96419	0.12177295
154	0xbe07166d	-0.13192149
155	0xbcf0190b	-0.029308816
156	0x3d12bca1	0.03582442
157	0xbd63dfce	-0.05563336
158	0x3e11dd43	0.14244561
159	0xbe2add77	-0.16686045
160	0xbd9d6815	-0.07685868
161	0x3dcd0fa4	0.10012749
162	0x3ab117f0	0.0013511162
163	0xbdbcfe6c	-0.092282146
164	0x3e5391df	0.20661114
165	0x3e0da0a7	0.13830815
166	0xbde25b54	-0.11052576
167	0xbc448e94	-0.011996884
168	0x3df4df65	0.119566716
169	0x3e198e11	0.149956
170	0xbd5eae4b	-0.054365437
171	0xbbceb02a	-0.0063076215
172	0x3d05078c	0.0324779
173	0xbc8a65e1	-0.016894283
174	0xbd672e3b	-0.056440573
175	0x3e1af2c7	0.15131675
176	0xbda02eaa	-0.078214005
177	0x3d4d2cc7	0.05009153
178	0xbe5f4f03	-0.21807484
179	0x3e060b0a	0.13090149
180	0x3de99929	0.11406166
181	0xbc621ecd	-0.013801289
182	0x3cffc435	0.031221488
183	0xbdc160f9	-0.09442324
184	0x3e1d8edf	0.15386532
185	0x3d55f784	0.052238002
186	0x3e8fcac0	0.28084373
187	0xbc496896	-0.012293002
188	0xbdeac530	-0.11463392
189	0x3e366a7a	0.17814055
190	0xbaa23034	-0.0012373985
191	0xbddaa432	-0.10675849
192	0xbe03a187	-0.12854587
193	0x3e40e202	0.18836215
194	0x3da629d4	0.08113447
195	0xbcd7b9af	-0.026333658
196	0xbe0ac368	-0.13551104
197	0xbda8d50d	-0.08243761
198	0xbda477ed	-0.080306865
199	0x3e1465fc	0.14492029
200	0x3e38da18	0.18051946
201	0xbe111688	-0.14168751
202	0xbdaf393d	-0.08555839
203	0x3e150df9	0.14556111
204	0x3de2171c	0.11039564
205	0xbe60cc99	-0.21953048
206	0xbe675ee2	-0.22594789
207	0x3e70b18a	0.23505226
208	0xbd591370	-0.052997053
209	0x3c196550	0.009362534
210	0xbd8e8cd7	-0.06960457
211	0x3cb0abe8	0.021566346
212	0x3dbeee3f	0.093227856
213	0xbb8ef8c8	-0.004363153
214	0x3e00b93c	0.12570661
215	0x3de843b7	0.113410406
216	0x3dc3b143	0.09555294
217	0xbd3fb3fa	-0.0468025
218	0xbb132828	-0.0022454355
219	0xbe06b9ba	-0.13156787
220	0xbd88385f	-0.06651377
221	0x3de2cf38	0.1107468
222	0xbd32f293	-0.043688368
223	0x3d0bdefa	0.034148194
224	0x3d6969ed	0.056985784
225	0x3e5586c0	0.20852184
226	0xbb834480	-0.0040059686
227	0xbd970849	-0.07374627
228	0xbe2b110c	-0.16705722
229	0x3e3e8493	0.1860526
230	0x3d23b4e8	0.039967448
231	0x3d4d1ac6	0.05007436
232	0x3e3b9ca5	0.18321474
233	0xbde79cf8	-0.11309236
234	0xbe1f0fc4	-0.15533358
235	0xbe3dc212	-0.18531063
236	0x3e0998cf	0.13437198
237	0xba35bcaf	-0.0006932718
238	0xbdfbf45f	-0.123024695
239	0xbd9b8d5c	-0.075953215
240	0xbdae4ca2	-0.0851071
241	0xbd146456	-0.0362285
242	0x3e00a80b	0.12564103
243	0xbca57acd	-0.020200158
244	0x3e484627	0.19558011
245	0x3d70dbba	0.058803298
246	0x3e469486	0.19392595
247	0x3d6d3166	0.05790844
248	0x3d902407	0.07038122
249	0xbe2f13d4	-0.17097408
250	0xbd6fec21	-0.0585748
251	0xbcdf264d	-0.027239943
252	0xbda3bf05	-0.079954185
253	0x3d355da0	0.04427874
254	0xbe323ddc	-0.1740641
255	0x3c4e4886	0.012590533

layer_2.weight f4 [300, 400]
0	0xbce688ea	-0.028141458
1	0xbca98bb8	-0.020696506
2	0x3d9a6164	0.07538107
3	0xbdadacfe	-0.08480261
4	0xbd0ec3f3	-0.03485484
5	0x3e1942b4	0.14966851
6	0xbdf2cb4f	-0.11855184
7	0x3d4f0713	0.050543856
8	0x3da7ce1a	0.08193608
9	0xbe273da4	-0.16332108
10	0xbd9803c8	-0.07422596
11	0xbd9da109	-0.07696731
12	0xbd0165aa	-0.031591095
13	0xbdb2f31d	-0.087377764
14	0x3d80aa6b	0.06282505
15	0xbe030d35	-0.12798007
16	0xbe04f8ef	-0.12985586
17	0x3d0aa09f	0.033844586
18	0xbc0984be	-0.008393465
19	0xbdf25993	-0.11833491
20	0x3e12fd89	0.14354528
21	0xbcc27de1	-0.023741664
22	0x3d3baa73	0.04581685
23	0xbda25dc5	-0.07928041
24	0xbe12a7d8	-0.1432184
25	0x3cbe2e8b	0.023215553
26	0x3e128d50	0.14311719
27	0x3d313042	0.043258913
28	0xbc246584	-0.010033969
29	0xbde1196a	-0.109911755
30	0xbb7b4059	-0.0038337915
31	0xbcf23ea8	-0.029570892
32	0x3ce6ad77	0.028158886
33	0xbd72467f	-0.05914926
34	0x3ad79e84	0.001645044
35	0xbd99ccf6	-0.07509796
36	0xbd9c6e01	-0.07638169
37	0xbd883d7c	-0.06652352
38	0x3e8047eb	0.2505487
39	0x3db2034f	0.08692037
40	0xbdcffc08	-0.10155493
41	0x3dc6f8f3	0.09715452
42	0x3d5ab963	0.053399455
43	0x3dc8ac53	0.09798493
44	0x3e012122	0.12610295
45	0x3defe364	0.11713293
46	0xbe09b2b3	-0.13447075
47	0x3da66cb5	0.08126203
48	0xbe5c2754	-0.21499377
49	0xbe178692	-0.14797428
50	0x3cfde4d9	0.030992912
51	0x3d9c40df	0.07629561
52	0xbcae572d	-0.021281803
53	0xbe1fb631	-0.15596844
54	0x3dbe6317	0.09296244
55	0x3e19e789	0.1502973
56	0xbd1455d2	-0.036214657
57	0x3dce9287	0.100865416
58	0x3d4384af	0.04773396
59	0xbdb03902	-0.086046234
60	0x3dd8ddf5	0.1058921
61	0x3d0be191	0.034150664
62	0xbbcd350c	-0.006262427
63	0x3d772ebc	0.060347304
64	0xbe3725e9	-0.17885555
65	0x3d9982ab	0.07495626
66	0xbea10771	-0.3145099
67	0xbd76972a	-0.060202755
68	0x3dc30756	0.095228836
69	0x3d2baeaa	0.04191462
70	0xbe322d8e	-0.1740019
71	0x3db811a7	0.08987742
72	0xbd6668e9	-0.056252394
73	0x3d778384	0.060428157
74	0x3e178059	0.14795054
75	0xbe7c3a5f	-0.24631642
76	0x3db8ab10	0.090170026
77	0x3e1126d2	0.14174965
78	0x3d2bb71e	0.04192268
79	0x3e6baee9	0.23015942
80	0x3e2a6c52	0.16642883
81	0x3d6718de	0.0564202
82	0x3ddf1785	0.10893158
83	0xbd3b0b05	-0.045664806
84	0xbc76c7c4	-0.015062276
85	0x3e171718	0.14754903
86	0x3d56caec	0.052439615
87	0xbd880a36	-0.066425726
88	0xbd45ea49	-0.048319135
89	0xbd96ee02	-0.07369615
90	0xbd1bc292	-0.038027354
91	0xbdaf8801	-0.085708626
92	0x3c0585aa	0.008149544
93	0x3d57ba95	0.052668173
94	0x3d38d930	0.045129
95	0xbb849671	-0.0040462543
96	0xbd0ff2ad	-0.035143543
97	0x3dcb350f	0.099222295
98	0x3cc050e3	0.02347607
99	0x3d4ca2bb	0.04995988
100	0x3d75252c	0.059849903
101	0x3e198390	0.14991593
102	0xbdf91ec2	-0.1216407
103	0xbca3253d	-0.019915218
104	0xbd9c12c6	-0.07620768
105	0x3e32946f	0.17439435
106	0xbdaf2d05	-0.08553509
107	0xbdfe45c3	-0.1241565
108	0x3d50a893	0.050942015
109	0xbdf8d2ed	-0.12149606
110	0x3d730a6b	0.059336107
111	0xbdd234e9	-0.10263998
112	0xbd5a9146	-0.0533612
113	0x3d8ae9c2	0.06782867
114	0x3c778b09	0.015108832
115	0xbe1d1f97	-0.15344082
116	0x3d51c936	0.05121728
117	0xbd80e11c	-0.06292936
118	0xbd5c3cab	-0.053768795
119	0x3de3aff1	0.111175425
120	0xbd4c7801	-0.049919132
121	0x3c5f4482	0.013627173
122	0xbe63fe56	-0.2226499
123	0x3d893c19	0.06700916
124	0x3dc76b6b	0.09737285
125	0xbd5dc195	-0.054139692
126	0xbd9598e3	-0.073045515
127	0x3bb1f256	0.0054305
128	0xbd30b0dd	-0.04313742
129	0xbd534fbf	-0.051589724
130	0xbe37774a	-0.17916599
131	0x3d699e30	0.057035625
132	0xbde244af	-0.110482566
133	0xbd5d8bba	-0.05408833
134	0xbc4f8fd1	-0.012668566
135	0xbe3c22cc	-0.18372649
136	0xbcb340a1	-0.021881403
137	0x3d9e44c6	0.07727961
138	0x3d887464	0.06662825
139	0xbdf0a59d	-0.11750338
140	0x3e092483	0.13392834
141	0xbe63a59d	-0.22231145
142	0xbe01eb1c	-0.12687343
143	0xbccb5e41	-0.024825217
144	0xbc4c56b7	-0.012471846
145	0xbcaed8f6	-0.02134369
146	0x3d2ab895	0.041679937
147	0x3a8eb02f	0.0010886247
148	0x3b94b055	0.004537622
149	0xbd9f35ba	-0.077739194
150	0x3d70088e	0.05860191
151	0xbdc436da	-0.095807746
152	0xbe0345e5	-0.12819631
153	0xbdd91862	-0.10600354
154	0x3cf2c5f0	0.0296354
155	0xbdfeb97c	-0.12437722
156	0x3dc2bc51	0.09508575
157	0x3cb36e5c	0.02190321
158	0x3d33a342	0.043856867
159	0xbcc4216c	-0.023941718
160	0x3dc9111f	0.09817719
161	0xbe16511d	-0.1467938
162	0xbc3be5d1	-0.011468367
163	0xbd35bf42	-0.04437185
164	0xbe12bd8e	-0.14330122
165	0xbc9a86ab	-0.018863043
166	0x3d762fda	0.06010423
167	0xbc05731c	-0.00814512
168	0x3bbaae68	0.0056970604
169	0xbe1b68d3	-0.15176706
170	0x3e4dc6a6	0.2009531
171	0x3d054b89	0.03254274
172	0xbd923e9e	-0.071408495
173	0x3c582385	0.013192062
174	0x3e4cf39c	0.20014805
175	0xbe2cdf39	-0.16882028
176	0x3daa465b	0.083142005
177	0x3d94c8c2	0.07264854
178	0xbc485892	-0.012228148
179	0xbdf6b73f	-0.1204667
180	0xbe48a11f	-0.19592713
181	0xbd2e773e	-0.042594187
182	0x3dea6c85	0.1144648
183	0x3dd26402	0.10272981
184	0xbdc6f69a	-0.09715004
185	0x3d60240d	0.05472188
186	0xbe58291c	-0.21109432
187	0x3cf6bc09	0.030118959
188	0xbe0f8140	-0.14014149
189	0xbc507afc	-0.012724634
190	0x3dc35d12	0.09539236
191	0xbccbd531	-0.024881931
192	0x3db582cb	0.088628374
193	0xbd22185e	-0.03957402
194	0x3d71377b	0.0588908
195	0xbd2a22df	-0.041537162
196	0xbe3c7367	-0.18403398
197	0xbd2ff7c2	-0.04296089
198	0xbcd2e042	-0.0257417
199	0x3ceafb36	0.02868424
200	0xbd5fa2d9	-0.054598663
201	0xbdd25bd3	-0.1027142
202	0x3dc7c349	0.097540446
203	0xbdf7cb21	-0.12099291
204	0xbe1e7d84	-0.15477568
205	0x3dd747a8	0.10511714
206	0xbcd30bd6	-0.02576248
207	0xbd3d9be2	-0.04629124
208	0xbdb2596b	-0.087084614
209	0xbc718472	-0.01474105
210	0x3de222f9	0.11041827
211	0x3e2e7f5c	0.17040771
212	0xbda23e10	-0.07921994
213	0xbe1da74c	-0.1539585
214	0xbeed4004	-0.46337903
215	0x3d81ceda	0.06338282
216	0xbdfae9e7	-0.122516446
217	0xbdde555c	-0.10856125
218	0xbe79c4e7	-0.24391519
219	0x3e1e008d	0.15429898
220	0x3bc2d19a	0.0059453966
221	0x3df70477	0.120613985
222	0xbe002b89	-0.12516607
223	0x3de0a72b	0.10969385
224	0xbe23be48	-0.15990555
225	0x3d9206b3	0.07130184
226	0xbc71a101	-0.014747859
227	0x3c8856ce	0.016642954
228	0x3b6d19c3	0.0036178685
229	0xbe4a7024	-0.19769341
230	0xbd378b70	-0.044810712
231	0xbd7b52a2	-0.0613581
232	0xbd3c1547	-0.04591873
233	0x3d1763e0	0.036960483
234	0xbbb71999	-0.0055877683
235	0xbd99da96	-0.07512395
236	0x3d171f82	0.036895283
237	0xbd8c2b05	-0.06844143
238	0x3d821f1b	0.06353589
239	0x3d6e04c1	0.058110002
240	0x3da9e051	0.08294738
241	0xbdebfe7c	-0.115231484
242	0xbdda39f5	-0.10655586
243	0x3de91cc5	0.113824405
244	0xbe22a367	-0.15882646
245	0x3c8660d4	0.016403593
246	0x3e1db174	0.15399724
247	0x3d300180	0.04297018
248	0x3ced72a8	0.028985336
249	0xbd888865	-0.0666664
250	0xbd8d3b53	-0.06896081
251	0xbd2418c2	-0.040062673
252	0xbe6491aa	-0.22321191
253	0xbe4ccd39	-0.20000161
254	0xbe199907	-0.14999782
255	0x3e0e61a6	0.13904437

layer_2.bias f4 [300]
0	0xbcae3131	-0.02126369
1	0xbd8559f6	-0.06511299
2	0x3d00f8d5	0.031487305
3	0xbcbb11de	-0.022835668
4	0x3ca96ec5	0.020682702
5	0xbc9ee73c	-0.01939737
6	0x3c227ba8	0.009917177
7	0xbb0b5136	-0.0021258122
8	0xbd15ca99	-0.036570165
9	0xbd29845b	-0.04138599
10	0x3be5c625	0.007012146
11	0xbc82778b	-0.015926143
12	0x3ce2955a	0.027659107
13	0x3b9dc8ba	0.0048151882
14	0x3b108f9a	0.002205825
15	0xbd063c14	-0.03277214
16	0x3d4739f1	0.04863924
17	0x3968a40e	0.0002218636
18	0xbcd3ade5	-0.025839755
19	0xbbd52476	-0.0065045906
20	0xbbe06daa	-0.0068490105
21	0xbacc8b3f	-0.0015605463
22	0x3d1885c7	0.037236955
23	0xbadc23a8	-0.0016795294
24	0xbd7f7797	-0.06236991
25	0x3d0f7797	0.03502616
26	0xbd5d11fe	-0.053972237
27	0xbcc21248	-0.023690358
28	0x3d16b816	0.03679665
29	0x3d3fc3ff	0.046817776
30	0xbd180e09	-0.03712276
31	0x3bc23d6b	0.0059277317
32	0xbd0876e3	-0.033316504
33	0x3cfcb91c	0.030849986
34	0xbc8d40a9	-0.017242746
35	0xbd8894c7	-0.06669002
36	0x3d29ef5d	0.04148804
37	0x3b8ce729	0.0043000174
38	0x3b8b5263	0.0042517646
39	0x3d289221	0.041154984
40	0xbc19159e	-0.009343533
41	0xbd1b357f	-0.037892815
42	0x3d7ad71b	0.061240297
43	0x3d25024f	0.040285405
44	0x3cffa073	0.031204438
45	0xbb0ab8b4	-0.002116722
46	0xbd339771	-0.043845598
47	0x3d664213	0.056215357
48	0xbce4f17a	-0.027947176
49	0xbd55f9d0	-0.052240193
50	0x3c90aa63	0.017659372
51	0x3d077e7c	0.03307961
52	0xbcf4e661	-0.02989501
53	0xbc007ae8	-0.007841803
54	0x3c55a71a	0.013040328
55	0x3d10d331	0.035357658
56	0x3d0ca53a	0.03433726
57	0xbc434ebc	-0.011920627
58	0x3ca23a03	0.019803053
59	0x3c9dbce4	0.01925511
60	0x3c99e3e2	0.01878542
61	0x3b3d6518	0.0028899368
62	0xbca3bb41	-0.01998675
63	0xbd5284d1	-0.051396195
64	0xbd1c3911	-0.03814036
65	0x3c1e2060	0.0096512735
66	0xbd77f9d6	-0.060540996
67	0x3cb2b261	0.021813573
68	0x3c3538f5	0.011060943
69	0x3c9c7182	0.019097093
70	0xbd2cc984	-0.042184368
71	0xbca45b49	-0.02006306
72	0xbc7c72fd	-0.015408275
73	0xbcc2350e	-0.02370694
74	0x3cbdb3c8	0.023157015
75	0xbd66d07f	-0.05635118
76	0xbd9cc5c5	-0.07654909
77	0xbd6bac00	-0.05753708
78	0xbd4709b6	-0.048593245
79	0x3ce20b26	0.027593207
80	0xbcd993ea	-0.026559789
81	0x3b5afd94	0.0033415304
82	0xbc68fb75	-0.014220108
83	0x3d4a11fd	0.04933356
84	0xbcfe179b	-0.031017115
85	0x3d1a30ac	0.037644073
86	0x3cdb2e21	0.026755394
87	0x3d07fe32	0.033201404
88	0x3b411946	0.0029464527
89	0x3d0e01df	0.034669753
90	0x3ceac255	0.028657118
91	0x3d345b18	0.044032186
92	0xbd7858b3	-0.060631465
93	0xbd870fa6	-0.065947816
94	0xbca7bbee	-0.020475354
95	0xbd7b28ce	-0.06131821
96	0xbd078cc6	-0.033093236
97	0xbd94c927	-0.07264929
98	0x3d569718	0.052390188
99	0xbca5907a	-0.020210493
100	0xbd2a0c25	-0.04151549
101	0xbd98bca1	-0.07457853
102	0xbd039239	-0.03212187
103	0x3b6f3fd7	0.0036506557
104	0xbcb41f5c	-0.02198761
105	0x3b921764	0.004458355
106	0x3cc1bb80	0.023648977
107	0x3c6fc4fa	0.014634365
108	0xbda6c12d	-0.08142314
109	0x3cac5d71	0.02104065
110	0x3c1329aa	0.008982101
111	0x3c92ebf1	0.017934771
112	0xbb656126	-0.0035000532
113	0x3d48126f	0.048845705
114	0xbd141594	-0.03615339
115	0xbd4d4ec5	-0.05012395
116	0x3d5406ee	0.05176442
117	0xbb8e4df9	-0.004342791
118	0xbce4db7a	-0.027936686
119	0xbd38e7fe	-0.04514312
120	0xba19473a	-0.00058471004
121	0x3c4e8d5d	0.012606946
122	0xbcd7da0c	-0.02634909
123	0xbbc57bdf	-0.0060267295
124	0xbd2e2649	-0.04251698
125	0x3bdd8765	0.006760525
126	0x3d3de7e1	0.046363715
127	0x3c2c77d1	0.010526613
128	0xbce4df13	-0.027938401
129	0x3cfca6aa	0.03084119
130	0xbcff704d	-0.031181479
131	0xba8cffb4	-0.0010757358
132	0xbcf5a5c1	-0.029986264
133	0xbcb715bf	-0.022349237
134	0x3c9c439c	0.019075207
135	0x3d4c7d6a	0.04992429
136	0xbcd958c0	-0.026531577
137	0xbc54739f	-0.012967019
138	0x3c31630a	0.010826835
139	0xbcf19598	-0.029490277
140	0x3c7de2c4	0.01549596
141	0xbd21684d	-0.03940611
142	0x3d04bdc2	0.03240753
143	0x3997952e	0.00028912112
144	0x3c887e90	0.016661912
145	0x3d2db187	0.04240563
146	0xbcaf3d35	-0.02139149
147	0x3d47180c	0.048606917
148	0x3cb97b59	0.022641825
149	0x3cda6963	0.02666158
150	0x3d0e93d4	0.03480895
151	0x3c23ab29	0.009989538
152	0xbc667958	-0.014067017
153	0x3bb0d303	0.0053962483
154	0x3c933ffa	0.017974842
155	0xbd409369	-0.04701558
156	0xbbd2ce0d	-0.0064332546
157	0x3d03081e	0.031990163
158	0xbc74b848	-0.014936514
159	0x3c17a72a	0.009256164
160	0xbca40f65	-0.020026872
161	0xbd177683	-0.036978256
162	0x3c12b778	0.008954875
163	0xbd846dd5	-0.06466261
164	0x3d475372	0.048663564
165	0x3c9afaeb	0.018918475
166	0xbd5a18cb	-0.0532463
167	0x3cb34a15	0.021885911
168	0xbce31083	-0.027717834
169	0xbbdaa19f	-0.0066720988
170	0xbb625777	-0.0034536996
171	0x3bb8e28c	0.005642241
172	0xbd267a98	-0.04064426
173	0xbd10396c	-0.03521101
174	0xbd03a174	-0.032136396
175	0xbd1154f7	-0.03548142
176	0xbceeddaf	-0.029158441
177	0x3d40861a	0.04700289
178	0x3c897937	0.016781433
179	0xbc994444	-0.01870931
180	0x3c2934d9	0.010327541
181	0x3d5a21f5	0.05325504
182	0xbd356a33	-0.044290733
183	0xbc95eb5b	-0.018300703
184	0xb8ebd09f	-0.00011244532
185	0xbb840127	-0.0040284577
186	0xbb94cbcf	-0.0045408974
187	0x3a3663d1	0.0006957623
188	0x3d4bab4a	0.0497239
189	0xbd2cc844	-0.042183176
190	0x3b1c414b	0.0023842629
191	0xbd8be724	-0.06831196
192	0xbbed8172	-0.007248097
193	0xbd40c4a1	-0.04706252
194	0xbd85a847	-0.06526237
195	0x3d0daa1b	0.034586053
196	0xbce13398	-0.027490422
197	0xbcf9c9bf	-0.030491708
198	0x3d17d787	0.037070777
199	0xbd88a903	-0.066728614
200	0x3cb49d62	0.022047702
201	0xbcda42b8	-0.026643142
202	0xbd7ad28b	-0.061235946
203	0xbced5d69	-0.028975205
204	0x3c1f66fb	0.009729142
205	0xbd9574d8	-0.07297677
206	0xbcdf846b	-0.027284821
207	0x3ceea3d5	0.029130856
208	0xbc2be9f8	-0.010492794
209	0xbc5dc49f	-0.013535648
210	0x3d07312a	0.03300587
211	0xbd67e8c9	-0.056618486
212	0xbd5ff417	-0.05467614
213	0x3c417ab4	0.01180904
214	0x3c6efdd2	0.014586883
215	0xbcf7dbbc	-0.030256145
216	0xbcfcd244	-0.030861981
217	0x3d29cd3b	0.04145549
218	0x3cb81bda	0.022474218
219	0x3c95b930	0.01827678
220	0xbd458547	-0.048222806
221	0xbd955061	-0.07290722
222	0x3c324b70	0.0108822435
223	0xbbee8c51	-0.0072799106
224	0xbd14b097	-0.03630122
225	0xbd09442b	-0.033512276
226	0x3d08c64a	0.03339223
227	0xbd265d48	-0.040616304
228	0xbd9ac5da	-0.075572684
229	0x3d35a5c3	0.044347536
230	0xbc0d7edb	-0.008636202
231	0x3d0a2432	0.033725925
232	0x3c86d135	0.01645718
233	0x3b6cbfd4	0.003612508
234	0xbc8a9734	-0.016917802
235	0x3d284869	0.04108468
236	0x3cee1faf	0.029067842
237	0xbc15d6ac	-0.00914542
238	0x3bd9a262	0.006641672
239	0x3d3fc41e	0.04681789
240	0x3cb834de	0.022486147
241	0x3d28c165	0.04120006
242	0x3ac8711d	0.00152925
243	0x3c04fd4d	0.008117032
244	0xbc569a9d	-0.013098386
245	0xbcc273ad	-0.0237368
246	0xbd7ac589	-0.06122354
247	0xbb902e64	-0.0044000614
248	0x3a2ab94e	0.0006512598
249	0xbca93cf6	-0.020658951
250	0x3c28360d	0.010266793
251	0x3c234d20	0.0099671185
252	0xbc5c4ab2	-0.013445543
253	0x3d64f566	0.055898093
254	0x3c2c7f67	0.010528422
255	0xbd438573	-0.04773469

layer_3.weight f4 [2, 300]
0	0x3e398a0c	0.18119067
1	0xbea940f3	-0.33057365
2	0xbe05fcb5	-0.13084681
3	0xbdc56ac2	-0.09639503
4	0x3c68c1e2	0.0142063815
5	0xbdd506e5	-0.10401706
6	0x3d895da7	0.06707316
7	0x3d5ed842	0.05440546
8	0x3cf2a1b7	0.029618127
9	0xbf078bad	-0.52947503
10	0x3cb1d455	0.021707693
11	0xbdc7af58	-0.09750241
12	0x3aa41898	0.0012519537
13	0x3ea5c7e2	0.3237906
14	0x3e44f16c	0.1923272
15	0x3e37225e	0.17884204
16	0x3de79a56	0.11308734
17	0xbdcbe221	-0.0995524
18	0xbd99abc6	-0.07503466
19	0x3e7d903e	0.24762055
20	0x3bad4192	0.0052873576
21	0xbdb28999	-0.08717651
22	0x3e242dad	0.16033049
23	0xbe9b6b32	-0.3035522
24	0x3e2df808	0.16989148
25	0x3dcf4b71	0.10121811
26	0x3e3e7aec	0.18601578
27	0x3ecb6541	0.39725688
28	0x3e9bef63	0.30456075
29	0xbe208a74	-0.15677816
30	0x3dfbfa88	0.123036444
31	0x3e653491	0.22383334
32	0xbe44fcd2	-0.19237068
33	0x3e4fdce8	0.20299113
34	0xbd94e088	-0.072693884
35	0xbe0dfe66	-0.13866577
36	0x3e60497d	0.21903034
37	0x3d2fad38	0.042889804
38	0x3d11d599	0.035604093
39	0xbe878697	-0.2646987
40	0x3e1b5e23	0.15172629
41	0xbdae46c4	-0.08509591
42	0xbe1fa1b2	-0.15589026
43	0x3d695478	0.05696532
44	0xbe6fbb62	-0.23411325
45	0x3db7c40a	0.08972938
46	0x3e3469de	0.1761851
47	0xbbe98a97	-0.007127117
48	0xbd5944b6	-0.053044043
49	0x3df054e3	0.11734941
50	0x3da706f9	0.08155627
51	0xbe2f64ff	-0.1712837
52	0x3c0e330f	0.0086791655
53	0xbe32d20a	-0.17462936
54	0x3e7edf7a	0.24889937
55	0x3d95b47b	0.073098145
56	0x3e4423c3	0.19154267
57	0xbd46969f	-0.048483487
58	0x3dc7bf59	0.097532935
59	0xbe87a6e0	-0.26494503
60	0xbc8e285d	-0.017353231
61	0xbe9e447b	-0.3091162
62	0x3dcc03ee	0.09961687
63	0xbf228df5	-0.6349786
64	0x3e117559	0.14204921
65	0x3d513ad3	0.05108149
66	0x3d319ab7	0.04336044
67	0x3e34167d	0.17586704
68	0xbdf3d1c3	-0.11905243
69	0xbdcc7346	-0.09982924
70	0x3c164930	0.009172723
71	0xbe7305e8	-0.23732722
72	0x3d86c554	0.06580606
73	0x3c61b67d	0.013776419
74	0x3dfbef18	0.12301463
75	0xbdadbcee	-0.08483301
76	0xbeb79bf2	-0.35861164
77	0x3f0a4263	0.5400755
78	0xbeadbd78	-0.33933616
79	0xbdcf0780	-0.101088524
80	0xbd51e784	-0.05124618
81	0x3e0155d9	0.12630405
82	0xbc12fe58	-0.008971773
83	0xbe8d81fc	-0.27638233
84	0xbdcaa2dd	-0.09894345
85	0xbe0f529c	-0.13996357
86	0xbe4d49f0	-0.20047736
87	0xbcc8d8ba	-0.024517406
88	0xbdaa2178	-0.08307165
89	0xbcd812b5	-0.026376108
90	0xbe1d7f1f	-0.15380524
91	0x3e57a792	0.21060017
92	0x3dc0d88c	0.09416303
93	0x3d082760	0.033240676
94	0xbdf85c62	-0.121269956
95	0xbef36270	-0.4753604
96	0x3df6d5a2	0.12052466
97	0xbda1fd2c	-0.07909617
98	0x3ea2a1cb	0.31764063
99	0xbc43baaa	-0.01194636
100	0x3e04a59e	0.12953803
101	0x3d47822e	0.048708133
102	0xbed629fb	-0.41828904
103	0x3e0ccf4e	0.13750955
104	0xbe8f295a	-0.27961236
105	0xbd8f357c	-0.06992623
106	0x3e9a6f52	0.30163056
107	0xbe29d23b	-0.16584103
108	0xbebd320c	-0.36952245
109	0x3cfdb9d1	0.030972393
110	0x3e3ddcf7	0.18541323
111	0xbe409db9	-0.18810166
112	0x3e54b4e3	0.20772128
113	0xbc7c08d8	-0.015382968
114	0xbde69f00	-0.112607956
115	0x3d498849	0.049202237
116	0xbe931196	-0.28724355
117	0xbd4dd72a	-0.050254025
118	0xbef85ab9	-0.48506716
119	0xbd21f181	-0.039536957
120	0x3d555be8	0.0520896
121	0x3cb171ed	0.02166077
122	0x3d8f0751	0.06983817
123	0xbf089486	-0.5335163
124	0xbc8557f4	-0.01627729
125	0xbe899bb4	-0.26876605
126	0x3ead5f5f	0.33861825
127	0xbf44127b	-0.765907
128	0x3eeb851c	0.45999992
129	0x3e1411ba	0.14459887
130	0x3de1303c	0.10995528
131	0xbe178fac	-0.148009
132	0x3eb6138b	0.35561785
133	0x3e400932	0.18753508
134	0x3e2a083e	0.16604707
135	0x3d72b46d	0.0592541
136	0x3c54b471	0.012982474
137	0x3d9c75a0	0.07639623
138	0x3dd9dc25	0.10637692
139	0xbe7119d7	-0.23545013
140	0xbe0ebcdc	-0.13939232
141	0x3e447fd4	0.19189388
142	0x3d66279f	0.05619013
143	0xbdd257e9	-0.10270674
144	0x3e42e6b9	0.19033326
145	0xbe059770	-0.1304605
146	0x3de3bc82	0.111199394
147	0xbcbd46b8	-0.02310501
148	0xbe6bc903	-0.23025899
149	0xbd9e5fcd	-0.07733116
150	0xbe3a384f	-0.18185543
151	0x3e80737f	0.25088117
152	0xbde780b3	-0.11303844
153	0xbcf6560e	-0.030070331
154	0x3e3282f4	0.17432767
155	0x3e1c9b1e	0.15293548
156	0xba0bcce5	-0.0005332961
157	0xbda1889e	-0.07887386
158	0x3e31dace	0.17368624
159	0x3d84077c	0.0644674
160	0x3dc4cc69	0.09609301
161	0x3ea00131	0.3125091
162	0x3ce1784c	0.027523182
163	0x3dba7c23	0.091057085
164	0xbe78c15b	-0.2429251
165	0xbca87b38	-0.020566568
166	0xbc5556cc	-0.013021182
167	0x3e0d188e	0.13778898
168	0x3c921457	0.017831964
169	0x3e2a7234	0.16645128
170	0xbe1c807b	-0.15283386
171	0xbe6fbb35	-0.23411258
172	0x3e0bdd84	0.1365872
173	0xbea5e23f	-0.32399175
174	0xbea84861	-0.3286772
175	0x3d2be15a	0.04196296
176	0x3dca7584	0.098856956
177	0x3de6cb1d	0.112692095
178	0xbe0afc6d	-0.13572855
179	0x3e4ed8a4	0.2019983
180	0x3e395f73	0.18102817
181	0xbe8de001	-0.27709964
182	0xbe408252	-0.18799713
183	0xbe2d65f1	-0.16933419
184	0x3d5646e2	0.052313693
185	0xbd2c2088	-0.04202321
186	0x3b7e0cdb	0.0038764987
187	0xbea3bb80	-0.3197899
188	0x3e594b3c	0.21220106
189	0xbeae0c77	-0.33993885
190	0xbe7f6e66	-0.24944457
191	0xbe678fc0	-0.2261343
192	0x3e18ed64	0.14934307
193	0x3e407d55	0.1879781
194	0xbdfff9b5	-0.124988
195	0xbe899885	-0.26874176
196	0xbd799b9e	-0.060939424
197	0xbd25dca1	-0.04049361
198	0xbdc5f0c8	-0.09665066
199	0xbe979856	-0.2960841
200	0x3dba58fb	0.09099003
201	0x3e0a741b	0.13520853
202	0xbf3230f8	-0.6960597
203	0x3d4ac32f	0.049502548
204	0x3dc0e1b9	0.09418053
205	0xbe1e8600	-0.15480804
206	0xbda24152	-0.07922615
207	0x3e3883bf	0.18019007
208	0xbe73428a	-0.23755851
209	0xbe04125e	-0.12897632
210	0x3e3cb109	0.18426909
211	0x3e955ba6	0.29171485
212	0x3dfff98a	0.12498768
213	0x3def1405	0.1167374
214	0xbda79005	-0.081817664
215	0x3dee533c	0.116369694
216	0x3e3d86a9	0.185084
217	0xbc194ee0	-0.009357184
218	0xbdfd9d4a	-0.12383516
219	0xbd31d7d5	-0.043418724
220	0x3d94ec5e	0.07271646
221	0x3d82a75e	0.06379579
222	0xbe4c229a	-0.19935074
223	0xbe4406b5	-0.19143184
224	0xbe566efa	-0.20940772
225	0xbcd5b1ca	-0.026085753
226	0x3d7c272a	0.061560787
227	0xbd174b4e	-0.03693705
228	0xbf32cfb7	-0.698482
229	0x3deb0076	0.11474697
230	0x3d87cdb2	0.0663103
231	0xbd9ee8c4	-0.0775924
232	0x3d6fceea	0.058546938
233	0xbccb6995	-0.024830619
234	0xbdda3f6d	-0.10656629
235	0x3e164370	0.14674163
236	0x3e30749b	0.17231981
237	0x3e837db9	0.25681856
238	0x3e83b362	0.25722796
239	0x3cc99b3d	0.024610156
240	0xbe5cdf02	-0.21569446
241	0x3d0dcdfd	0.034620274
242	0x3c06933a	0.0082138125
243	0x3e8057d1	0.25067
244	0xbe6953d1	-0.2278588
245	0x3d8e6aa5	0.069539346
246	0x3eab3138	0.33435988
247	0xbf02c012	-0.51074326
248	0x3e776ee8	0.24163401
249	0x3e50b8ce	0.20382997
250	0xbd80f6cf	-0.06297075
251	0xbd0801b2	-0.03320474
252	0x3d61abf2	0.05509562
253	0xbe2df0be	-0.16986367
254	0x3dc8c87d	0.09803865
255	0x3cf12e08	0.029440895

layer_3.bias f4 [2]
0	0x3cedee89	0.029044406
1	0x3c32c570	0.010911331
