robot_nav/robot_nav/models/CNNTD3/checkpoint/CNNTD3_actor_target.pth (torch, 550651 bytes, 16 tensors)

cnn1.weight f4 [4, 1, 8]
000000 31 83 c5 bc ef 47 b0 bd 35 ce 3d 3e d8 7f a1 be
       -0.024110408 -0.0860747 0.18535693 -0.3154285
000010 09 95 18 be 83 8b 8d be 7d 5e 13 3e 0b b8 46 be
       -0.14900602 -0.27645501 0.14391513 -0.19406144
000020 21 f3 af be f0 42 b1 be b4 7f d2 3d a8 36 cb ba
       -0.3436518 -0.34621382 0.10278264 -0.001550396
000030 a1 c7 99 3e a4 83 53 be b1 0c a4 be 72 ac a8 3e
       0.30035117 -0.20655686 -0.32040933 0.32944065
000040 16 40 3f be eb 86 8e be 83 ec be be 0a 76 02 be
       -0.1867679 -0.2783731 -0.3728982 -0.12740341
000050 f7 11 67 3d 08 c6 13 3e 5e d8 89 be 15 75 16 3d
       0.056413617 0.14431012 -0.26922888 0.036732752
000060 8b 45 c3 3e 6b 53 bf 3e 20 c0 13 3e fb ba 7f 3d
       0.38138995 0.3736833 0.14428759 0.062434178
000070 6f d6 c3 3e ac bf 86 3e 31 c2 56 3e 5b 05 88 3c
       0.38249537 0.2631811 0.20972516 0.016604116

cnn1.bias f4 [4]
000000 4c 24 ba 3e ac 7b af be 33 8f a7 3e 6d 33 3c bd
       0.36355817 -0.34274042 0.3272644 -0.04594748

cnn2.weight f4 [8, 4, 8]
000000 c2 d5 85 3e 1f d6 53 3e 49 b1 37 3e 5f d5 40 3d
       0.26139647 0.2068715 0.17938723 0.047078487
000010 9d 0b b7 3d 3f c7 29 3d 17 66 85 3d 16 d8 6d 3e
       0.08937762 0.04144978 0.06513613 0.23226961
000020 80 a9 0b be 6e 70 b8 bb 36 e4 84 be 61 6b 0b be
       -0.13638878 -0.005628637 -0.2595536 -0.1361518
000030 cf 36 f4 bb f0 34 7a be e4 a8 d8 bd ac 5e 06 be
       -0.0074528228 -0.24434257 -0.10579088 -0.13122052
000040 a7 38 af 3e b0 09 74 3e c5 30 c1 3e ad 96 a0 3e
       0.3422291 0.2383182 0.3773252 0.31364956
000050 48 66 96 3e cd 94 88 3e 88 aa a8 3e 78 49 20 3f
       0.2937491 0.26676026 0.32942605 0.62612104
000060 66 85 63 bd 16 e2 81 3d e0 c1 9c 3b ca 7a ba 3d
       -0.05554714 0.063419506 0.004783854 0.091054514
000070 d2 23 f7 bb 33 82 21 3e c3 ab e6 bd a3 d4 75 bd
       -0.007542112 0.15772323 -0.1126323 -0.06001724
000080 1c 16 21 3b 71 44 3c 3d e3 17 d6 3d c0 18 d7 3d
       0.0024579829 0.04596371 0.10453775 0.105027676
000090 7a 42 7c bd 43 68 52 3d 51 70 0b 3e 8a ac 69 3e
       -0.061586834 0.051368963 0.13617064 0.22819725
0000a0 12 30 ae 3c 7c e2 10 be 92 9a 0b be ff 3f 29 be
       0.021263156 -0.14148897 -0.13633183 -0.16528319
0000b0 8c ff c8 3b 6e c3 1a 3c 90 0b 6f bc e1 2d 17 be
       0.006133979 0.009446008 -0.014590159 -0.14763595
0000c0 5b 0e a0 3e 85 ce 91 3e c3 9e a7 3d 39 9c 9f 3e
       0.31260952 0.28477874 0.08184578 0.31173876
0000d0 b2 f7 a0 3e 4e 10 5e 3e 7c fa 36 3e 6a b9 79 3e
       0.31438977 0.21685907 0.1786899 0.24387136
0000e0 e1 64 79 be 38 b9 37 be b0 0e 60 bd 30 42 f4 bb
       -0.24354888 -0.17941749 -0.054701507 -0.007454179
0000f0 73 3e ae 3c e1 0b bc bd d8 11 4a 3e 74 40 75 bb
       0.021270012 -0.09181953 0.1973337 -0.003742245
000100 9d b1 87 be 15 24 63 be e0 7b 0a be cb 4b f4 bb
       -0.26502696 -0.22181733 -0.13523817 -0.0074553243
000110 d3 d8 55 be 6b 1f 4b 3c d6 b1 26 be 75 48 20 be
       -0.20883493 0.012397627 -0.16278777 -0.1565264
000120 56 dc 3a be dc 34 62 3e 28 45 82 3d c2 fd 69 3e
       -0.18248114 0.22090477 0.06360847 0.22850707
000130 5f 00 1a 3e ae 46 7e bc 15 2c 7a 3b f6 67 c6 3d
       0.15039204 -0.015519781 0.0038173248 0.09687798
000140 bc 0f e5 be 4a e3 e5 be d2 fe c1 be af 36 03 bf
       -0.44738567 -0.4489997 -0.37889725 -0.51255316
000150 9e 80 13 bf f4 20 e2 be 3e 22 c2 be fd 2a ea be
       -0.5761813 -0.44165766 -0.3791675 -0.45735922
000160 d8 36 1f 3e 3e ec 44 3e fc 9e 88 3d 0a d3 e4 3d
       0.15548265 0.19230744 0.06670949 0.11173065
000170 7e c4 b5 3b c8 dc c0 bc 3a df 78 bb ec 9c 9e bc
       0.0055471053 -0.023542777 -0.003797485 -0.019361936
000180 09 ce 92 3d 3a 62 2e be c2 f3 16 3e 6e dc ab 3d
       0.07168204 -0.17029658 0.14741424 0.08391653
000190 35 92 2e be 50 21 32 be 4d ca 97 3c 96 63 02 be
       -0.17047961 -0.1739552 0.018529082 -0.12733302
0001a0 f2 8c 4f bb 48 74 e1 3b 47 a8 8c bd 5c 56 45 bc
       -0.0031669703 0.006880317 -0.06868034 -0.012044515
0001b0 99 cc f8 3d cc 18 af bd b9 12 20 3e 9e 93 e9 bc
       0.12148399 -0.085496515 0.15632142 -0.028512772
0001c0 7e 58 f3 39 b1 1f 3d 3c d4 ee 7f 3d f4 51 35 bd
       0.00046414504 0.0115432 0.062483624 -0.04426761
0001d0 b0 e0 90 be 4a 77 8d be 65 5c e6 be 93 a2 1f bf
       -0.28296423 -0.27630073 -0.44992366 -0.62357444
0001e0 b0 6e be bd 21 86 aa ba 5c 33 6c be 99 97 00 3b
       -0.09298456 -0.0013009944 -0.23066467 0.001962161
0001f0 9f 9c ee 3d 4b b4 89 3d 45 35 ae bd 32 4d 47 be
       0.11650967 0.06723841 -0.08506254 -0.19463041
000200 b2 ec e6 bc 69 b1 bd bd 45 7b b7 bd 72 48 b0 bd
       -0.028189037 -0.09262354 -0.08959059 -0.08607568
000210 43 a6 20 be 22 e1 6e be eb d6 88 be 42 51 56 be
       -0.15688424 -0.23328069 -0.2672647 -0.20929435
000220 69 a8 af 3d a9 78 90 bd fe 06 39 3e 8a 94 e4 3d
       0.085770436 -0.07054264 0.18069074 0.11161144
000230 67 40 b1 bd fd 95 b0 bd d8 ac ac bd d5 57 02 bd
       -0.08654862 -0.08622358 -0.08431405 -0.031822044
000240 23 06 63 be 17 b7 1a be 67 52 b3 be ca 6a a6 be
       -0.2217031 -0.15108906 -0.35023805 -0.3250335
000250 58 67 0a be 09 c8 18 be a6 d4 87 be e9 1b fa be
       -0.13515985 -0.14920057 -0.26529425 -0.4884942
000260 5a 50 d1 bd 62 47 6d be f0 60 d2 bd 5e f7 1b be
       -0.10220404 -0.23171762 -0.102723956 -0.15231082
000270 ff 2a 0b be cd 38 29 bb 07 ed 18 3e b8 c7 55 bd
       -0.1359062 -0.002582121 0.14934169 -0.05219242
000280 c2 15 4f 3e 5d e7 e0 3d 9d d1 1c bd 50 dc f8 3d
       0.20223144 0.10981629 -0.03828584 0.12151396
000290 c2 0b b9 bd d1 f8 3a bd 0f ce 22 be de ce 5b be
       -0.09035446 -0.045647446 -0.15898918 -0.21465632
0002a0 65 e3 10 bd fc 32 7b 3d b7 9c 80 bd e7 aa 3b be
       -0.03537311 0.06132792 -0.06279891 -0.18326913
0002b0 77 d8 79 3d ba 95 c2 3d 80 28 5c be 1a e1 81 3c
       0.060997453 0.09501214 -0.21499825 0.015854407
0002c0 6d 06 1c 3e 3a e5 40 3e df 02 62 bc 80 f8 13 3e
       0.15236826 0.18837443 -0.01379463 0.14450264
0002d0 c8 1b 2d bd b3 87 34 be 04 b2 ff be 17 fb ec be
       -0.042262822 -0.1762989 -0.49940503 -0.46285316
0002e0 34 c6 05 3e 69 06 d2 3d 36 fa bb 3d 95 47 7f 3d
       0.1306389 0.10255129 0.09178583 0.062324125
0002f0 a1 38 27 3e d9 3b 64 3e 5b 4f d1 3d 02 af 91 3e
       0.16330196 0.22288455 0.10220214 0.28453833
000300 c2 58 3b be c0 aa 27 be ac 3d 0c be d3 fc 3b 3d
       -0.18295577 -0.1637373 -0.13695401 0.04589541
000310 75 10 14 3e aa b9 cc 3d 69 34 20 3d 5d aa b3 bc
       0.14459403 0.0999635 0.039112482 -0.021931821
000320 57 5a a2 3c 21 d5 83 bd a0 fc 2a 3e c3 20 90 3d
       0.019818468 -0.064371355 0.16697931 0.07037499
000330 bb 25 19 bd 78 60 be 3a 5d 03 c1 3d 1e dc 20 bd
       -0.0373895 0.00145246 0.094244696 -0.03927242
000340 b3 c5 63 3e 09 38 9f 3e 7d c6 36 3e f7 86 00 3e
       0.22243385 0.3109744 0.17849155 0.12551485
000350 a9 84 90 3c 12 97 f1 3d 11 a5 5d 3e 37 aa 63 3e
       0.017641382 0.117963925 0.21644999 0.222329
000360 39 b5 59 be bc 39 0e be 3e 75 9e be 00 35 57 be
       -0.21260537 -0.13889211 -0.30948824 -0.21016312
000370 72 b6 ab be 27 3b ca bd 1f eb e9 bd ac 9b 94 bd
       -0.33537632 -0.09874564 -0.11421799 -0.072562546
000380 36 a0 f1 3c cc 5d 0a be 4a a6 01 be e6 43 33 3e
       0.02949534 -0.13512343 -0.1266109 0.1750637
000390 4d 5f 9d 3c 58 78 06 3e 33 5b 82 ba 8f 38 ae 3e
       0.019210482 0.13131845 -0.0009945392 0.34027526
0003a0 06 2d 13 3e d3 df b4 3d 09 fc 06 bd 85 a9 6d be
       0.14372644 0.088317536 -0.032955203 -0.23209198
0003b0 40 67 46 be 8c ba c8 bd 2d 60 8a bd e7 92 9c 3d
       -0.19375324 -0.09801206 -0.06756625 0.07645207
0003c0 51 2b 68 3e 70 4b 0a 3e 13 73 80 3e 50 4f b4 3d
       0.22672774 0.1350534 0.25087795 0.0880419
0003d0 44 2f 06 3e de 26 90 3e 5f 1f da 3d b3 e7 92 3e
       0.13103968 0.28154653 0.10650515 0.28692397
0003e0 a3 bd b3 bd b8 fe 1c 3d b4 5e c3 3c eb 4e ca bc
       -0.08776405 0.038328856 0.023848869 -0.024695834
0003f0 ac a9 c3 b9 29 49 90 3c 0c b4 b8 3c 37 6f 0b 3d
       -0.00037319714 0.01761301 0.02254679 0.03404161

cnn2.bias f4 [8]
000000 f2 5a 07 3e ae 00 38 3e 3f ef 52 bd 15 07 72 be
       0.13218287 0.1796901 -0.051497694 -0.23635514
000010 11 f7 87 be 7d f7 63 3d e2 7a 78 bc 19 af 40 3e
       -0.26555684 0.055655945 -0.015166016 0.18816794

cnn3.weight f4 [4, 8, 4]
000000 41 05 5f bd 6e af 58 be c1 f5 82 3d fd 20 41 3e
       -0.05444837 -0.21160671 0.0639453 0.1886024
000010 41 2e 8d be 82 a8 26 3d 22 59 79 be 75 d9 89 bd
       -0.2757435 0.040688045 -0.24350408 -0.0673093
000020 33 52 9d be 9f 2a d6 be 9f e5 dd be b8 3a 97 be
       -0.30726776 -0.41829392 -0.4333925 -0.29536986
000030 73 d2 47 3e 73 5f a3 3e b6 57 6e 3e 16 03 1c bd
       0.19513874 0.3190876 0.23275647 -0.03808888
000040 63 30 18 3e ec f8 4b 3e cd 64 0a 3e f3 27 3e be
       0.14862208 0.19919175 0.13515015 -0.18569927
000050 7f 9d 26 bf 3a f9 de be a3 e2 e4 be c9 10 5c bf
       -0.6508407 -0.4354952 -0.4470416 -0.8596311
000060 c6 61 27 be 1c 9b 5c 3d e9 15 22 3c cc 5c bc 3d
       -0.16345891 0.05385886 0.009892919 0.09197387
000070 f5 58 b1 bd 1b 0e b2 be 01 2a ed be 83 12 51 bd
       -0.08659545 -0.34776387 -0.4632111 -0.051043045
000080 61 a6 64 3e ff 39 0e 3d c4 7d 85 3e 37 30 8b 3e
       0.22329094 0.034723278 0.26072514 0.27185223
000090 06 ce 79 bb ac c6 37 3e f4 c2 10 3e 9d 9e cc 3d
       -0.0038117184 0.17946881 0.14136869 0.099911906
0000a0 27 65 82 3d 4b c0 8a bc d3 85 a2 bd 83 fd 72 be
       0.063669495 -0.016937396 -0.07935681 -0.2372952
0000b0 92 12 09 be 73 1f 69 be 85 43 c0 bc eb d3 b3 be
       -0.1338599 -0.22765903 -0.023469696 -0.35122618
0000c0 10 98 8c be 20 75 92 be 26 82 4a 3d e3 01 8c 3b
       -0.27459764 -0.28604984 0.049440525 0.004272686
0000d0 26 9d 8a 3d aa c5 e1 bd 1a 8a c1 bc 0a 85 cc bd
       0.06768255 -0.110240296 -0.023625422 -0.09986313
0000e0 c4 3d 72 3e ee 5c 9e 3e 85 96 8a 3e 78 f3 4f 3e
       0.23656374 0.30930275 0.27067962 0.2030772
0000f0 67 3c f5 3d 14 af b5 bd d5 64 14 3e e6 81 9a 3d
       0.119744115 -0.08871284 0.1449159 0.075443074
000100 cd 6b 41 bd e3 05 c9 3d 46 aa 4f 3d ee 50 b6 3e
       -0.047221947 0.09815576 0.050699495 0.3560862
000110 00 8a 26 bc b2 09 ca 3d cc e3 2b bc f8 59 2f 3e
       -0.010164738 0.098651305 -0.010491323 0.17124164
000120 8c 33 08 3e 28 d7 00 3e 7e c8 d7 bd aa 4f f9 bd
       0.13300914 0.12582076 -0.10536288 -0.12173398
000130 74 be 3c bd 23 f5 05 3e 50 f4 d1 bd 27 ec b7 bb
       -0.046080068 0.13081793 -0.10251677 -0.0056128683
000140 c0 37 12 be 8b 24 21 be 5c 77 ac bd ae f4 18 be
       -0.1427908 -0.15736596 -0.084212035 -0.14937088
000150 5d c1 b0 3d a8 76 8f 3d c3 b7 1f 3e 0f 26 52 be
       0.08630631 0.07005054 0.15597443 -0.2052233
000160 60 dd 43 3e 46 57 67 3e 49 04 b0 3d 8b 96 ba 3e
       0.19127417 0.22591886 0.08594567 0.3644298
000170 d0 01 26 bd be 97 11 be 95 ed 57 bc 8b fe 26 3e
       -0.040529072 -0.14218041 -0.013179203 0.16308038
000180 66 94 ab 3e 76 9c 0f bd d6 07 63 3d 8c 13 0f 3e
       0.33511657 -0.035061322 0.055427395 0.139723
000190 f5 b4 ed 3e cb ac 2a 3e fa 8b a6 3d cd 32 3d 3e
       0.46427122 0.16667478 0.08132167 0.1847641
0001a0 d9 4f 97 be 04 af 1a be 10 84 5b 3d 73 48 0b 3e
       -0.29553106 -0.15105826 0.05359274 0.13601856
0001b0 75 92 37 bd 78 23 62 be 9d e0 0f 3e 4a 2b ab be
       -0.044817407 -0.22083843 0.14050527 -0.33431464
0001c0 e2 42 62 be 27 c3 fa 3d de 74 ba bd 4a b6 95 be
       -0.22095826 0.122442536 -0.09104322 -0.29240638
0001d0 7b 59 3e 3c 6e 39 49 bd 17 53 f3 3d 8c 93 da 3d
       0.0116180135 -0.049127035 0.118810825 0.106726736
0001e0 8f 32 c3 3e 10 c5 14 3e 6c 4a a9 3e b4 2c 96 3e
       0.3812451 0.14528298 0.33064592 0.2933098
0001f0 c5 5a 14 3e df dc 8b bd 63 16 81 bd 46 bb c8 3b
       0.14487751 -0.06829237 -0.06303098 0.0061258404

cnn3.bias f4 [4]
000000 f1 a9 b2 be da 4a 77 3e d6 65 b0 bd 25 8c 79 bd
       -0.3489528 0.24149647 -0.08613174 -0.060924668

goal_embed.weight f4 [10, 3]
000000 03 9e 4b 3f 6e 0d b0 3e 62 8d e5 be d8 6d 83 be
       0.7953798 0.34385246 -0.4483443 -0.25669742
000010 b6 5a 34 bf 44 74 12 bf 74 4a 86 3f fa ed db bd
       -0.70450914 -0.5720866 1.0491471 -0.1073875
000020 2c f2 97 3d b7 b9 7b 3e bc fa 08 3f c7 79 6a be
       0.074192375 0.24582563 0.5350759 -0.22898017
000030 95 c7 28 bf 2f 9a 0b 3f 43 fc 47 ba 70 2b a0 bd
       -0.6592954 0.5453214 -0.00076288375 -0.07820785
000040 3f d6 34 bf 73 1a 25 3f ec fe f8 3e ab fc 04 3f
       -0.70639414 0.64493483 0.4863199 0.5194804
000050 aa 06 80 3e b8 82 08 3d 01 a2 26 3f da 5d 20 bf
       0.25005084 0.033327788 0.6509095 -0.62643206
000060 1d 67 b2 be f4 d1 6f 3e fc a4 21 3f 63 bc 23 3f
       -0.34844294 0.23419935 0.6314237 0.6395933
000070 e2 1d bf 3d a1 a1 46 3f
       0.093318716 0.77590376

goal_embed.bias f4 [10]
000000 a4 b0 f8 bd 64 e2 a7 3e c4 84 9e 3d 4b 0a 74 be
       -0.121430665 0.3278991 0.07740167 -0.23832051
000010 57 b1 aa 3d 4f 71 e4 bd 68 1d 96 3b 11 9e 49 3e
       0.08334606 -0.111544244 0.004581142 0.19689204
000020 e5 97 0c 3d 20 88 81 3e
       0.034324545 0.25299168

action_embed.weight f4 [10, 2]
000000 4b f8 a4 3e ea 8b 08 3f f8 4c c6 3e 03 07 72 bd
       0.32220683 0.5333849 0.38730597 -0.05908872
000010 dd fc 05 bf 13 e7 c1 3e 3f 6c cb 3e 81 5c 13 3f
       -0.52338964 0.37871608 0.39731023 0.57563025
000020 9a 07 b7 be ad ef 0b 3f 09 7d 7c 3e 66 ce 00 3f
       -0.35747987 0.5466259 0.24657072 0.5031494
000030 41 d9 e5 3e 3e 74 0b 3f bf 6b 0d be 15 8d 1b bf
       0.44892314 0.54474247 -0.13810633 -0.6076215
000040 07 6d da 3e 4f 86 16 3f 9f 80 50 3e 15 6d e9 3e
       0.42661306 0.5879869 0.20361565 0.45591035

action_embed.bias f4 [10]
000000 0e 28 2b bf 6a 35 48 3f 61 0b 07 3f 6e 2f 81 bd
       -0.66857994 0.78206503 0.5275174 -0.063078746
000010 5c ee b4 be 5c 79 88 3e ad 65 0f be 51 3e 51 bf
       -0.35338104 0.2665509 -0.1400363 -0.8173571
000020 1d 0d 3c bf 41 75 cc bd
       -0.7345751 -0.09983302

layer_1.weight f4 [400, 36]
000000 7a 34 41 be 1f d4 61 3e b9 ca 63 3e c4 f8 7a be
       -0.18867674 0.22053574 0.22245301 -0.24508959
000010 ba 77 40 3e 92 6c d5 be b5 8e ae bd c2 60 a7 3e
       0.18795672 -0.41684395 -0.08523313 0.32691008
000020 32 e7 ac 3e 93 d1 36 bd 2a 49 18 be 3e d8 0a bf
       0.33770138 -0.04463346 -0.1487166 -0.5423621
000030 73 50 db 3e b1 62 6d 3e 35 55 b3 be c2 f2 52 be
       0.42834815 0.23182179 -0.35025945 -0.20600417
000040 e6 12 f2 3d 0f dc 49 be cd 94 10 3f 99 77 8b 3e
       0.11820011 -0.19712852 0.5647705 0.27239683
000050 53 bd 4e bb fe a8 86 3e 33 8b 6a 3e 7a c6 c1 be
       -0.0031545951 0.26300806 0.22904663 -0.37846738
000060 4c 9a a4 be 80 25 b1 be 52 83 38 3e 3d b7 da 3d
       -0.3214897 -0.34598923 0.18018845 0.10679481
000070 58 a3 76 3e e1 a7 c5 bd 50 fa 69 3e a3 44 bc be
       0.24085748 -0.09651161 0.22849393 -0.36771116
000080 2e 4d ae 3e 18 a3 63 3e 85 e4 1e be d9 01 8a 3e
       0.34043258 0.22230184 -0.15516861 0.26954535
000090 c2 92 61 be 24 f9 9a 3d 1a 5a 83 be 0a 6c 9f bd
       -0.2202864 0.07567051 -0.2565468 -0.07784279
0000a0 9f 32 21 be b1 d1 c4 3d 72 fd 2e 3e 9b 86 e2 3c
       -0.15741967 0.09610308 0.17088869 0.027652076
0000b0 68 c5 9d 3e ee 60 1f be 84 10 80 be 91 32 71 bd
       0.30814672 -0.1556432 -0.250126 -0.058886115
0000c0 c1 cb a4 be aa fa 99 3c a4 13 b9 3e e5 42 cd 3e
       -0.32186702 0.018796284 0.36147797 0.400901
0000d0 ab e5 46 3c ec 2b ae 3e 9e f2 c5 bd af 98 56 be
       0.012139718 0.34017885 -0.09665416 -0.20956682
0000e0 65 b0 a0 3e 32 aa c1 be c5 2f ec be 28 5c c5 3e
       0.31384578 -0.3782516 -0.46130195 0.38546872
0000f0 cb 5a 26 bd 30 c8 8e be bf c9 a9 3e 2a 10 49 be
       -0.04061393 -0.27887106 0.33161733 -0.19635072
000100 97 ac 63 3d cc 76 c4 be a8 82 dc 3c cc f2 b5 3e
       0.055584516 -0.38371885 0.02691777 0.35536802
000110 07 0c b4 bd 4f 33 2c 3d 99 23 b2 37 26 29 47 3e
       -0.087913565 0.04204112 2.123583e-05 0.1944929
000120 a1 4a 1e 3d ad 78 c2 be f4 51 8e 3e 00 48 86 3e
       0.03864539 -0.37982693 0.277969 0.26226807
000130 3a e8 83 3e 3a 64 c2 3e 6b cb 9b bd d0 20 7c bd
       0.25763112 0.37967092 -0.07607158 -0.06155473
000140 3b 64 3e 3e 7a 88 19 3d 7d a9 c9 be a1 a2 50 3e
       0.18592922 0.03748367 -0.39387122 0.20374538
000150 94 7b 1b 3e 3f dd 48 3e 3a fb d5 ba 80 10 45 bd
       0.1518386 0.19615649 -0.0016325482 -0.04811144
000160 59 bc b9 be 22 95 97 be 1b cf 83 3e f9 30 2a be
       -0.3627651 -0.29605967 0.25743946 -0.16620244
000170 d5 a2 8a 3d 06 be 5b be 1c 48 bf 3e 8e 95 61 be
       0.06769339 -0.21459207 0.37359703 -0.22029707
000180 30 8a df 3d 6e d9 1d be 63 7b 9f 3e b8 b3 ea 3d
       0.10915029 -0.15414974 0.31148824 0.1146006
000190 96 2a d3 bd c9 e9 ae 3e b9 b4 9a bd 73 de 84 be
       -0.10310857 0.3416274 -0.07554001 -0.25950965
0001a0 fb 78 15 be 45 4f a4 be f6 1c f8 bd 68 a2 91 be
       -0.14596932 -0.32091728 -0.12114899 -0.2844422
0001b0 eb 34 54 3e 4d 47 2a 3d e7 20 fa be d2 1b a6 3d
       0.20723312 0.041571904 -0.48853227 0.08110775
0001c0 7e 0b a2 3e 0b 28 b1 3d 0c 98 ad be 9e d5 ae 3e
       0.31649393 0.08650216 -0.33905065 0.34147352
0001d0 29 63 b9 3d 0b 37 ec bd 15 61 ba be b5 dc cd 3c
       0.090521164 -0.11533936 -0.36402193 0.025129655
0001e0 30 15 6c 3e ca c2 19 3e ec bc 9f be 80 47 ef 3e
       0.23054957 0.15015712 -0.31198823 0.46734238
0001f0 73 3c f3 3c 5b ca 94 3e 58 13 ab be 19 ef 45 3e
       0.02969191 0.29060635 -0.33413196 0.1932949
000200 6f f3 3a 3e 7d a1 ec 3d f2 0a aa be c5 97 6e 3e
       0.18256925 0.11554239 -0.33211476 0.23300083
000210 1d c1 89 be 16 ba 9d 3d 06 52 89 be 6a 65 16 3d
       -0.26905146 0.07701509 -0.2682039 0.03671781
000220 5b 47 25 3e 5f ab 98 be 99 a4 48 3e 5f 87 2a be
       0.16140501 -0.29818246 0.19594039 -0.16653202
000230 24 df b7 be 52 67 a7 3e 7a 71 ce 3d b0 18 97 be
       -0.3591243 0.32696015 0.10080238 -0.29511023
000240 e3 26 a6 3e 15 7c b5 3e 4c 98 f1 bd e9 a0 5b 3e
       0.32451543 0.3544623 -0.117966264 0.21448101
000250 bf db 57 bc b1 40 bf 3d 1c 04 81 3e b2 19 86 3e
       -0.01317495 0.09338511 0.25198448 0.2619148
000260 f8 1a 30 3e cb e5 8f 3d da 40 e6 3d aa 1c 23 be
       0.17197788 0.070262514 0.11242838 -0.15928903
000270 7b 93 93 bd 76 a1 4e bd 18 f0 52 be 9a 2c 2d bc
       -0.07205864 -0.05044695 -0.20599401 -0.010569716
000280 e4 c6 44 3e 0a fd 04 3e b2 7a 61 3e e1 96 52 be
       0.19216496 0.12987152 0.22019461 -0.20565368
000290 e9 85 b2 be 71 79 fc 3e 93 18 76 be a3 78 10 3d
       -0.3486779 0.49311402 -0.24032812 0.0352713
0002a0 0c 9e 41 be 78 38 08 bd c7 41 ac 3e 62 4f 8f 3d
       -0.18907946 -0.033256978 0.33643934 0.06997563
0002b0 be c0 0a be 6b 7f 01 be 37 5d 95 be 54 72 9e bd
       -0.13550088 -0.12646262 -0.2917268 -0.0773665
0002c0 17 36 83 bd d5 4b c5 3c 2d 85 96 3e 28 ab 4a 3e
       -0.06406801 0.024084011 0.2939848 0.19791853
0002d0 70 e5 a2 3e ea f7 81 3d 0a 51 84 3e e0 72 7d bd
       0.31815672 0.06346114 0.25843078 -0.06187713
0002e0 1c 14 3d 3e cc 95 80 3e a7 81 16 be 38 d1 ea 3d
       0.18464702 0.25114286 -0.14697896 0.114656866
0002f0 63 ed d2 3e fb a3 6b be 95 39 38 be 07 39 98 be
       0.41196737 -0.23011772 -0.17990716 -0.29731008
000300 d8 30 bd 3e 4e f5 e9 3e ce be b6 3e e4 7d b2 3d
       0.36951327 0.45694965 0.35692447 0.08715418
000310 76 db d1 bc ea 25 8c be 67 6c ed 3e ce 34 80 bd
       -0.025617342 -0.27372676 0.46371767 -0.06260072
000320 b5 e4 3a bf eb f7 d6 bd 92 c8 35 be b7 52 28 be
       -0.7300523 -0.10496505 -0.17752293 -0.16437803
000330 51 67 d6 be 74 8a df be 8a 27 ec 3d 53 a8 3e 3e
       -0.418757 -0.4366032 0.11530979 0.18618898
000340 a6 da ac be 21 be 9a 3d 0e 51 ad bd 56 e3 55 3e
       -0.33760566 0.075557955 -0.084627256 0.20887503
000350 d0 cb b4 3d b2 d9 29 3d 17 ea 15 be 8d 26 03 bd
       0.08827937 0.041467376 -0.1464008 -0.032019187
000360 6c eb 05 bd f0 70 66 be 28 0f 56 bc 03 a8 f0 3e
       -0.03269522 -0.2250402 -0.013065137 0.47003183
000370 9b 0a 87 be 92 16 02 bf a6 a0 b8 3e 41 75 5d bc
       -0.2637528 -0.5081569 0.36060065 -0.013516725
000380 8e 77 bf be 9c 71 4d 3e 92 4c c7 3e 3e b3 2d 3c
       -0.373959 0.2006287 0.38925606 0.010601817
000390 57 f7 7d be 1d 57 91 3e 08 1e 33 be 22 75 c9 3e
       -0.24801384 0.28386775 -0.17491925 0.39347178
0003a0 66 55 7c 3e ff 4d 11 bf cc 88 52 3e 83 8b f6 bd
       0.24641952 -0.5675964 0.20559996 -0.120383285
0003b0 30 b9 2b 3d b2 9a bf 3e 0e 29 ed bd 9e c1 86 be
       0.041924655 0.3742271 -0.11580096 -0.26319593
0003c0 65 b0 a0 3d a9 d1 c8 3c 44 15 dd be f0 95 60 3e
       0.078461446 0.024514036 -0.43180287 0.21932197
0003d0 d0 d0 3b 3e b1 cb 70 3e c9 57 5b 3e 9a fd 12 be
       0.18341374 0.23515202 0.21420206 -0.14354554
0003e0 45 a0 9c 3d 87 e2 ab 3d 88 b0 f8 bd a6 bc 08 3e
       0.076477565 0.08392816 -0.12143046 0.13353214
0003f0 7e 31 25 3e 1c de 35 be e5 df 89 3e 8a 24 c6 bd
       0.16132161 -0.17760509 0.2692863 -0.09674938

layer_1.bias f4 [400]
000000 0f d9 dc 3d 6e e7 26 3c 80 ec 02 be c4 0c 19 3e
       0.10783588 0.010187013 -0.1278553 0.14946276
000010 ac af c8 bd 3a 7f 98 3c 3f 99 c0 bd 67 b0 92 3b
       -0.09799132 0.018615354 -0.094042294 0.004476595
000020 a4 72 63 3d 7f 39 94 3d b1 0c de 3c 4a 21 cc bd
       0.05552925 0.07237529 0.027105661 -0.09967287
000030 7f e3 0e 3e 98 eb 26 be a2 aa ba 3d dd 2a 00 be
       0.1395397 -0.1630081 0.09114577 -0.12516351
000040 49 2f 44 3e bf 1f 55 3d 94 69 8e 38 e2 86 06 3e
       0.19158663 0.05203223 6.790753e-05 0.13137391
000050 0d 91 cf 3d de b5 07 be bb 61 53 3d a7 51 8f 3d
       0.10135088 -0.1325297 0.051606875 0.06997996
000060 72 57 65 bd cf 0e a8 3d 64 8d 70 bd e2 c5 1d 3e
       -0.055991597 0.082059495 -0.05872859 0.15407518
000070 64 94 3e 3e 17 37 0f 3e 02 df 10 bc f9 9d e9 3d
       0.18611294 0.13985859 -0.008842232 0.11407084
000080 dd 6a 2b 3d d3 39 92 bb 44 13 c7 bc 3f 6c 19 bd
       0.04184996 -0.0044624596 -0.024301179 -0.037456747
000090 59 7f 4f 3e bc 46 04 3e 95 32 4e 3e a6 4d a3 bc
       0.20263423 0.12917608 0.20136483 -0.019934487
0000a0 bc 79 af 3d 19 03 1f 3e ea 54 58 be 6c 95 b6 bd
       0.08568141 0.15528525 -0.21126142 -0.08915219
0000b0 8d 2f ab 3c f0 ac 2b bd c7 da 68 bd 57 81 ec bd
       0.020896697 -0.041912973 -0.056849267 -0.11548107
0000c0 3b bf 8f 3e 0a 34 80 3d 40 fd 97 3d ae 86 07 be
       0.28075585 0.06259926 0.074213505 -0.1323497
0000d0 bf eb 7f 3d 66 3e dd b9 4a 66 18 3e 53 03 4b bd
       0.062480684 -0.00042198895 0.1488277 -0.049563717
0000e0 9e 02 81 bd 0a 03 88 3d 4a 0d 6a 3d ef 4b 0e 3e
       -0.06299327 0.06641205 0.05714158 0.13896154
0000f0 4b 63 46 3e f4 ab f7 bd df 34 5b 3e 6d 39 1e 3e
       0.19373815 -0.12093344 0.21406887 0.15451594
000100 77 3b 62 3e b0 69 f4 3c 5a 82 cc bd 6a 93 2c bd
       0.22092997 0.029835552 -0.099858 -0.042132773
000110 6d ae a4 3d 15 89 58 3e 0f a2 43 bd 53 39 60 bd
       0.080410816 0.21146043 -0.047761973 -0.05474217
000120 ae 49 ce 3d e9 c2 f7 3d a0 ba c3 bc 7f f5 7f 3b
       0.10072647 0.12097723 -0.0238927 0.003905624
000130 bf 97 94 3d 9d 81 8a 3d 1d b4 11 3e 8b 27 f3 bb
       0.07255506 0.06763003 0.14228864 -0.0074204854
000140 8a 7d 64 3d 2f 77 c2 3c 72 a8 c2 bd bb cf 9f bd
       0.055783786 0.023738472 -0.09504785 -0.07803293
000150 67 a5 9d 3d 8e 22 6c be f5 11 c5 bd 02 17 a6 3d
       0.076975636 -0.23060057 -0.09622566 0.08109857
000160 e6 0a 05 bd e2 0a fd bd 73 a8 13 3e c3 bf 1a be
       -0.032481097 -0.12355591 0.14419727 -0.15112214
000170 c5 40 44 3b ac 66 5c be d5 3e 00 3d db a0 ae 3c
       0.0029945832 -0.21523541 0.03130992 0.021316936
000180 d4 de 4c bc 07 09 76 bc 61 48 0c be 56 cb 73 3e
       -0.012504298 -0.015016801 -0.13699485 0.23808035
000190 56 3e 8c bd ed b3 70 3d 78 8c d5 bc 08 cc 23 be
       -0.06847827 0.05876534 -0.026067957 -0.159958
0001a0 b6 66 2c 3d 68 d5 20 3e f5 69 a2 bd d4 87 52 3d
       0.04209014 0.15706408 -0.07930366 0.051399067
0001b0 fc 01 36 bd 32 01 30 3e 03 e5 43 be d2 3c 3b bb
       -0.044435486 0.17187956 -0.1913033 -0.0028570187
0001c0 94 55 1f bd 0a d6 8d 3e 45 0d 08 3d 3f 89 3c 3e
       -0.038899973 0.2770236 0.03321578 0.1841173
0001d0 cd bf 0a 3e fa 14 46 bd e5 bc 59 3e 58 4c 34 bd
       0.13549729 -0.04835985 0.21263464 -0.04401812
0001e0 0e c4 30 be 6b 98 0d 3e 1b fc 03 3e bd 30 e7 3d
       -0.17262289 0.13827674 0.1288914 0.11288593
0001f0 4f 3c 0f bd 9e d3 33 3d 1c 26 aa bc 82 85 24 3e
       -0.034969624 0.043902986 -0.020770125 0.16066554
000200 ec b3 45 3d fc 42 6e bd 3c 22 64 bd 2f ca 83 3d
       0.04826729 -0.05816935 -0.05569671 0.06435048
000210 b1 c9 35 3e 6d d4 9c 3d c2 65 2d 3e 29 46 c8 3d
       0.1775272 0.076577045 0.16933349 0.09779007
000220 ee 5b de bc d6 bc 34 bd 64 12 8b bd 97 46 9e 3d
       -0.027143445 -0.0441254 -0.06790617 0.07728308
000230 f5 2a b3 bc 1a 82 ff bc fe 59 d8 3d ad db 7c bc
       -0.02187107 -0.031189967 0.1056404 -0.015433234
000240 54 24 93 bc 78 d2 2a 3e f9 85 3f be 83 78 13 bd
       -0.017961659 0.1668185 -0.1870345 -0.0360036
000250 f1 cf 43 3e 36 66 1c 3d ae ec 1e 3e c7 ec 23 bd
       0.19122292 0.038183413 0.15519974 -0.04002073
000260 a6 30 8c be c5 a0 ed 3d b5 3e 1a be 5d 34 e0 bc
       -0.27380866 0.1160293 -0.15062983 -0.027368719
000270 a0 ce 45 3d 95 76 88 bd da b7 12 3e 96 38 17 be
       0.048292756 -0.06663243 0.14327946 -0.1476768
000280 dc 9b b7 bd 71 bc cc 3d 9b 3c c0 3c 84 eb c0 bd
       -0.08965275 0.0999688 0.023466399 -0.09419921
000290 df 12 54 3e 09 5a 0b 3e 43 ad ed bd b7 c9 a5 bc
       0.20710324 0.13608564 -0.11605313 -0.020237787
0002a0 47 37 f1 3d 20 3e 1b 3e 39 82 1d bd 43 cf 86 bb
       0.117781214 0.15160418 -0.038454268 -0.004114063
0002b0 d2 94 f5 3c ef 93 1f bc 9e cf 3b bd fc 75 19 3e
       0.02997819 -0.00973986 -0.045852296 0.14986414
0002c0 4c a9 9e bd fb 4e 82 3d d9 39 4e be 8e 4a 0d 3e
       -0.077471346 0.063627206 -0.20139255 0.13797972
0002d0 19 aa d8 3d fc d4 2a bc 76 f3 97 3c a0 e3 cf bd
       0.105793186 -0.010426756 0.018548708 -0.10150838
0002e0 30 d4 18 3e 0f 16 2b 3d ef 67 91 3e 61 d5 19 bc
       0.14924693 0.041769084 0.28399608 -0.009389252
0002f0 58 47 d7 bd 6e f1 37 3e 0b f0 45 3c 6f ff d3 bd
       -0.105116546 0.17963192 0.0120811565 -0.103514545
000300 12 31 08 be ae dc 3a 3e f2 bf 7f 3d 42 7b b9 bc
       -0.13299969 0.18248245 0.062438913 -0.022641782
000310 3a b9 0c be 23 5b a8 bd 4b d1 aa bd d3 80 0d 3e
       -0.13742533 -0.08220508 -0.08340701 0.13818674
000320 8d 7b 40 3e d2 03 1c be 3f 10 8b bd be 1b 0e 3e
       0.18797131 -0.15235832 -0.06790208 0.1387777
000330 a7 ac e7 3d 1a 12 5e be 55 22 76 be 46 9a 6e 3e
       0.11312228 -0.21686593 -0.24036534 0.23301038
000340 73 bc 8a bd bb e3 4e 3d db 50 8b bd 0b d1 09 3d
       -0.06774225 0.05051015 -0.06802531 0.033646625
000350 c0 2d c1 3d 3d 56 55 bc d5 75 04 3e cc ac de 3d
       0.09432554 -0.013021049 0.12935574 0.10872802
000360 cf 67 b8 3d 64 56 38 bd 97 1f 77 3b 87 05 06 be
       0.09004175 -0.045004264 0.0037708038 -0.13088046
000370 cb 8c 97 bd 1f f5 fe 3d 77 59 11 bd 18 fc f9 3c
       -0.07399901 0.12449097 -0.03548571 0.030515715
000380 bb da 4c 3d e5 e4 61 3e c4 36 35 3c cc ab 95 bd
       0.050013285 0.22059973 0.01106042 -0.07308158
000390 5a c2 25 be 91 ff 41 3e 0b db 1f 3d 9e d9 56 3d
       -0.1618742 0.18945147 0.039027255 0.05245363
0003a0 fb 22 3f 3e 74 50 dc bd 72 06 2e be 46 d5 41 be
       0.18665688 -0.10757533 -0.16994646 -0.18929014
0003b0 3c d2 08 3e 55 d8 bb b8 d8 7d 04 be 13 55 86 bd
       0.13361448 -8.95715e-05 -0.1293863 -0.06559195
0003c0 a9 2a b6 bd 39 31 ea bc 18 cf 01 3e 37 b7 8e bc
       -0.088948555 -0.028587924 0.12676656 -0.017421348
0003d0 ef bb 47 3e c6 e2 45 3d 56 39 4a 3e 06 62 66 3d
       0.19505285 0.04831197 0.19748434 0.056245826
0003e0 54 28 94 3d 61 80 33 be b7 aa 53 bd d6 c4 ea bc
       0.072342545 -0.17529441 -0.05167648 -0.028658312
0003f0 f3 f2 ba bd 23 7d 02 3d 37 8b 34 be 63 ba c6 3b
       -0.0912837 0.03185762 -0.17631231 0.0060646995

layer_2.weight f4 [300, 400]
000000 7b 4a 05 bd 51 0b 1d bc c2 c6 9a 3d b0 88 b6 bd
       -0.032541733 -0.009585218 0.07557441 -0.0891279
000010 48 9d 2c bd cb 23 21 3e 7d 2e 08 be 9b ae 1a 3d
       -0.042142183 0.1573631 -0.13298984 0.037764173
000020 1a 9a 9c 3d fc 8e 33 be d8 ce ad bd 87 b5 c5 bd
       0.0764658 -0.17535013 -0.08486718 -0.09653764
000030 23 d5 35 bd cc 89 c0 bd 60 53 87 3d ad 73 06 be
       -0.044392716 -0.09401283 0.066076994 -0.13130064
000040 41 0a 18 be 0b b5 94 3c d5 56 fa bb f7 84 01 be
       -0.14847662 0.018152734 -0.0076397457 -0.12648378
000050 bb 29 19 3e fe 47 ab bc c9 29 6e 3d 78 c9 bd bd
       0.14957325 -0.020908352 0.05814532 -0.09266943
000060 19 ba 13 be d9 a7 8c 3c 37 05 23 3e ea 4f 2f 3d
       -0.1442646 0.01716988 0.15919958 0.04280082
000070 25 bd 98 bc 62 4b 02 be 82 c5 86 3b 66 a0 17 bd
       -0.018644879 -0.12724069 0.0041129002 -0.037018202
000080 c8 86 d2 3c cf 06 82 bd 0c ea 17 b8 0d db 9b bd
       0.025699034 -0.06348955 -3.621918e-05 -0.0761014
000090 1d 29 af bd f6 6b 99 bd 81 ce 89 3e 92 cc b2 3d
       -0.085527636 -0.07491295 0.26915362 0.08730425
0000a0 1a c1 f3 bd 15 a5 cb 3d fb 43 5b 3d 3d c4 ac 3d
       -0.119020656 0.09943596 0.053531628 0.08435867
0000b0 03 d4 01 3e d1 8a 00 3e 46 e0 03 be a3 aa a7 3d
       0.12678532 0.12552954 -0.12878522 0.08186843
0000c0 ce 1a 61 be 97 dc 1b be 69 e2 c9 3c 4f f3 af 3d
       -0.21982881 -0.15220867 0.024644094 0.08591329
0000d0 41 d0 c2 bc e6 a1 24 be 77 21 cc 3d 77 ee 1d 3e
       -0.023780944 -0.16077384 0.099673204 0.15422998
0000e0 fc 29 1f bd cd 07 b8 3d de c2 1f 3d 4e a5 bf bd
       -0.0388584 0.08985863 0.0390042 -0.09357701
0000f0 53 ca c1 3d ed 5e 11 3d 98 99 d9 bc 71 bb 40 3d
       0.094624184 0.03549092 -0.026562497 0.047053758
000100 ef 7d 38 be ce 4c 95 3d 9a 69 98 be de ae 89 bd
       -0.1801679 0.0729004 -0.29768068 -0.067228064
000110 b9 a5 bd 3d ac 41 33 3d 9b 1e 2c be f1 2b 9e 3d
       0.09260125 0.0437638 -0.1680855 0.07723225
000120 04 f4 6a bd 73 c5 a5 3d 35 6b 0a 3e 12 a7 85 be
       -0.057361618 0.08094301 0.13517459 -0.26104027
000130 a9 62 ab 3d 3a fa 0a 3e c7 ae 2f 3d d6 95 64 3e
       0.08368427 0.13572016 0.04289129 0.22322783
000140 82 e8 38 3e 5b c8 7d 3d 25 40 d7 3d 26 38 55 bd
       0.18057445 0.061958652 0.105102815 -0.0520555
000150 17 29 28 ba 20 90 2e 3e 63 c2 6f 3c 98 72 a1 bd
       -0.0006414814 0.17047167 0.014633748 -0.07883185
000160 b5 13 5a bd 68 45 8b bd 86 f7 40 bd 12 89 a4 bd
       -0.05324145 -0.068003476 -0.047111057 -0.080339566
000170 bd cd 03 3c 77 20 77 3d 2b 95 3d 3d cd 4e 94 3b
       0.008044657 0.060333695 0.046284836 0.0045259953
000180 e3 e7 00 bd 01 60 db 3d d8 4d 31 3c 37 f3 89 3d
       -0.031471144 0.10711671 0.010821782 0.06735843
000190 d7 f1 81 3d 4b 56 1a 3e 23 20 eb bd 39 05 f6 bc
       0.063449554 0.1507198 -0.11480739 -0.030031787
0001a0 64 09 85 bd 7d 7b 31 3e 19 c3 d4 bd d1 0d 0e be
       -0.06495932 0.17332263 -0.103887744 -0.13872458
0001b0 22 b5 4e 3d 02 72 fb bd 99 05 96 3d 74 6a d4 bd
       0.05046571 -0.12277605 0.073252864 -0.10371867
0001c0 60 7e 6c bd a2 09 83 3d 2e a6 50 3c 17 e9 07 be
       -0.057737708 0.06398322 0.012734933 -0.1327251
0001d0 94 b9 51 3d e8 da 7d bd f9 41 64 bd ef 79 da 3d
       0.05120237 -0.061976343 -0.05572698 0.10667788
0001e0 53 1a 5a bd 7f 02 ad 3b cc db 6c be b0 ca 65 3d
       -0.05324776 0.0052798386 -0.23130721 0.0561015
0001f0 ff 11 c5 3d 56 6d 25 bd fa bc 70 bd 48 06 08 3c
       0.09622573 -0.040387474 -0.058773972 0.008302279
000200 59 41 40 bd 8b a5 39 bd 87 10 3a be 96 92 34 3d
       -0.04693732 -0.04532389 -0.18170367 0.044085108
000210 30 7e 01 be c6 62 78 bd 0f 1b 60 bc 5f ee 3a be
       -0.12645793 -0.060641073 -0.013678326 -0.18254994
000220 6e 69 88 bc 1a 00 96 3d c6 1d 84 3d e0 27 ea bd
       -0.016651835 0.07324238 0.06450991 -0.11433387
000230 b6 19 0a 3e ae 1d 6a be 06 47 06 be 95 53 49 bd
       0.1348637 -0.22862884 -0.13113031 -0.049151976
000240 8b 1f 65 bd bf be 9b bc af f9 16 3d b7 d2 63 bb
       -0.055938285 -0.019011853 0.03685921 -0.0034763047
000250 d6 c8 21 3b b0 1b 98 bd 0e 9f 50 3d aa 26 cf bd
       0.0024686358 -0.07427156 0.050932936 -0.101147965
000260 21 c8 10 be 98 bf e5 bd 61 dd f0 3c a4 d6 f8 bd
       -0.14138843 -0.11218184 0.029402437 -0.121503145
000270 82 2d b9 3d 4a b2 ec 3c 76 35 26 3d 8d 5b 5a bd
       0.09041883 0.028893609 0.040578328 -0.053309966
000280 4a b4 97 3d 4d c1 22 be 1b 44 0f bd a6 53 5e bd
       0.07407434 -0.15894051 -0.03497706 -0.054278992
000290 b2 f1 03 be a7 b8 be bb 4a c4 22 3d 9e 67 6d bc
       -0.12885168 -0.005820352 0.039737977 -0.014490036
0002a0 be ad aa bb ac 64 1e be 5c 91 4e 3e 49 74 4b 3d
       -0.0052087 -0.15468091 0.20172638 0.049671445
0002b0 84 ba a7 bd 61 dc 05 3c d9 e5 61 3e 33 92 37 be
       -0.08189872 0.008170218 0.22060336 -0.17926864
0002c0 6e 50 ab 3d 8b c2 a2 3d 1e db 76 bc 20 6a 06 be
       0.0836495 0.079472624 -0.01506689 -0.13126421
0002d0 9b 6f 52 be ba 75 d3 bc b1 c9 ef 3d a2 21 d0 3d
       -0.20550387 -0.025812972 0.117083915 0.10162665
0002e0 dc 75 ca bd 9a 34 52 3d 57 e4 5c be b4 50 18 3d
       -0.09885761 0.051319696 -0.2157148 0.03718634
0002f0 79 88 09 be 53 f0 dc bb 21 8a 8d 3d 41 51 f5 bc
       -0.13430966 -0.006742516 0.069111116 -0.029945971
000300 25 d7 a7 3d 68 70 fb bc 0d 36 7a 3d 21 3f 42 bd
       0.081953324 -0.030693248 0.061086703 -0.047423486
000310 6d c1 3c be c0 86 eb bc c0 21 a7 bc b8 6c 3e 3c
       -0.18433161 -0.028750777 -0.020401835 0.0116226
000320 4a 80 8b bd df 24 eb bd 72 fd f1 3d ec db f7 bd
       -0.068115786 -0.11481642 0.11815919 -0.12102494
000330 7b 8d 2c be 78 b2 c2 3d d2 24 8c bc 27 04 39 bd
       -0.16850846 0.095066965 -0.017107401 -0.045169976
000340 cd b6 b5 bd 6c c7 4f bc 53 9f f4 3d 6d 4f 34 3e
       -0.08872757 -0.012681823 0.11944451 0.17608424
000350 ec 13 b5 bd 7c 61 2a be 10 4d f5 be a7 b2 66 3d
       -0.088416904 -0.1663875 -0.47910357 0.05632272
000360 8b 52 b8 bd 3d 82 ec bd c8 ac 8b be b4 e7 15 3e
       -0.09000119 -0.115482785 -0.2728026 0.14639169
000370 ea 35 e4 3c e7 55 dc 3d f0 71 f9 bd c0 55 d7 3d
       0.02785774 0.10758572 -0.12179935 0.105144024
000380 c0 f0 1d be 49 5c 80 3d 08 39 48 bb 98 64 d5 3c
       -0.1542387 0.06267602 -0.0030551571 0.026048943
000390 b3 31 5f 3c 7f 38 43 be 32 8e 5c bd e1 31 85 bd
       0.013622689 -0.1906452 -0.053846546 -0.06503654
0003a0 80 06 7f bd d0 b0 3c 3d 7f ee bc bb 74 f7 9d bd
       -0.06226206 0.04606706 -0.0057657356 -0.077132136
0003b0 4f e9 0c 3d 50 46 98 bd 5e 0c 65 3d 57 4f 4b 3d
       0.034402188 -0.07435286 0.055919997 0.04963621
0003c0 b6 15 98 3d 00 47 e3 bd 6f 17 b9 bd 12 e2 ee 3d
       0.07426016 -0.110975266 -0.09037673 0.11664213
0003d0 f5 61 17 be dd 6f 26 3c 37 65 10 3e 17 29 e1 3c
       -0.14783461 0.010158506 0.1410111 0.027485413
0003e0 b6 8d c2 3c a8 55 91 bd 68 39 99 bd fe c8 42 bd
       0.023749214 -0.07096416 -0.074816525 -0.047554962
0003f0 a0 5a 6c be 10 1f 4a be db c7 1a be 7f b7 08 3e
       -0.23081446 -0.19738412 -0.15115301 0.13351248

layer_2.bias f4 [300]
000000 b4 47 d3 bc 60 db 78 bd 64 4d eb 3c bf 83 92 bc
       -0.025791027 -0.060756087 0.028723426 -0.017885087
000010 cd 11 da 3c 9f c8 e0 bc 6e f7 a7 3b 08 0d 5d ba
       0.026619816 -0.027439414 0.0051259315 -0.0008432423
000020 8b ff 14 bd 29 52 34 bd 20 55 dc 3b 3a f4 a0 bc
       -0.036376517 -0.044023667 0.006724015 -0.019647706
000030 c7 6a ea 3c d2 f7 9e 3b 5b e6 88 ba ec 0c dc bc
       0.028615369 0.00485132 -0.0010444628 -0.02686163
000040 99 3b 2b 3d b0 6a 25 3b 43 4a e1 bc c3 06 a1 bc
       0.041804884 0.0025240593 -0.027501231 -0.019656545
000050 85 2f 15 bc 10 03 b8 ba 3b 8c 18 3d 73 4c e2 3a
       -0.009105568 -0.0014038999 0.03724311 0.0017265215
000060 ec be 7a bd 7f 15 2e 3d a9 72 67 bd 85 bf ec bc
       -0.061217234 0.04250097 -0.056505833 -0.028899917
000070 6f 7a 20 3d 03 a1 2e 3d 19 67 19 bd 20 72 75 3b
       0.03917926 0.04263402 -0.037451837 0.0037452057
000080 4b 16 09 bd ab 56 e9 3c 52 c1 a3 bc 3b 3a 86 bd
       -0.033468526 0.02848371 -0.019989643 -0.06554075
000090 0d 9b 3b 3d 44 a3 87 bb 92 bf 1c 3c d7 3a 20 3d
       0.045802165 -0.004139336 0.009567158 0.039118614
0000a0 06 6b 3c bc dc bc 42 bd 2c 0d 6c 3d 60 87 18 3d
       -0.011500126 -0.04754339 0.05762975 0.03723848
0000b0 ae 75 05 3d 7d d1 30 bb b3 b1 2f bd 3c dd 66 3d
       0.03258293 -0.0026980333 -0.042894077 0.05636333
0000c0 19 a9 07 bd 36 e0 43 bd 43 4c 91 3c bb 37 06 3d
       -0.03312025 -0.047821246 0.01773656 0.032767992
0000d0 f7 23 0e bd 2c d7 ef bb 93 cf 25 3c e1 71 23 3d
       -0.034702267 -0.0073193517 0.01012029 0.039903525
0000e0 3b b5 3a 3d 02 63 39 bc c3 4b a9 3c d0 26 89 3c
       0.04558299 -0.011315109 0.020666009 0.01674214
0000f0 b4 17 62 3c 40 f5 05 b9 49 08 a6 bc 35 ba 85 bd
       0.013799597 -0.00012775231 -0.020267623 -0.06529657
000100 b9 a8 21 bd 60 2a 48 3c cc 9b 6e bd 11 bd a6 3c
       -0.039467547 0.012217134 -0.05825405 0.020353826
000110 22 be 03 3c 98 34 b1 3c d7 47 33 bd 27 01 73 bc
       0.008040937 0.021631524 -0.043769684 -0.014831818
000120 aa 1e 77 bc 77 b7 90 bc a6 fb cf 3c 92 68 4c bd
       -0.0150829945 -0.017665608 0.02538855 -0.049904414
000130 47 0e 9b bd 40 81 4f bd e4 f2 3b bd b4 b4 e5 3c
       -0.075710826 -0.05066037 -0.045885935 0.028040268
000140 d4 bf e7 bc 03 1e e6 ba c3 b4 24 bc 26 1c 5b 3d
       -0.028289713 -0.0017556552 -0.010052863 0.05349364
000150 f0 89 07 bd c9 dc 27 3d 88 d0 bc 3c f2 40 1e 3d
       -0.03309053 0.04098204 0.023048654 0.038636155
000160 f6 bd 2c ba 9e 30 17 3d aa 7d 87 3c 6e 6e 24 3d
       -0.00065895857 0.0369116 0.016539413 0.040144376
000170 85 a7 7c bd 6c ee 8b bd e4 d7 80 bc 20 71 5e bd
       -0.061683197 -0.06832585 -0.015727945 -0.054307103
000180 b4 2e 15 bd 26 04 98 bd 76 76 49 3d de 89 cd bc
       -0.036421493 -0.07422666 0.04918524 -0.025090154
000190 38 a2 22 bd 64 d3 a3 bd 89 73 eb bc ec 48 b6 3b
       -0.039705485 -0.07999304 -0.028741615 0.005562892
0001a0 ce 2f 64 bc 71 4b a6 3a 77 8e b4 3c bd e8 2e 3c
       -0.013927413 0.0012687278 0.022040589 0.010675606
0001b0 95 50 af bd 15 10 bc 3c 4f 85 80 3b 72 7a 4e 3c
       -0.08560292 0.022956887 0.0039221416 0.012602435
0001c0 59 61 c6 ba 84 82 42 3d f3 86 08 bd 93 92 5e bd
       -0.0015135213 0.04748775 -0.033331823 -0.054339003
0001d0 70 b5 53 3d f3 a1 23 bb f9 94 bf bc 66 d5 36 bd
       0.051686704 -0.0024968355 -0.023386465 -0.044637106
0001e0 55 65 d2 bb 27 06 4a 3c f1 7d 07 bd e2 8c 8c bb
       -0.006420771 0.012330568 -0.03307909 -0.0042892555
0001f0 e1 5e 2d bd 47 cf b0 3b ff c0 3e 3d 65 4b 13 3c
       -0.04232681 0.005395803 0.046570774 0.008990143
000200 6c cc 02 bd 72 de f5 3c 67 7c 12 bd 16 9e ca ba
       -0.031933233 0.030013297 -0.03576317 -0.001545849
000210 9a 7f ec bc a8 2a d4 bc 74 93 ca 3c 9f 10 4f 3d
       -0.028869439 -0.025899246 0.024728514 0.05055296
000220 4d 21 e0 bc eb b4 59 bc 4f 88 ac b9 7b ae cf bc
       -0.027359629 -0.013287763 -0.00032907954 -0.025351753
000230 01 c9 8d 3c cf 33 23 bd 5d b0 08 3d b9 b7 07 3b
       0.01730776 -0.03984433 0.033371318 0.0020708872
000240 01 6b 91 3c 7c 62 31 3d 79 e0 a7 bc 6f 97 47 3d
       0.017751219 0.043306813 -0.02049278 0.048728403
000250 32 8f cd 3c 28 07 cd 3c 24 4e 01 3d c9 eb 43 3c
       0.025092695 0.025027826 0.03156866 0.011958071
000260 df 58 86 bc 03 e3 8d 3b 5a 8c a4 3c 30 a9 40 bd
       -0.016399799 0.0043300404 0.020086456 -0.04703635
000270 ca 57 91 bb ef 2c f3 3c 0d 82 73 bc 33 44 fc 3b
       -0.004435514 0.029684512 -0.0148625495 0.0076985597
000280 fb e9 92 bc 1b 8b 28 bd 35 d1 3d 3a c3 6b 8f bd
       -0.017933836 -0.041148286 0.0007240952 -0.07002976
000290 9e b5 44 3d 58 9c 8b 3c 1a 7d 61 bd e4 17 d5 3c
       0.048024766 0.017042324 -0.055050947 0.026012369
0002a0 a8 ec fe bc b7 4b 3b bc d7 f4 bf bb 3f 91 bb 3b
       -0.031118706 -0.011431626 -0.0058580446 0.005724102
0002b0 f1 b1 21 bd 88 2e 17 bd 52 7c 1b bd 02 52 1d bd
       -0.03947634 -0.03690961 -0.037960358 -0.038408287
0002c0 15 24 b8 bc 5c a3 36 3d d8 f1 9a 3c ed 7c 10 bc
       -0.022478143 0.044589385 0.018914148 -0.008818847
0002d0 0c da 6a 3c f0 a5 41 3d a4 7f 27 bd ef dc 11 bc
       0.014334213 0.04727739 -0.040893212 -0.008902772
0002e0 89 20 de 3a 89 48 1f 3a 39 d8 96 bb 42 43 99 bb
       0.0016946952 0.0006076177 -0.0046034125 -0.004677207
0002f0 0f 67 50 3d 69 ed 09 bd 7e e9 4b bb 0d b4 9d bd
       0.050879534 -0.033673678 -0.0031114514 -0.077003576
000300 fe 24 08 bc 68 5d 0e bd 52 81 86 bd f2 50 19 3d
       -0.008309601 -0.034757048 -0.06567635 0.03743071
000310 fc 4b ae bc f7 e7 df bc 9c 4a 36 3d cc 06 93 bd
       -0.021276467 -0.02733229 0.044504747 -0.07179031
000320 1f a5 da 3c 16 76 bf bc 68 57 8d bd f5 5c f1 bc
       0.026690064 -0.023371737 -0.06901437 -0.02946327
000330 2b 84 21 3c 77 85 94 bd 61 e9 e3 bc 08 ff 91 3c
       0.009858171 -0.07252019 -0.027821245 0.017821804
000340 88 e2 60 bc b9 3e 60 bc f9 8b 12 3d 72 03 75 bd
       -0.013725884 -0.013686829 0.03577802 -0.05981774
000350 3c e0 5b bd 33 8e 27 3c 08 1b 62 3c 7a 1c 02 bd
       -0.053680643 0.010226774 0.01380039 -0.03176544
000360 54 5d bd bc b6 f9 28 3d de a1 94 3c d9 29 5d 3c
       -0.023115791 0.041253768 0.01814359 0.013498747
000370 b6 d8 3f bd 30 6b a2 bd 84 5c 84 3c 06 6b bd bb
       -0.04683753 -0.07930601 0.016157396 -0.0057805805
000380 e4 2c 01 bd a4 1d 04 bd a9 8e a8 3c 6d 92 5e bd
       -0.03153695 -0.03225483 0.020575838 -0.05433886
000390 85 d2 95 bd 01 db 2c 3d d7 56 53 bb 80 55 1b 3d
       -0.07315544 0.042201046 -0.0032247806 0.037923336
0003a0 49 44 9c 3c b5 15 29 bb ac fc af bc 76 7d 2b 3d
       0.01907553 -0.0025800292 -0.021482788 0.041867696
0003b0 10 ac d5 3c 91 d0 19 bc 2d d2 b8 3b 5f 71 41 3d
       0.026083022 -0.009388105 0.0056402893 0.04722726
0003c0 24 c9 9b 3c 26 65 15 3d 6c 13 0c bb b4 c9 1b bb
       0.01901681 0.036473416 -0.002137388 -0.0023771347
0003d0 5b d8 33 bc 0e 1a cf bc 35 d7 6a bd 55 69 0d bc
       -0.010976876 -0.025280979 -0.057334144 -0.00863107
0003e0 d1 a0 d1 3b 4f f0 d8 bc 41 f0 0e 3c 33 db 08 3c
       0.0063973446 -0.026481776 0.008724273 0.008353042
0003f0 c4 fd 79 bc 3e 49 6e 3d 8a d9 83 3c 70 36 35 bd
       -0.015258256 0.058175318 0.016094942 -0.04424137

layer_3.weight f4 [2, 300]
000000 09 11 41 3e 67 68 aa be b3 bd 0b be a1 3c be bd
       0.18854155 -0.33282778 -0.13646583 -0.09288908
000010 45 f4 80 3b 1d c7 02 be c2 7a ae 3d de a0 5d 3d
       0.003935369 -0.12771268 0.08519508 0.054108493
000020 8b e3 f3 3c 6b 84 0c bf 3f fc 8d 3c c7 1a c9 bd
       0.029771587 -0.54889554 0.017332194 -0.098195605
000030 48 c8 fe 3a a8 e5 a4 3e a5 89 3e 3e 1d 50 34 3e
       0.001943835 0.32206464 0.18607195 0.17608686
000040 aa d6 e5 3d 68 c2 de bd 39 b1 96 bd 7d 15 79 3e
       0.112225845 -0.10876924 -0.07358021 0.24324603
000050 6c f1 a1 3b c8 a2 b7 bd ea 18 2d 3e 13 9b 9a be
       0.00494211 -0.08966595 0.16904035 -0.30196437
000060 06 7d 3b 3e 6f fe e5 3d ec a7 4d 3e 0b 12 d3 3e
       0.18309411 0.1123017 0.20083588 0.41224703
000070 0d 1e 9f 3e 3d 6d 2d be 53 50 01 3e 23 72 69 3e
       0.31077614 -0.16936202 0.12628298 0.22797446
000080 4c 38 5d be 8c 19 4e 3e 86 72 a3 bd 7e f9 04 be
       -0.21603507 0.20126933 -0.07980828 -0.12985799
000090 89 22 66 3e ca 72 28 3d 69 d7 1e 3d b8 93 89 be
       0.22474112 0.041125096 0.03877965 -0.26870513
0000a0 73 7f 1d 3e dc 06 c3 bd db 3b 2d be 50 5b 72 3d
       0.1538065 -0.09522793 -0.16917364 0.059169114
0000b0 57 fa 74 be a5 96 c4 3d 21 b7 26 3e 1c 05 2a bc
       -0.23923622 0.09599046 0.16280796 -0.010377195
0000c0 7e 66 6e bd d7 25 13 3e 1d 3d 83 3d 2e e1 4a be
       -0.058203213 0.14369904 0.06408141 -0.19812462
0000d0 5b b7 a7 3b 99 9d 2f be b2 21 7c 3e 8f 92 a2 3d
       0.005118293 -0.17149962 0.24622229 0.0793811
0000e0 4a d4 4a 3e 4d 4b 63 bd 2c 90 ce 3d 77 0b 93 be
       0.19807544 -0.055491734 0.10086092 -0.28719684
0000f0 d0 de 02 bd 31 4d a1 be 04 3b 04 3e 5d 24 20 bf
       -0.03195077 -0.31504205 0.12913138 -0.62555486
000100 19 21 11 3e 4f e2 50 3d 34 a6 48 3d 7f fb 48 3e
       0.14172782 0.050997075 0.04898663 0.19627188
000110 4c c6 00 be 84 85 e5 bd 56 c1 92 3b 84 ee 77 be
       -0.12575644 -0.11207107 0.004478614 -0.2421208
000120 2b 4b 9c 3d bf 1b 05 3c 53 93 00 3e 9f 82 d5 bd
       0.07631525 0.008124291 0.125562 -0.104253046
000130 fb 48 c5 be ad 03 14 3f 5b d2 a7 be 64 22 cd bd
       -0.38532242 0.5781811 -0.32777676 -0.10016325
000140 14 44 4c bd 58 7e f3 3d 01 5e fc bb db 44 8c be
       -0.04986961 0.118893325 -0.007701636 -0.27396283
000150 82 5a d2 bd f8 2d 29 be a9 af 52 be 1b 60 1a bd
       -0.10271169 -0.16521442 -0.20574822 -0.03768931
000160 da b3 b4 bd f9 8f 1b bd a0 29 43 be 9c da 73 3e
       -0.088233665 -0.0379791 -0.19058847 0.23813862
000170 71 5c d2 3d 38 c2 d7 3c d2 65 04 be 54 2c f3 be
       0.10271538 0.026337728 -0.12929466 -0.47494757
000180 f3 e5 04 3e b7 f4 de bd 0e 2b a8 3e 91 0d 84 bc
       0.12978344 -0.108865194 0.32845348 -0.01611975
000190 f4 36 01 3e c6 76 44 3d c8 5c d5 be 31 20 14 3e
       0.12618619 0.047964834 -0.4167235 0.14465405
0001a0 03 6b 96 be 5c 62 96 bd e5 e0 9e 3e ab b7 29 be
       -0.29378518 -0.07342979 0.31030956 -0.1657397
0001b0 fa 5c be be 71 b2 fc 3c 59 72 3e 3e fd 1a 47 be
       -0.3718031 0.030846806 0.18598308 -0.19443889
0001c0 7a 9f 55 3e 5b 47 64 bc 77 fb df bd ef d2 a8 3d
       0.20861617 -0.013933028 -0.10936635 0.082433574
0001d0 25 a8 9b be ec 76 5d bd 05 b8 05 bf 63 32 15 bd
       -0.30401722 -0.05406849 -0.52233917 -0.036425006
0001e0 6d 42 87 3d a4 a5 97 3c a8 12 a3 3d 0d 45 07 bf
       0.066044666 0.0185116 0.07962543 -0.5283974
0001f0 7e 41 9f bc f6 d7 8b be 02 20 ad 3e 1a 22 46 bf
       -0.019440409 -0.27313203 0.33813483 -0.77395785
000200 5b 9e f1 3e 53 a7 08 3e 0a 9f f5 3d 73 b4 1a be
       0.47191128 0.13345079 0.11993225 -0.15107898
000210 6b 0e bd 3e 7d f1 4b 3e 6c 22 30 3e 53 7b 79 3d
       0.36925063 0.19916339 0.17200631 0.060908627
000220 c7 39 97 3b 5b f3 81 3d f9 0f e0 3d dd 3d 70 be
       0.004615042 0.063452445 0.109405465 -0.23461099
000230 28 e1 27 be 8f bb 63 3e e8 f4 72 3d 65 a0 f8 bd
       -0.16394484 0.22239517 0.059315592 -0.12139968
000240 40 99 4e 3e 0f 11 f6 bd 53 d2 e6 3d 43 4d 03 bd
       0.20175648 -0.120149724 0.11270585 -0.032056104
000250 70 92 77 be 2c c3 94 bd 81 58 3f be 1e eb 81 3e
       -0.24176955 -0.072637886 -0.18686105 0.25374693
000260 4d d0 f7 bd c4 c7 fa bc 40 e2 2b 3e e7 94 1c 3e
       -0.12100277 -0.030612834 0.16785526 0.15291177
000270 f4 64 78 3c 08 fd 98 bd 2b b0 30 3e 6f aa 95 3d
       0.015160788 -0.07470137 0.17254703 0.07307898
000280 c7 17 ca 3d a1 0e a2 3e 45 f5 5e 3c 29 eb 98 3d
       0.098678164 0.31651786 0.0136082815 0.07466728
000290 75 92 7d be 78 01 c1 bc c0 77 21 bd 59 a6 0c 3e
       -0.247629 -0.02356027 -0.039420843 0.13735332
0002a0 5b 1b 6c 3c e5 a9 2e 3e fe 4f 22 be 5a 79 83 be
       0.014410819 0.17056997 -0.15850827 -0.2567852
0002b0 43 cc 03 3e dc bc aa be 6e 88 ab be a6 bd 9c 3d
       0.12870888 -0.33347213 -0.33502525 0.0765336
0002c0 50 2b ed 3d 79 e4 e1 3d 12 54 12 be 25 c0 58 3e
       0.11580527 0.11029906 -0.14289883 0.21167047
0002d0 54 84 3a 3e 55 47 89 be 88 9b 36 be 75 cc 40 be
       0.18214542 -0.26812235 -0.17832768 -0.18827994
0002e0 97 2b 84 3d 25 e8 4b bd 43 ff d8 3a 86 de b9 be
       0.064536266 -0.049781937 0.0016555566 -0.36302584
0002f0 7c ea 54 3e 0c 72 a7 be ea 8b 93 be cd 56 ac be
       0.20792574 -0.32704198 -0.28817683 -0.33659974
000300 c7 a6 18 3e a3 9a 48 3e 48 42 27 be 56 33 87 be
       0.1490737 0.19590239 -0.16333878 -0.26406354
000310 cd a5 9f bd 94 c1 d5 bc a0 6f c0 bd 80 eb ad be
       -0.07795296 -0.026093282 -0.09396291 -0.33968735
000320 53 3c bf 3d 6b af 03 3e 66 cd 36 bf ac 5b 11 3d
       0.09337678 0.12859885 -0.71407163 0.035487816
000330 c7 b3 c8 3d 19 b9 18 be 66 15 c5 bd c2 4c 4d 3e
       0.09799915 -0.14914359 -0.09623222 0.20048812
000340 71 9b 84 be f6 2f 00 be 78 34 35 3e f1 df 97 3e
       -0.25899842 -0.12518296 0.17695796 0.2966304
000350 bb a9 ca 3d 30 fb ec 3d 16 50 ad bd 99 b3 01 3e
       0.09895655 0.11571348 -0.08462541 0.12666167
000360 a8 b9 3f 3e ce 2d 05 bd 08 3d 01 be ca 19 1d bd
       0.18723166 -0.032514386 -0.12620938 -0.038354672
000370 2f 5a a1 3d 1f d0 60 3d 1f 2a 6f be b4 05 46 be
       0.07878529 0.05488598 -0.23355912 -0.19338113
000380 98 17 54 be fc b5 e0 bc 01 68 48 3d dc c0 1c bd
       -0.20712125 -0.027430527 0.04892731 -0.038269863
000390 b6 45 33 bf c4 7b e9 3d c5 77 9c 3d 49 66 a5 bd
       -0.70028245 0.114005595 0.07640032 -0.0807615
0003a0 56 25 83 3d f2 c1 d7 bc ef 28 d2 bd 7d 27 13 3e
       0.06403606 -0.026337598 -0.10261714 0.14370532
0003b0 6e 26 38 3e 31 3c 7f 3e 87 6f 84 3e 32 1b f8 bb
       0.1798341 0.24925305 0.2586634 -0.0075716013
0003c0 41 09 6b be 3b c9 94 3d b0 87 09 3c 00 6f 82 3e
       -0.22952749 0.07264944 0.008394167 0.2547531
0003d0 2b 2c 75 be 64 b0 74 3d 96 aa 9e 3e fa d3 05 bf
       -0.2394263 0.05973853 0.30989522 -0.52276576
0003e0 fb c0 77 3e fe a9 45 3e a2 83 82 bd f2 77 d5 bc
       0.2419471 0.19303128 -0.06372763 -0.026058171
0003f0 9b 90 ac 3d c3 19 2a be f8 fb df 3d 7d d9 f2 3c
       0.08426019 -0.1661139 0.10936731 0.029644722

layer_3.bias f4 [2]
000000 fc d4 f0 3c 74 88 45 3c
       0.029398434 0.012056459
