robot_nav/robot_nav/models/CNNTD3/checkpoint/CNNTD3_actor_target.pth (torch, 550779 bytes, 16 tensors)

cnn1.weight f4 [4, 1, 8]
0	0xbce130c8	-0.027489081
1	0xbdbf59fe	-0.093433365
2	0x3e3fd73c	0.18734449
3	0xbe9c9577	-0.30582783
4	0xbe0e7821	-0.13913013
5	0xbe88f1a0	-0.26746845
6	0x3e1befae	0.1522815
7	0xbe37bb66	-0.1794258
8	0xbeaffe6b	-0.34373793
9	0xbeb030ac	-0.34412134
10	0x3dd471c5	0.10373262
11	0xbbacb367	-0.00527041
12	0x3e984750	0.29741907
13	0xbe5415f5	-0.20711501
14	0xbea3feea	-0.32030421
15	0x3ea8e445	0.32986656
16	0xbe3b7b33	-0.18308716
17	0xbe8df5cb	-0.27726588
18	0xbebee310	-0.3728261
19	0xbdfa2327	-0.12213736
20	0x3d79f130	0.06102103
21	0x3e1279d5	0.14304288
22	0xbe8cf885	-0.27533355
23	0x3d3494ba	0.04408715
24	0x3ebcf3ad	0.3690466
25	0x3ebd4743	0.3696843
26	0x3e0454cd	0.12922974
27	0x3d12436c	0.03570883
28	0x3ebf8efb	0.37413773
29	0x3e80db27	0.251672
30	0x3e414bf9	0.18876638
31	0xbccf5d47	-0.025313033

cnn1.bias f4 [4]
0	0x3ebc8227	0.36818048
1	0xbeaf2385	-0.34206787
2	0x3ea8cdeb	0.32969603
3	0xbd3a4291	-0.04547364

cnn2.weight f4 [8, 4, 8]
0	0x3e82bee2	0.25536257
1	0x3e5931ab	0.21210353
2	0x3e3b2478	0.1827563
3	0x3d510efa	0.051039673
4	0x3dc607f6	0.09669487
5	0x3d3ae58e	0.045629077
6	0x3d8b1596	0.067912266
7	0x3e606502	0.21913531
8	0xbe13d4bf	-0.14436625
9	0xbc0aafe0	-0.008464783
10	0xbe870c8f	-0.2637677
11	0xbe0b8e46	-0.13628492
12	0xbb9fbdbe	-0.004874914
13	0xbe76b055	-0.24090703
14	0xbdd3caaa	-0.103413895
15	0xbe035c2b	-0.12828128
16	0x3eae4fb6	0.3404519
17	0x3e7ee29d	0.24891134
18	0x3ec65966	0.3874008
19	0x3ea2bad8	0.31783175
20	0x3e9acd8d	0.30234948
21	0x3e8b25fb	0.27177414
22	0x3eaa5591	0.33268407
23	0x3f20e032	0.62842095
24	0xbd2c6fbe	-0.042098753
25	0x3d8b3d09	0.06798751
26	0x3bd60205	0.0065310025
27	0x3db5acb6	0.088708326
28	0xbc8788a3	-0.016544646
29	0x3e19b962	0.15012124
30	0xbded3483	-0.115822814
31	0xbd635423	-0.05550016
32	0xba66828f	-0.00087932585
33	0x3d5a9013	0.053360056
34	0x3de3c69a	0.111218646
35	0x3de9700b	0.113983236
36	0xbd5d726f	-0.05406421
37	0x3d5f7f50	0.054564774
38	0x3e0c45d8	0.13698518
39	0x3e618a8c	0.22025508
40	0x3cb38518	0.02191405
41	0xbe0d81ba	-0.13819018
42	0xbe07843c	-0.13234037
43	0xbe23de13	-0.16002683
44	0x3c42538b	0.0118607385
45	0x3c8ab7c2	0.016933326
46	0xbc561976	-0.013067594
47	0xbe1b941e	-0.15193221
48	0x3ea079fd	0.3134307
49	0x3e9667f5	0.29376188
50	0x3dc281f0	0.0949744
51	0x3ea3e0d6	0.32007474
52	0x3ea856b4	0.3287865
53	0x3e6b3251	0.22968413
54	0x3e3cb3c2	0.18427947
55	0x3e7cba65	0.24680479
56	0xbe79ad82	-0.24382594
57	0xbe437ec5	-0.19091327
58	0xbd91e350	-0.071234345
59	0xbc97b97a	-0.01852106
60	0x3c2a309d	0.010387567
61	0xbdc3fb42	-0.09569408
62	0x3e52a45d	0.20570512
63	0x3c2641d7	0.010147533
64	0xbe840fe9	-0.25793388
65	0xbe48fea1	-0.19628383
66	0xbdcfa741	-0.10139323
67	0x3d15eb28	0.036601216
68	0xbe426c28	-0.18986571
69	0x3cfd2351	0.03090063
70	0xbe2ed273	-0.17072468
71	0xbe1fa41a	-0.15589944
72	0xbe463e49	-0.19359697
73	0x3e4c4c15	0.19950898
74	0x3d6fe0fc	0.05856417
75	0x3e621669	0.22078861
76	0x3e1a921a	0.15094796
77	0xbca0e12e	-0.019638624
78	0xbb9e7114	-0.0048352573
79	0x3da00096	0.07812612
80	0xbee28280	-0.4424019
81	0xbef2163a	-0.47282583
82	0xbeb6ed0a	-0.3572772
83	0xbee7dae8	-0.452842
84	0xbf0c702f	-0.5485868
85	0xbedefa2e	-0.43550247
86	0xbec730f8	-0.38904548
87	0xbef61f47	-0.48070738
88	0x3e225311	0.15852
89	0x3e472bbb	0.19450276
90	0x3d752592	0.059850283
91	0x3dcc3dbf	0.09972715
92	0xbb98abeb	-0.004659166
93	0xbce59b84	-0.028028257
94	0x3b7c800d	0.0038528473
95	0xbbf1728a	-0.0073683904
96	0x3da081fe	0.07837294
97	0xbe2db24f	-0.1696255
98	0x3e15ffb7	0.14648329
99	0x3daac319	0.08337993
100	0xbe36f436	-0.17866597
101	0xbe3405c7	-0.17580329
102	0x3c92034b	0.017823836
103	0xbdf3366f	-0.11875617
104	0xbbabff5b	-0.0052489466
105	0x3c02970c	0.007970583
106	0xbd845fd8	-0.06463593
107	0xbc3f619e	-0.011680989
108	0x3df43b61	0.11925388
109	0xbdc048c2	-0.093888775
110	0x3e1a48c6	0.15066823
111	0xbd0b7ebc	-0.03405641
112	0xbbe0557e	-0.006846129
113	0x3bdf1659	0.006808084
114	0x3d4e3320	0.050341725
115	0xbd81ac3b	-0.063316785
116	0xbe9bc85c	-0.304263
117	0xbe99b9b0	-0.3002448
118	0xbeecbf78	-0.4623983
119	0xbf2075d2	-0.6267978
120	0xbdc84073	-0.09777918
121	0xbbdd06cf	-0.0067451964
122	0xbe7228d9	-0.23648395
123	0x3b4b92e5	0.0031062898
124	0x3e01479a	0.1262497
125	0x3d9efc4c	0.077629656
126	0xbda00f23	-0.07815387
127	0xbe453737	-0.19259344
128	0xbc99956f	-0.018748013
129	0xbddf0b7b	-0.108908616
130	0xbdd07cf5	-0.10180084
131	0xbdd1107f	-0.102082245
132	0xbe2fe68c	-0.1717779
133	0xbe754640	-0.2395258
134	0xbe8309c2	-0.25593382
135	0xbe341559	-0.17586268
136	0x3dc26bbc	0.09493205
137	0xbd7d9f98	-0.06191978
138	0x3e399ece	0.18126985
139	0x3ddc09ef	0.10744082
140	0xbdc34389	-0.09534366
141	0xbdc419b3	-0.09575214
142	0xbdb7237c	-0.08942315
143	0xbd038e74	-0.032118276
144	0xbe63dad4	-0.22251445
145	0xbe25646d	-0.1615159
146	0xbebc05ea	-0.36723262
147	0xbea9ca80	-0.33162308
148	0xbe152220	-0.14563799
149	0xbe20bddf	-0.1569743
150	0xbe84ffad	-0.25976315
151	0xbef0ded4	-0.47045004
152	0xbdea385d	-0.11436532
153	0xbe6bf9d1	-0.23044516
154	0xbdb8fc4c	-0.09032497
155	0xbe0930f8	-0.13397586
156	0xbde6d39f	-0.11270832
157	0x3c7771d5	0.015102823
158	0x3e1c6a1b	0.15274851
159	0xbd886398	-0.06659621
160	0x3e464ef5	0.19366057
161	0x3e07f3eb	0.13276641
162	0xbcf33625	-0.029688904
163	0x3dfb4297	0.122685604
164	0xbdc9bb1f	-0.09850144
165	0xbd7ccb8f	-0.061717566
166	0xbe3adb74	-0.18247777
167	0xbe6084f3	-0.21925716
168	0xbd19ef19	-0.037581537
169	0x3d517895	0.051140387
170	0xbd6d046b	-0.05786554
171	0xbe3b61c1	-0.18299009
172	0x3d6c548c	0.057697818
173	0x3db7a66e	0.08967291
174	0xbe6854bc	-0.22688574
175	0x3be59fd2	0.0070075775
176	0x3e1002b0	0.14063525
177	0x3e3b750a	0.18306366
178	0xbbff01c6	-0.007782194
179	0x3e11a1e4	0.14221913
180	0xbd2e6e2a	-0.04258553
181	0xbe343d4c	-0.17601508
182	0xbf0191fe	-0.5061339
183	0xbef579ed	-0.47944584
184	0x3e0b4b65	0.1360298
185	0x3dcf5eb5	0.10125486
186	0x3da957dd	0.08268712
187	0x3d76402e	0.0601198
188	0x3e28ac4a	0.16471973
189	0x3e65483b	0.22390835
190	0x3dd3ca00	0.10341263
191	0x3e8af46f	0.27139613
192	0xbe33217f	-0.17493246
193	0xbe1ff081	-0.15619089
194	0xbe0443e9	-0.1291653
195	0x3d5a4724	0.0532905
196	0x3e1b2e81	0.15154459
197	0x3ddb47d0	0.107070565
198	0x3d461338	0.048358172
199	0xbc680e95	-0.014163633
200	0x3b111e2e	0.0022143233
201	0xbdac4758	-0.08412045
202	0x3e169af8	0.14707553
203	0x3d519b98	0.051173776
204	0xbd686580	-0.056737423
205	0xbc9760c5	-0.01847876
206	0x3d9a3d6b	0.07531246
207	0xbd64b77a	-0.05583904
208	0x3e697995	0.22800286
209	0x3e9ff82f	0.31244037
210	0x3e377ec8	0.17919457
211	0x3e018129	0.12646927
212	0x3c9774bc	0.01848828
213	0x3df2cc53	0.11855378
214	0x3e5fb9af	0.21848176
215	0x3e68e55e	0.22743747
216	0xbe2637f9	-0.1623229
217	0xbd96c51a	-0.07361813
218	0xbe774550	-0.24147534
219	0xbe125623	-0.14290671
220	0xbe89546a	-0.26822215
221	0xbd00ae28	-0.03141609
222	0xbd807569	-0.06272394
223	0xbd12370c	-0.035697028
224	0x3d0ca9f2	0.03434176
225	0xbe0311b8	-0.12799728
226	0xbe023754	-0.12716419
227	0x3e3846c2	0.17995742
228	0x3cecc75e	0.02890366
229	0x3e0a2560	0.1349082
230	0x3c422c23	0.011851343
231	0x3ea934e5	0.33048168
232	0x3e140680	0.14455605
233	0x3dd0d11f	0.10196137
234	0xbd224a47	-0.039621618
235	0xbe6ffb59	-0.23435725
236	0xbe42c87d	-0.19021793
237	0xbdbd6921	-0.092485674
238	0xbd76476d	-0.06012671
239	0x3db62f42	0.088957325
240	0x3e65b3fc	0.2243194
241	0x3e21571b	0.15755884
242	0x3e8a4fee	0.27014107
243	0x3dc02b78	0.09383291
244	0x3e12c6b0	0.14333606
245	0x3e908696	0.2822768
246	0x3de34069	0.1109627
247	0x3e97205e	0.29516882
248	0xbda57b36	-0.08080141
249	0x3d2e9380	0.042621136
250	0x3d186336	0.03720399
251	0xbc8ed7b8	-0.017436847
252	0xbbd5f05e	-0.006528898
253	0x3c3f49c2	0.0116753
254	0x3c7d3f21	0.015456946
255	0x3d12d5b7	0.035848346

cnn2.bias f4 [8]
0	0x3e09691c	0.13419002
1	0x3e377b51	0.17918135
2	0xbd112f6f	-0.035445627
3	0xbe6fbdb1	-0.23412205
4	0xbe8a1b4a	-0.26973945
5	0x3d7699f8	0.06020543
6	0x3949a139	0.00019228914
7	0x3e3b41ec	0.18286866

cnn3.weight f4 [4, 8, 4]
0	0xbd4db63e	-0.050222628
1	0xbe58f36f	-0.21186613
2	0x3d9069ec	0.07051453
3	0x3e430fba	0.19048968
4	0xbe8390c9	-0.256964
5	0x3c9e25b5	0.01930509
6	0xbe7e87fa	-0.24856558
7	0xbd6a1764	-0.057151213
8	0xbe92d783	-0.28680047
9	0xbebf7b7c	-0.373989
10	0xbec6e99c	-0.38850105
11	0xbe8d8437	-0.27639934
12	0x3e3b814f	0.18311046
13	0x3e99043f	0.29886052
14	0x3e543b5e	0.20725772
15	0xbd51fdb5	-0.051267345
16	0x3e0fe0d7	0.14050613
17	0x3e39042a	0.18067995
18	0x3de32159	0.11090345
19	0xbe46a3fb	-0.19398491
20	0xbf1cde5f	-0.6127681
21	0xbecb4b6a	-0.39705974
22	0xbedb533f	-0.4283695
23	0xbf55c323	-0.8350088
24	0xbe3f5eb4	-0.1868847
25	0xba8208cf	-0.0009920838
26	0xbd0a38f5	-0.033745725
27	0x3d4365e8	0.047704607
28	0xbda81da3	-0.08208778
29	0xbeaebed9	-0.3412998
30	0xbee81ba4	-0.45333588
31	0xbd402e64	-0.04691924
32	0x3e700098	0.23437726
33	0x3ca02483	0.01954866
34	0x3e88438d	0.26614037
35	0x3e97063d	0.29496947
36	0x3c7529b8	0.01496356
37	0x3e38dffa	0.1805419
38	0x3e1eee2e	0.15520546
39	0x3da22d2f	0.07918774
40	0x3d80e576	0.06293766
41	0xbcec7777	-0.028865559
42	0xbda30348	-0.0795961
43	0xbe5f0c48	-0.21782029
44	0xbe048037	-0.12939535
45	0xbe71cd5b	-0.23613493
46	0xbcab6751	-0.020923289
47	0xbebcae37	-0.36851665
48	0xbe8e15ef	-0.2775111
49	0xbe8e03c9	-0.27737263
50	0x3d539363	0.05165423
51	0xbcd77ce6	-0.026304673
52	0x3d8253c7	0.063636355
53	0xbde0ba5f	-0.109730475
54	0xbbba3bc6	-0.005683395
55	0xbdfb6271	-0.122746356
56	0x3e3fefa4	0.1874376
57	0x3e735f6a	0.23766866
58	0x3e5ee324	0.21766335
59	0x3e141f62	0.14465097
60	0x3df804d9	0.121102996
61	0xbdb548e8	-0.088517964
62	0x3e17cb78	0.14823711
63	0x3db940f4	0.09045592
64	0xbd4c1697	-0.04982623
65	0x3dba0844	0.09083608
66	0x3d52edde	0.05149638
67	0x3eb1dc60	0.34738445
68	0xbd0b9a63	-0.03408278
69	0x3dca7230	0.09885061
70	0xbcde9a0c	-0.027173065
71	0x3e27ec8c	0.16398829
72	0x3e193003	0.14959721
73	0x3de38de1	0.11111046
74	0xbdd42889	-0.10359294
75	0xbdedfb9e	-0.11620258
76	0xbd53698d	-0.051614333
77	0x3e08e968	0.13370287
78	0xbdda92a7	-0.10672503
79	0xbc4a6ce6	-0.012355065
80	0xbe1e6e0d	-0.15471669
81	0xbe1990da	-0.14996663
82	0xbdb9d1b8	-0.09073204
83	0xbe1990cb	-0.1499664
84	0x3db058a0	0.08610654
85	0x3d9fe97b	0.07808205
86	0x3e20cc32	0.15702894
87	0xbe549f73	-0.2076395
88	0x3e1ea866	0.15493926
89	0x3e1f3a08	0.15549481
90	0x3c9167ae	0.017749634
91	0x3e9dcae5	0.3081886
92	0xbd3cdb60	-0.04610765
93	0xbe165f63	-0.14684825
94	0xbc2afc0b	-0.010436068
95	0x3e253b08	0.161358
96	0x3ea98048	0.33105683
97	0xbce3520d	-0.027749086
98	0x3d7ebf3d	0.062194098
99	0x3e084d88	0.13310826
100	0x3ef327b0	0.47491217
101	0x3e2afb68	0.16697466
102	0x3d992544	0.07477811
103	0x3e57eae1	0.21085693
104	0xbe95deed	-0.2927164
105	0xbe184bcf	-0.14872669
106	0x3d99f3d3	0.07517209
107	0x3e0cfd3b	0.13768475
108	0xbd4b7d6f	-0.04968017
109	0xbe5ea60d	-0.21743031
110	0x3e092437	0.13392721
111	0xbeab65da	-0.33476144
112	0xbe6285fc	-0.22121423
113	0x3df21ea5	0.11822251
114	0xbdd31286	-0.103062674
115	0xbe8f1922	-0.27948862
116	0x3c8b1782	0.016978983
117	0xbd345aae	-0.04403179
118	0x3dd40d9b	0.103541575
119	0x3dd0e0ff	0.101991646
120	0x3eb76c27	0.358247
121	0x3d6ec88f	0.058296736
122	0x3e964391	0.29348424
123	0x3e895c8f	0.2682843
124	0x3e0ca705	0.13735588
125	0xbd8a4f97	-0.06753462
126	0xbd6e28ed	-0.0581445
127	0x3af66925	0.0018799646

cnn3.bias f4 [4]
0	0xbead0208	-0.33790612
1	0x3e71ed54	0.2362569
2	0xbd9fb9d7	-0.07799118
3	0xbd781979	-0.060571168

goal_embed.weight f4 [10, 3]
0	0x3f47bf8c	0.7802665
1	0x3eb1efa5	0.34753147
2	0xbee27463	-0.4422942
3	0xbe8042ad	-0.2505087
4	0xbf2f78c2	-0.68543637
5	0xbf1740c4	-0.590832
6	0x3f84d7bf	1.037834
7	0xbdd00502	-0.10157205
8	0x3d904372	0.07044114
9	0x3e5c1b17	0.21494709
10	0x3f08ac4e	0.53387916
11	0xbe52bee2	-0.20580629
12	0xbf263fb8	-0.6494098
13	0x3f090bbb	0.53533524
14	0xbb455a75	-0.003011373
15	0xbdbae8cc	-0.09126434
16	0xbf2ed561	-0.6829434
17	0x3f21b1b6	0.6316179
18	0x3ef19f0b	0.47191653
19	0x3f0475aa	0.5174204
20	0x3e8139c6	0.2523939
21	0x3c35c17c	0.011093494
22	0x3f262ac7	0.64909023
23	0xbf208fd9	-0.62719494
24	0xbeaa9d55	-0.3332316
25	0x3e793ebb	0.24340336
26	0x3f1dfe06	0.61715734
27	0x3f2442c1	0.6416436
28	0x3dcd055c	0.10010788
29	0x3f40d356	0.75322473

goal_embed.bias f4 [10]
0	0xbdeffa85	-0.11717705
1	0x3ea943c9	0.33059528
2	0x3db80e08	0.08987051
3	0xbe813eec	-0.25243318
4	0x3d988c63	0.07448652
5	0xbe06002c	-0.13086003
6	0x3b2aea5c	0.002607963
7	0x3e3dd219	0.18537177
8	0x3d2149ed	0.03937714
9	0x3e848650	0.25883722

action_embed.weight f4 [10, 2]
0	0x3ea344ad	0.31888333
1	0x3f080b7e	0.53142536
2	0x3ec18709	0.37798336
3	0xbd8ada22	-0.06779887
4	0xbf083936	-0.53212297
5	0x3ecd84a2	0.40140253
6	0x3eca6289	0.395283
7	0x3f12dd95	0.5736936
8	0xbebfefad	-0.37487546
9	0x3f07bcb3	0.5302231
10	0x3e7a4337	0.24439703
11	0x3f037620	0.5135212
12	0x3ee32263	0.44362172
13	0x3f06807b	0.52539796
14	0xbe0660e1	-0.13122894
15	0xbf1a6c1e	-0.60321224
16	0x3ed3cc37	0.4136674
17	0x3f13c298	0.577188
18	0x3e516539	0.2044877
19	0x3eebfbd3	0.46090564

action_embed.bias f4 [10]
0	0xbf2c935d	-0.6741236
1	0x3f462e2d	0.7741421
2	0x3f079c3d	0.52972776
3	0xbd8959e8	-0.067066014
4	0xbebce3e8	-0.3689263
5	0x3e83b5f6	0.25724763
6	0xbe1aa44a	-0.15101734
7	0xbf4f121a	-0.80886996
8	0xbf3f239f	-0.7466373
9	0xbdbd9c54	-0.09258333

layer_1.weight f4 [400, 36]
0	0xbe4673f3	-0.19380169
1	0x3e5bc71c	0.21462673
2	0x3e667e7f	0.22509192
3	0xbe7bbba7	-0.24583302
4	0x3e3691e2	0.17829087
5	0xbed5b10c	-0.4173664
6	0xbd966886	-0.07344155
7	0x3eac2287	0.33620092
8	0x3eaba1d0	0.3352189
9	0xbd0639ed	-0.032770086
10	0xbe096b04	-0.1341973
11	0xbf0923aa	-0.53570044
12	0x3edbe28d	0.42946282
13	0x3e64fa0c	0.2236101
14	0xbeb3359f	-0.35001847
15	0xbe35bc94	-0.17747718
16	0x3de441cd	0.11145363
17	0xbe47e881	-0.19522287
18	0x3f0c89ce	0.54897773
19	0x3e89d91d	0.26923457
20	0x3b9f0090	0.004852362
21	0x3e882d62	0.26597124
22	0x3e66c352	0.22535446
23	0xbec1cdb7	-0.3785226
24	0xbea24ebe	-0.317007
25	0xbeb3446e	-0.35013145
26	0x3e3e896d	0.18607111
27	0x3dda0f70	0.10647476
28	0x3e72ec96	0.23723063
29	0xbdc85b28	-0.09783012
30	0x3e669a53	0.22519808
31	0xbebcf540	-0.3690586
32	0x3eaddda9	0.33958176
33	0x3e6502a3	0.22364287
34	0xbe08b1fa	-0.13349143
35	0x3e89311e	0.26795286
36	0xbe639aec	-0.22227067
37	0x3da324f5	0.07966033
38	0xbe7dbaf2	-0.24778345
39	0xbd906206	-0.070499465
40	0xbe2962dd	-0.1654162
41	0x3db90a46	0.09035163
42	0x3e2b9f52	0.16759995
43	0x3ca0c806	0.019626629
44	0x3e9decfd	0.3084487
45	0xbe18a591	-0.14906909
46	0xbe8135d3	-0.25236377
47	0xbd8e0e73	-0.0693635
48	0xbea4f4d4	-0.3221804
49	0x3c054846	0.008134907
50	0x3eb27946	0.3485815
51	0x3ec874d3	0.3915163
52	0x3cb5902d	0.022163475
53	0x3eb16514	0.3464743
54	0xbda1d24d	-0.0790144
55	0xbe5e0790	-0.21682572
56	0x3e9534d0	0.29141855
57	0xbeb715d5	-0.35758844
58	0xbef4e197	-0.4782836
59	0x3ec26ae9	0.3797219
60	0xbd8eacab	-0.069665276
61	0xbe93b630	-0.28849936
62	0x3eabf1c7	0.335829
63	0xbe4f374b	-0.20235936
64	0x3d6ec714	0.058295324
65	0xbec85e9c	-0.3913468
66	0x3d0a7413	0.033802103
67	0x3eb3292a	0.34992343
68	0xbdc44bed	-0.09584794
69	0x3d3d4cab	0.046215694
70	0x3afab7af	0.0019128228
71	0x3e4209b9	0.18949021
72	0x3cf289c1	0.029606702
73	0xbec42590	-0.38309908
74	0x3e8be88f	0.27325866
75	0x3e7f0fc5	0.2490836
76	0x3e893a10	0.2680211
77	0x3ec8905c	0.39172637
78	0xbd88420e	-0.06653224
79	0xbd863aa5	-0.06554154
80	0x3e491c47	0.19639693
81	0x3d3fcb86	0.046824954
82	0xbecb5664	-0.39714348
83	0x3e487cf4	0.19578916
84	0x3e2c9508	0.16853726
85	0x3e4e60d3	0.20154123
86	0x3b7bd22b	0.003842483
87	0xbccdc266	-0.02511711
88	0xbeb6f9dd	-0.35737506
89	0xbe8f494d	-0.27985612
90	0x3e847a90	0.25874758
91	0xbe2a1a2a	-0.16611543
92	0x3d7d787b	0.061882477
93	0xbe58b877	-0.21164118
94	0x3ebed1f9	0.3726957
95	0xbe623156	-0.22089133
96	0x3ddfefef	0.109344356
97	0xbe1dcc8e	-0.15410063
98	0x3e89ff1a	0.2695244
99	0x3df75e33	0.12078514
100	0xbdd57b42	-0.104239
101	0x3eadb8fa	0.33930188
102	0xbdbc0a59	-0.09181661
103	0xbe8496af	-0.25896212
104	0xbe177393	-0.14790182
105	0xbea58bfa	-0.32333356
106	0xbe18805d	-0.14892717
107	0xbe93c9bc	-0.2886485
108	0x3e5cf3ea	0.21577421
109	0x3d6355b8	0.05550167
110	0xbef4fedc	-0.47850692
111	0x3dc4ddd4	0.09612623
112	0x3ea2a210	0.3176427
113	0x3dbe7861	0.09300304
114	0xbeaefeb4	-0.34178698
115	0x3eacd852	0.3375879
116	0x3de1580a	0.1100312
117	0xbdd8df45	-0.1058946
118	0xbebecbb0	-0.37264776
119	0x3c89b72e	0.01681098
120	0x3e5b0273	0.21387653
121	0x3e1c86ac	0.15285748
122	0xbe9d31ce	-0.3070206
123	0x3ee5dc7b	0.44894776
124	0x3cd923ec	0.026506387
125	0x3e8f679c	0.28008735
126	0xbeae543c	-0.3404864
127	0x3e42aa5b	0.19010298
128	0x3e314a32	0.1731346
129	0x3dddab4f	0.1082369
130	0xbeadd37d	-0.33950415
131	0x3e695648	0.2278682
132	0xbe911a68	-0.2834046
133	0x3d839d49	0.06426484
134	0xbe95c221	-0.2924967
135	0x3ccad8eb	0.024761638
136	0x3e306192	0.1722472
137	0xbe9c6929	-0.3054898
138	0x3e4bc0df	0.19897793
139	0xbe315cf7	-0.1732062
140	0xbebc626d	-0.36793843
141	0x3eaa85ba	0.3330515
142	0x3d9315df	0.07181906
143	0xbe98cb33	-0.2984253
144	0x3ea57f7f	0.32323834
145	0x3eb4cd58	0.35312915
146	0xbdf5ab47	-0.11995559
147	0x3e545966	0.20737228
148	0xbc44ea20	-0.01201871
149	0x3dc3aad4	0.09554067
150	0x3e762753	0.24038438
151	0x3e80f8c9	0.25189808
152	0x3e38c360	0.1804328
153	0x3d8a5352	0.06754173
154	0x3dcb8d91	0.09939111
155	0xbe267ee1	-0.16259338
156	0xbd9aec46	-0.07564597
157	0xbd3b177b	-0.04567669
158	0xbe4fbc01	-0.20286562
159	0xbcc37aef	-0.02386233
160	0x3e491eeb	0.196407
161	0x3e046857	0.12930427
162	0x3e6aca52	0.22928742
163	0xbe57b960	-0.21066809
164	0xbebbce0a	-0.36680633
165	0x3ef9aa75	0.4876286
166	0xbe706dad	-0.23479338
167	0x3ce786bc	0.028262489
168	0xbe30099c	-0.17191166
169	0xbcc328db	-0.023823192
170	0x3e9896cc	0.2980255
171	0x3d897f1f	0.067136995
172	0xbe00c211	-0.1257403
173	0xbe0a4de8	-0.13506281
174	0xbea0e8e7	-0.3142769
175	0xbda4c4bb	-0.08045336
176	0xbd9d69a7	-0.07686167
177	0x3cc75566	0.024332713
178	0x3e7f649b	0.24940722
179	0x3e41d915	0.18930466
180	0x3ea5eac5	0.32405677
181	0x3d8e6e3a	0.06954618
182	0x3e8c287d	0.2737464
183	0xbd5ac559	-0.05341086
184	0x3e35375c	0.17696899
185	0x3e7e90d5	0.24859937
186	0xbe114e7b	-0.14190094
187	0x3df20189	0.11816699
188	0x3ecb3de5	0.3969566
189	0xbe6e1b6d	-0.2325265
190	0xbe34c8cf	-0.17654727
191	0xbe9dcb8e	-0.30819362
192	0x3ec1fb90	0.3788724
193	0x3ee302cd	0.44338074
194	0x3eb341a7	0.35011026
195	0x3dd7dc29	0.10540039
196	0xbd28f7a5	-0.041251797
197	0xbe87d8cf	-0.265326
198	0x3eef6b46	0.4676153
199	0xbdae9a47	-0.0852552
200	0xbf3f889b	-0.7481782
201	0xbdc0d6d4	-0.09415975
202	0xbe3d0ef2	-0.18462732
203	0xbe3bf35e	-0.18354556
204	0xbec9f59e	-0.39445204
205	0xbed5e8ca	-0.41779166
206	0x3dcf0b53	0.10109582
207	0x3e36ac5d	0.17839189
208	0xbeb0b09b	-0.3450974
209	0x3d7663d1	0.060153786
210	0xbdcb2f09	-0.099210806
211	0x3e49627d	0.19666477
212	0x3d943da4	0.072383195
213	0x3d5334c7	0.051564004
214	0xbe2033e9	-0.15644802
215	0xbd47ad97	-0.048749533
216	0xbd34198c	-0.043969676
217	0xbe6ad31c	-0.22932094
218	0xbc8a3a4c	-0.016873501
219	0x3ee7a7da	0.45245248
220	0xbe85f9bc	-0.26167095
221	0xbf00db8d	-0.5033501
222	0x3eb6d814	0.3571173
223	0xbc55d287	-0.013050682
224	0xbeb8310c	-0.3597492
225	0x3e4ad825	0.19809015
226	0x3ec42a1b	0.38313374
227	0x3c898b40	0.016790032
228	0xbe7a8dc7	-0.24468146
229	0x3e912334	0.2834717
230	0xbe2b65ab	-0.16738002
231	0x3eca0b33	0.3946167
232	0x3e73475b	0.23757689
233	0xbf1084f3	-0.56452864
234	0x3e45aaa2	0.19303373
235	0xbdea2b9e	-0.114341006
236	0x3d82fc0d	0.06395731
237	0x3ec42c82	0.38315207
238	0xbdefa063	-0.11700513
239	0xbe81f6d7	-0.25383636
240	0x3db3a495	0.08771626
241	0x3cbbbcbf	0.02291715
242	0xbecf324c	-0.4046806
243	0x3e669ee7	0.22521554
244	0x3e489741	0.19588949
245	0x3e77d81c	0.24203533
246	0x3e67c14f	0.22632335
247	0xbe0b274e	-0.13589212
248	0x3da8755c	0.082255095
249	0x3d9b54f7	0.07584565
250	0xbdbcec1a	-0.0922472
251	0x3e1055cb	0.14095227
252	0x3e1fa6f5	0.15591033
253	0xbe4070be	-0.18793008
254	0x3e8a02bc	0.2695521
255	0xbdc53752	-0.09629692

layer_1.bias f4 [400]
0	0x3ddb6014	0.10711685
1	0x3bcebbd2	0.006309011
2	0xbdfa0e65	-0.12209777
3	0x3e10794f	0.14108776
4	0xbdc69dab	-0.096980415
5	0x3c3d29cf	0.0115456125
6	0xbdb15005	-0.08657841
7	0x3bb7f1cc	0.005613541
8	0x3d3eb67a	0.046560742
9	0x3d953d52	0.072870865
10	0x3cb5951e	0.022165831
11	0xbddcdb6b	-0.10784038
12	0x3df46abe	0.11934422
13	0xbe262d79	-0.16228284
14	0x3da53ecb	0.080686174
15	0xbdedcdad	-0.11611495
16	0x3e3f6a18	0.18692815
17	0x3d742e81	0.059614662
18	0x3bc56561	0.006024048
19	0x3e090d70	0.13384032
20	0x3dc4a223	0.096012376
21	0xbe0f114d	-0.13971443
22	0x3d644a03	0.055734646
23	0x3d89ce64	0.06728819
24	0xbd87a80c	-0.06623849
25	0x3da81e76	0.08208935
26	0xbd6de073	-0.05807538
27	0x3e1c83fc	0.15284723
28	0x3e2cad6f	0.16863035
29	0x3e074f78	0.13213909
30	0xbc063727	-0.00819186
31	0x3ddf996e	0.10917936
32	0x3d4fec12	0.050762244
33	0xbc7df591	-0.015500442
34	0xbd11e1de	-0.035615794
35	0xbd616654	-0.05502923
36	0x3e4ef3ff	0.20210265
37	0x3e041706	0.12899408
38	0x3e492a1b	0.19644968
39	0xbc313134	-0.010814954
40	0x3da90dc6	0.0825458
41	0x3e1fcb06	0.15604791
42	0xbe4db9d1	-0.20090415
43	0xbddad39b	-0.10684892
44	0x3ce85faf	0.028365938
45	0xbd33cabf	-0.043894526
46	0xbd431c8b	-0.047634643
47	0xbdf4c305	-0.119512595
48	0x3e846d66	0.25864714
49	0x3d3d823d	0.046266783
50	0x3d6e87eb	0.05823509
51	0xbe0bde95	-0.13659127
52	0x3d787a16	0.060663305
53	0x3bd8f533	0.006621027
54	0x3e0e0b9d	0.13871618
55	0xbd40689c	-0.046974763
56	0xbd6b391d	-0.057427514
57	0x3d89b6c5	0.06724314
58	0x3d70feac	0.058836624
59	0x3e085f47	0.13317595
60	0x3e4c784b	0.19967763
61	0xbddcb047	-0.1077581
62	0x3e5cb8b2	0.2155483
63	0x3e2ec003	0.17065434
64	0x3e65bf4f	0.2243626
65	0x3ceb6dea	0.028738935
66	0xbdaf42fa	-0.08557697
67	0xbd2ae986	-0.04172661
68	0x3db54703	0.08851435
69	0x3e54c5d8	0.20778596
70	0xbcd2c861	-0.025730314
71	0xbd221786	-0.039573215
72	0x3dc3513f	0.09536981
73	0x3e05b50e	0.13057348
74	0xbcbfd9e8	-0.023419335
75	0xbbebe182	-0.0071985135
76	0x3d8fc8ec	0.07020745
77	0x3d8c7564	0.06858328
78	0x3e17d40e	0.14826986
79	0xbc062152	-0.008186655
80	0x3d77ea7a	0.06052635
81	0x3c388378	0.011261813
82	0xbdb6e7c1	-0.08930922
83	0xbd948385	-0.07251648
84	0x3d940c02	0.07228853
85	0xbe681d26	-0.22667369
86	0xbdeb3bb6	-0.11485998
87	0x3dae4e48	0.08511025
88	0xbd036048	-0.032074243
89	0xbe059dcf	-0.1304848
90	0x3e0cd3cf	0.13752674
91	0xbe17e108	-0.14831936
92	0x3be7be7c	0.007072268
93	0xbe5cc31a	-0.215588
94	0x3d429bea	0.047511972
95	0x3c756e68	0.014979936
96	0xbc86c18e	-0.016449716
97	0xbc46cdde	-0.0121340435
98	0xbe19610f	-0.14978431
99	0x3e7043cf	0.23463367
100	0xbd62c302	-0.055361755
101	0x3d7e74e6	0.0621232
102	0xbcf32ec8	-0.029685393
103	0xbe27dc50	-0.16392636
104	0x3d030c66	0.031994246
105	0x3e206dfe	0.15666959
106	0xbd994ce8	-0.07485372
107	0x3d61d4ab	0.055134457
108	0xbd0f5fae	-0.035003357
109	0x3e340bc9	0.1758262
110	0xbe43602a	-0.19079652
111	0xbc131583	-0.008977297
112	0xbcf3cb20	-0.029759943
113	0x3e8d7863	0.2763091
114	0x3d2df899	0.04247341
115	0x3e41457f	0.18874167
116	0x3e146c0d	0.14494343
117	0xbd84a641	-0.06477023
118	0x3e53c2ef	0.2067983
119	0xbd23d108	-0.03999427
120	0xbe324f6a	-0.17413107
121	0x3e19b9cd	0.15012284
122	0x3dfd8669	0.12379152
123	0x3ddaa410	0.10675824
124	0xbd00d784	-0.03145553
125	0x3d22d635	0.039755065
126	0xbbdcbeb6	-0.0067366017
127	0x3e1fa016	0.15588412
128	0x3d3f8db1	0.046765987
129	0xbd6ea108	-0.05825904
130	0xbd66173a	-0.056174494
131	0x3d639ec5	0.055571336
132	0x3e3126ec	0.17300004
133	0x3d9372ba	0.07199617
134	0x3e36ca19	0.17850532
135	0x3dc22b66	0.09480934
136	0xbcb79f1c	-0.022414736
137	0xbd293422	-0.041309483
138	0xbd880f7e	-0.0664358
139	0x3d86ea75	0.06587688
140	0xbca4d6cc	-0.020121954
141	0xbcdb0832	-0.026737306
142	0x3dd71ab3	0.10503139
143	0xbc88563b	-0.01664268
144	0xbca5cf85	-0.020240555
145	0x3e1ca092	0.15295628
146	0xbe365566	-0.17806014
147	0xbd113271	-0.035448495
148	0x3e3a36c5	0.18184955
149	0x3cb44232	0.02200422
150	0x3e1b4cc6	0.15166005
151	0xbd368da1	-0.04456866
152	0xbe8797d2	-0.26483017
153	0x3df969ab	0.12178358
154	0xbe075860	-0.13217306
155	0xbcefa67b	-0.029254189
156	0x3d16bfa2	0.03680385
157	0xbd64e254	-0.055879906
158	0x3e122651	0.14272429
159	0xbe2a23a1	-0.16615154
160	0xbd9e3f34	-0.07726899
161	0x3dce7e0b	0.100826345
162	0x3aaa8099	0.0013008296
163	0xbdbbafe6	-0.09164409
164	0x3e538705	0.20656975
165	0x3e0e26c1	0.13881971
166	0xbde2288b	-0.11042889
167	0xbc3e556e	-0.011617048
168	0x3df35873	0.11882105
169	0x3e19bca0	0.15013361
170	0xbd5d0344	-0.053958192
171	0xbbc80bed	-0.0061049373
172	0x3d033f28	0.032042652
173	0xbc82281d	-0.015888268
174	0xbd67cbc8	-0.056590825
175	0x3e1ac8aa	0.1511561
176	0xbd9f0746	-0.07765059
177	0x3d4c36c3	0.049856912
178	0xbe5f4cbd	-0.21806617
179	0x3e05aacb	0.13053434
180	0x3de82f86	0.113371894
181	0xbc60796e	-0.013700826
182	0x3d0173f4	0.031604722
183	0xbdc0a5fa	-0.094066575
184	0x3e1d3423	0.1535192
185	0x3d53e56f	0.051732477
186	0x3e900ecd	0.28136292
187	0xbc4bf045	-0.012447421
188	0xbde9bd2b	-0.11413034
189	0x3e36bf6a	0.17846456
190	0xbab39fb3	-0.001370421
191	0xbddb806b	-0.10717853
192	0xbe032fcc	-0.12811202
193	0x3e40a444	0.18812662
194	0x3da67c1d	0.081291415
195	0xbcdc9fcf	-0.026931671
196	0xbe0adf8b	-0.13561837
197	0xbda7bf9f	-0.08190846
198	0xbda33844	-0.07969716
199	0x3e148aa4	0.14506012
200	0x3e3a93aa	0.18220392
201	0xbe10782b	-0.1410834
202	0xbdaef4e4	-0.08542803
203	0x3e151bd4	0.14561397
204	0x3de208f9	0.11036868
205	0xbe60b962	-0.21945718
206	0xbe6848f4	-0.2268408
207	0x3e70c443	0.23512368
208	0xbd5ab8fb	-0.053399067
209	0x3c0cae5d	0.008586493
210	0xbd8fc579	-0.07020087
211	0x3caded3f	0.021231292
212	0x3dbf42bf	0.09338903
213	0xbb8c3640	-0.004278928
214	0x3e009f87	0.12560855
215	0x3de8b903	0.11363413
216	0x3dc41a5d	0.09575341
217	0xbd3e55c4	-0.04646851
218	0xbae4effc	-0.001746654
219	0xbe06f344	-0.13178736
220	0xbd876fd7	-0.06613129
221	0x3de2cb42	0.110739246
222	0xbd34d8fd	-0.04415225
223	0x3d082ca5	0.0332457
224	0x3d69c153	0.057069134
225	0x3e54dd36	0.2078751
226	0xbba2a6a9	-0.004963715
227	0xbd973114	-0.07382408
228	0xbe2b040b	-0.16700761
229	0x3e3dce6e	0.18535778
230	0x3d25e414	0.040500715
231	0x3d4c85f2	0.049932428
232	0x3e3b1513	0.18269758
233	0xbde81540	-0.11332178
234	0xbe1e955c	-0.15486664
235	0xbe3de5cc	-0.18544692
236	0x3e0990a9	0.1343409
237	0xba69beb8	-0.0008916664
238	0xbdfb7731	-0.12278593
239	0xbd99ddfe	-0.07513045
240	0xbdaec057	-0.0853278
241	0xbd13ff01	-0.036131863
242	0x3e0053b0	0.12531924
243	0xbca2c5f9	-0.019869791
244	0x3e48306d	0.19549723
245	0x3d724c05	0.05915453
246	0x3e46c13c	0.1940965
247	0x3d6eb1cf	0.05827504
248	0x3d90ac0b	0.070640646
249	0xbe2ebaea	-0.1706349
250	0xbd6d6002	-0.05795289
251	0xbcdee9c3	-0.027211076
252	0xbda44165	-0.080202855
253	0x3d31bcbf	0.043392893
254	0xbe32ce76	-0.17461571
255	0x3c517c51	0.012785987

layer_2.weight f4 [300, 400]
0	0xbce16542	-0.027514104
1	0xbcb05abc	-0.02152764
2	0x3d98f195	0.07467953
3	0xbdaef4aa	-0.0854276
4	0xbd11aeae	-0.03556698
5	0x3e18d53c	0.14925092
6	0xbdf2c3c5	-0.11853746
7	0x3d50af58	0.05094847
8	0x3da9395a	0.08262892
9	0xbe26ff69	-0.16308369
10	0xbd965d3f	-0.07342004
11	0xbd9e5fc6	-0.07733111
12	0xbcff1349	-0.031137126
13	0xbdb34fd6	-0.08755462
14	0x3d8215b5	0.063517965
15	0xbe042dd8	-0.12908113
16	0xbe03bcb1	-0.12864949
17	0x3d0d1177	0.034440484
18	0xbc1870f9	-0.0093042785
19	0xbdf0f19a	-0.11764832
20	0x3e123083	0.14276318
21	0xbcc44d86	-0.023962747
22	0x3d349d93	0.044095587
23	0xbda27a99	-0.0793354
24	0xbe130e2b	-0.14360873
25	0x3cc20d3c	0.023687951
26	0x3e11fa3e	0.14255616
27	0x3d31aece	0.043379597
28	0xbc25e815	-0.010126133
29	0xbde0f824	-0.10984829
30	0xbb9eb2aa	-0.0048430758
31	0xbcf0bfe9	-0.029388385
32	0x3cee34a3	0.029077834
33	0xbd71aa32	-0.0590002
34	0x3a9e10ca	0.0012059447
35	0xbd98fd3e	-0.07470177
36	0xbd9c37e6	-0.07627849
37	0xbd88cbc4	-0.0667949
38	0x3e7f3829	0.24923767
39	0x3db21254	0.08694902
40	0xbdcdcaa7	-0.100484185
41	0x3dc4b4fa	0.09604831
42	0x3d589cbb	0.052883845
43	0x3dc8aa9d	0.09798167
44	0x3e00d772	0.12582186
45	0x3def3ae4	0.11681154
46	0xbe0a3a19	-0.13498725
47	0x3da53ea4	0.080685884
48	0xbe5c17fe	-0.21493527
49	0xbe172ca9	-0.1476313
50	0x3cff4090	0.031158715
51	0x3d98641d	0.0744097
52	0xbcb52280	-0.022111177
53	0xbe1ed6fd	-0.15511699
54	0x3dbd7785	0.09251312
55	0x3e1998f2	0.1499975
56	0xbd1622fe	-0.036654465
57	0x3dcf32a1	0.101170786
58	0x3d409ef2	0.047026582
59	0xbdaef16f	-0.085421436
60	0x3dd955b0	0.10612047
61	0x3d0acb2b	0.033885162
62	0xbbcd4d61	-0.006265328
63	0x3d7440a4	0.05963196
64	0xbe380320	-0.17969942
65	0x3d94b58d	0.072611906
66	0xbea06e96	-0.3133437
67	0xbd75fa39	-0.060053084
68	0x3dc26222	0.094913736
69	0x3d2aa2d5	0.041659195
70	0xbe31d8cf	-0.17367862
71	0x3db81a2e	0.089893684
72	0xbd67f9a9	-0.05663458
73	0x3d7838e0	0.060601115
74	0x3e183a66	0.14866027
75	0xbe7c7585	-0.24654205
76	0x3db92ac3	0.09041359
77	0x3e1068bb	0.14102452
78	0x3d2a7bff	0.04162216
79	0x3e6bccd8	0.2302736
80	0x3e297c9e	0.16551444
81	0x3d638688	0.05554822
82	0x3dde8d9b	0.10866853
83	0xbd3bfff2	-0.045898385
84	0xbc6f0dde	-0.014590709
85	0x3e15a686	0.14614305
86	0x3d5cc0ed	0.053894926
87	0xbd8738e7	-0.0660265
88	0xbd457a08	-0.04821208
89	0xbd978c1b	-0.0739977
90	0xbd19c22e	-0.0375387
91	0xbdb103ed	-0.08643327
92	0x3c052381	0.008126141
93	0x3d58015e	0.05273568
94	0x3d399448	0.045307428
95	0xbba0d8b4	-0.0049086455
96	0xbd131eec	-0.03591816
97	0x3dcaa52a	0.09894784
98	0x3cbff97c	0.023434393
99	0x3d4c6fad	0.04991119
100	0x3d71f772	0.059073873
101	0x3e175261	0.14777519
102	0xbdf981b0	-0.12182939
103	0xbca9c3e3	-0.020723289
104	0xbd9e7ac5	-0.0773826
105	0x3e32afde	0.174499
106	0xbdb23d72	-0.08703126
107	0xbdfe0ae9	-0.12404425
108	0x3d4ec855	0.05048402
109	0xbdf9292f	-0.12166058
110	0x3d6f9587	0.05849221
111	0xbdd31985	-0.10307602
112	0xbd5bcad0	-0.053660214
113	0x3d8acbd9	0.06777162
114	0x3c6e15c3	0.014531556
115	0xbe1d87ce	-0.15383837
116	0x3d4e67bd	0.0503919
117	0xbd7f207b	-0.062286835
118	0xbd5e71ef	-0.054307874
119	0x3de48a1f	0.11159157
120	0xbd4cb4e7	-0.04997721
121	0x3c528357	0.012848697
122	0xbe6390dc	-0.22223228
123	0x3d8869dd	0.06660817
124	0x3dc652ab	0.096837364
125	0xbd610e56	-0.054945312
126	0xbd95a269	-0.07306368
127	0x3ba1d853	0.004939118
128	0xbd313c5a	-0.043270446
129	0xbd5152f2	-0.051104493
130	0xbe36efd5	-0.17864926
131	0x3d68138e	0.056659274
132	0xbde04c74	-0.10952082
133	0xbd59f8c4	-0.053215757
134	0xbc5a9e20	-0.013343364
135	0xbe3bf412	-0.18354824
136	0xbccab092	-0.024742398
137	0x3d9c0835	0.07618753
138	0x3d8649e4	0.06557062
139	0xbdf0bbd7	-0.117545776
140	0x3e08dfd2	0.1336663
141	0xbe634bfe	-0.22196957
142	0xbe02eeba	-0.1278638
143	0xbcd3e862	-0.025867645
144	0xbc38d720	-0.011281759
145	0xbcbc90fd	-0.023018355
146	0x3d2a7d81	0.041623596
147	0x3a75b021	0.00093722536
148	0x3b9491ae	0.004533968
149	0xbda06240	-0.0783124
150	0x3d70668c	0.058691546
151	0xbdc3635e	-0.09540437
152	0xbe03a4fe	-0.12855908
153	0xbdd56ec0	-0.104215145
154	0x3cf0a827	0.029377056
155	0xbdff822e	-0.12476002
156	0x3dc30f08	0.09524351
157	0x3ca2ca12	0.019871745
158	0x3d337d94	0.043820933
159	0xbcb4a3fb	-0.022050848
160	0x3dca9e18	0.09893435
161	0xbe156d64	-0.1459251
162	0xbc4b828b	-0.012421261
163	0xbd33f4cc	-0.04393463
164	0xbe1357b0	-0.14388919
165	0xbca53ac8	-0.02016963
166	0x3d75d7e0	0.060020328
167	0xbc08c472	-0.008347617
168	0x3bb46a38	0.0055058263
169	0xbe1b97c9	-0.1519462
170	0x3e4e6e34	0.20159227
171	0x3d022e02	0.031782158
172	0xbd9218e3	-0.07133653
173	0x3c48a6c7	0.012246794
174	0x3e4d2780	0.200346
175	0xbe2c42e1	-0.16822387
176	0x3da90506	0.08252911
177	0x3d94a184	0.07257369
178	0xbc6144c8	-0.013749309
179	0xbdf69711	-0.120405324
180	0xbe495998	-0.19663084
181	0xbd2d9cc8	-0.042385846
182	0x3de930be	0.1138625
183	0x3dd1c1ea	0.10242064
184	0xbdc80b17	-0.0976774
185	0x3d595b27	0.053065445
186	0xbe583096	-0.21112284
187	0x3cfa45f1	0.030550929
188	0xbe0fb1fe	-0.14032742
189	0xbc5fe2ad	-0.013664884
190	0x3dc4baa9	0.09605915
191	0xbcc40633	-0.023928737
192	0x3db66a9e	0.08907054
193	0xbd221ec0	-0.039580107
194	0x3d6cb2de	0.05778777
195	0xbd2a26dc	-0.041540965
196	0xbe3d49cf	-0.18485187
197	0xbd35defc	-0.044402108
198	0xbcd9a64a	-0.02656855
199	0x3cf0880a	0.029361743
200	0xbd66be45	-0.0563338
201	0xbdd49c5d	-0.103813864
202	0x3dc630d9	0.09677286
203	0xbdf912eb	-0.121618114
204	0xbe1eae6c	-0.15496224
205	0x3dd5240e	0.104072675
206	0xbcdbed39	-0.026846515
207	0xbd3f4041	-0.046692137
208	0xbdb2ba9d	-0.08727
209	0xbc6c8c51	-0.014437751
210	0x3de20b60	0.11037326
211	0x3e2e1e09	0.17003645
212	0xbda1d0dd	-0.07901166
213	0xbe1cb02e	-0.15301582
214	0xbeec9d88	-0.46213937
215	0x3d811347	0.06302505
216	0xbdfcadc7	-0.12337833
217	0xbddf234f	-0.108954065
218	0xbe7b12ff	-0.24518965
219	0x3e1ea6cd	0.15493317
220	0x3baffae9	0.005370487
221	0x3df6de5d	0.12054131
222	0xbe00fd26	-0.12596568
223	0x3de01be8	0.10942823
224	0xbe253de9	-0.16136898
225	0x3d92a619	0.07160587
226	0xbc649571	-0.013951645
227	0x3c77ae8f	0.015117302
228	0x3b2553a9	0.0025226867
229	0xbe4b11c7	-0.19831
230	0xbd3a2774	-0.04544778
231	0xbd7b06cd	-0.061285783
232	0xbd3832af	-0.04497021
233	0x3d19b282	0.037523754
234	0xbbcf9324	-0.006334679
235	0xbd9a7637	-0.07542079
236	0x3d175385	0.036944885
237	0xbd8c9cf4	-0.06865874
238	0x3d7f4d64	0.062329665
239	0x3d6f39b2	0.058404632
240	0x3da8c47a	0.082406
241	0xbdec39e6	-0.11534481
242	0xbdd7e6e3	-0.10542085
243	0x3de8a1dd	0.11358998
244	0xbe23b1f6	-0.15985855
245	0x3c86671b	0.016406586
246	0x3e1e6832	0.15469435
247	0x3d328c4f	0.04359084
248	0x3cedfc84	0.029051073
249	0xbd8996d2	-0.0671822
250	0xbd8d5628	-0.069011986
251	0xbd229d7f	-0.03970098
252	0xbe650b7c	-0.22367662
253	0xbe4c3337	-0.19941412
254	0xbe19ce95	-0.15020211
255	0x3e0dfeba	0.13866702

layer_2.bias f4 [300]
0	0xbcb05217	-0.021523518
1	0xbd85b077	-0.065277986
2	0x3d00f5ca	0.031484403
3	0xbcbd718d	-0.023125434
4	0x3cace6d0	0.021106154
5	0xbca1eca8	-0.019766167
6	0x3c1d24a0	0.009591252
7	0xbb089c08	-0.0020844955
8	0xbd165ac6	-0.036707662
9	0xbd284b3e	-0.04108738
10	0x3bec6e23	0.0072152778
11	0xbc80b9d8	-0.015713617
12	0x3ce0c250	0.027436405
13	0x3b9fcaf5	0.0048764893
14	0x3b0488fb	0.0020223248
15	0xbd069a0e	-0.03286176
16	0x3d48b395	0.048999388
17	0x39931fd3	0.00028061736
18	0xbcd437f9	-0.025905596
19	0xbbe2b24d	-0.0069182278
20	0xbbe0f460	-0.0068650693
21	0xbaeb28e5	-0.0017941265
22	0x3d177d51	0.036984745
23	0xbac1b2a9	-0.0014777976
24	0xbd7e1e32	-0.062040515
25	0x3d100489	0.035160575
26	0xbd5dbbf0	-0.05413431
27	0xbcc7f41e	-0.024408396
28	0x3d13b0b4	0.03605719
29	0x3d3d5c71	0.046230737
30	0xbd194b63	-0.03742541
31	0x3bc448ad	0.005990109
32	0xbd090894	-0.033455446
33	0x3cfc1f89	0.030776756
34	0xbc8cd8d3	-0.017193234
35	0xbd892db4	-0.0669817
36	0x3d2a3ed9	0.041563842
37	0x3b90442c	0.004402658
38	0x3b8d6858	0.0043154173
39	0x3d298d4d	0.04139452
40	0xbc1905b1	-0.009339736
41	0xbd1b72e6	-0.037951373
42	0x3d78ad22	0.060711987
43	0x3d25e40e	0.040500693
44	0x3d0127dd	0.031532157
45	0xbb0ad439	-0.0021183623
46	0xbd333c72	-0.043758817
47	0x3d65f935	0.056145865
48	0xbce8638d	-0.028367782
49	0xbd536c5d	-0.051617015
50	0x3c935de2	0.017989103
51	0x3d063e82	0.032774456
52	0xbcf5c8f9	-0.030003058
53	0xbc0660a3	-0.008201751
54	0x3c4f5a4d	0.012655807
55	0x3d113f0a	0.03546051
56	0x3d0ecf45	0.034865636
57	0xbc3f5f89	-0.011680492
58	0x3ca530e8	0.020164922
59	0x3c973db5	0.018462041
60	0x3c98d7cf	0.018657593
61	0x3b52f775	0.0032190953
62	0xbc9f845a	-0.01947229
63	0xbd528102	-0.051392563
64	0xbd1c1fa5	-0.038116116
65	0x3c1c153e	0.009526549
66	0xbd76e181	-0.06027365
67	0x3cb0c0ef	0.021576373
68	0x3c346bbe	0.011012016
69	0x3c9861dc	0.01860135
70	0xbd2c3bf0	-0.04204935
71	0xbca22e72	-0.019797537
72	0xbc78cf96	-0.015186211
73	0xbcc3315b	-0.023827245
74	0x3cbe2b02	0.023213867
75	0xbd650136	-0.055909358
76	0xbd9bf529	-0.0761512
77	0xbd69e99b	-0.05710755
78	0xbd444866	-0.047920607
79	0x3ce38387	0.027772678
80	0xbcd81319	-0.026376294
81	0x3b21073b	0.002457096
82	0xbc73459b	-0.014848138
83	0x3d4ab3d6	0.04948791
84	0xbcfe9034	-0.03107462
85	0x3d1ab4b1	0.037769977
86	0x3cdb6dfe	0.026785847
87	0x3d063175	0.03276201
88	0x3b4b3255	0.0031005342
89	0x3d0e525e	0.03474652
90	0x3ce9c0cb	0.028534314
91	0x3d334dbe	0.043775313
92	0xbd76f7d5	-0.060294945
93	0xbd891757	-0.06693905
94	0xbca837f8	-0.0205345
95	0xbd788d02	-0.06068135
96	0xbd084146	-0.033265375
97	0xbd93fc73	-0.07225885
98	0x3d55c08c	0.05218558
99	0xbcad80b5	-0.021179536
100	0xbd29bc91	-0.041439597
101	0xbd986d15	-0.07442681
102	0xbcfe8ea4	-0.031073876
103	0x3b7032d8	0.00366514
104	0xbcb867a0	-0.02251035
105	0x3b36c966	0.002789104
106	0x3cc2426b	0.023713311
107	0x3c6d7662	0.014493557
108	0xbda62623	-0.08112743
109	0x3cab5a11	0.02091697
110	0x3c168c0f	0.009188666
111	0x3c92e224	0.017930098
112	0xbb69eb15	-0.0035693098
113	0x3d4846c8	0.048895627
114	0xbd10e6f9	-0.035376523
115	0xbd4dcaae	-0.05024212
116	0x3d5551cc	0.05207996
117	0xbb8a056d	-0.0042120726
118	0xbce3ddfa	-0.027815808
119	0xbd3a0b2f	-0.04542082
120	0xba571d34	-0.0008205951
121	0x3c4d44be	0.012528596
122	0xbcd74b74	-0.026281096
123	0xbbbaf099	-0.005704951
124	0xbd2e4364	-0.042544737
125	0x3bdbfa39	0.0067131785
126	0x3d3b01cf	0.04565602
127	0x3c225110	0.009907022
128	0xbce70441	-0.02820027
129	0x3cfb918a	0.030709047
130	0xbd006c6b	-0.031353395
131	0xb90eb150	-0.0001360823
132	0xbcf2dc43	-0.029646045
133	0xbcb58e60	-0.022162616
134	0x3c9d43ba	0.019197334
135	0x3d4bf343	0.04979254
136	0xbcd6ecc7	-0.026235951
137	0xbc511608	-0.0127616
138	0x3c2e207c	0.010627862
139	0xbcf092db	-0.029366901
140	0x3c802b7d	0.015645737
141	0xbd1eefbb	-0.038802844
142	0x3d042fb1	0.032272045
143	0x39a80e22	0.00032053987
144	0x3c8afb45	0.016965518
145	0x3d2b429b	0.041811567
146	0xbcb1482b	-0.021640858
147	0x3d48fa61	0.049066905
148	0x3cbccca4	0.023046799
149	0x3cdb4554	0.026766457
150	0x3d0ebbe6	0.034847163
151	0x3c23925f	0.009983628
152	0xbc634367	-0.01387105
153	0x3bb578d8	0.0055380873
154	0x3c8f55fb	0.017497053
155	0xbd416bf5	-0.047222096
156	0xbbd92905	-0.0066272044
157	0x3d03e334	0.0321991
158	0xbc759f3b	-0.014991577
159	0x3c1758c3	0.009237471
160	0xbca3b90c	-0.019985698
161	0xbd1783d0	-0.03699094
162	0x3c144879	0.009050482
163	0xbd8461c1	-0.064639576
164	0x3d468289	0.04846433
165	0x3c9adadb	0.018903187
166	0xbd58b6e5	-0.052908797
167	0x3cb299cf	0.021801857
168	0xbce41518	-0.02784209
169	0xbbdb1fc1	-0.006687135
170	0xbb4bb28a	-0.003108176
171	0x3bc6007f	0.0060425396
172	0xbd278d5b	-0.04090629
173	0xbd0f32bb	-0.03496049
174	0xbd025233	-0.031816673
175	0xbd1547af	-0.036445316
176	0xbced7738	-0.028987512
177	0x3d3e8b59	0.04651961
178	0x3c86e05b	0.016464403
179	0xbc9e255e	-0.019304927
180	0x3c1f433f	0.009720623
181	0x3d590a0c	0.052988097
182	0xbd31c7a4	-0.043403283
183	0xbc93d706	-0.018046867
184	0xb98b9f87	-0.00026631003
185	0xbb954e78	-0.0045564733
186	0xbb9a49c3	-0.0047085
187	0x3a80d356	0.0009828608
188	0x3d4d6e79	0.050154183
189	0xbd2c9a44	-0.042139307
190	0x3ad77001	0.0016436578
191	0xbd8bbeec	-0.06823525
192	0xbbf58f77	-0.007493909
193	0xbd417b78	-0.04723689
194	0xbd83bb3e	-0.06432198
195	0x3d0ece16	0.034864508
196	0xbcde9916	-0.027172606
197	0xbcfda4e2	-0.030962411
198	0x3d166a2c	0.036722347
199	0xbd89bcf9	-0.06725497
200	0x3cb7ab09	0.022420423
201	0xbcdcadfb	-0.02693843
202	0xbd7a00dc	-0.061035976
203	0xbceafdb5	-0.02868543
204	0x3c20752f	0.009793564
205	0xbd955ea5	-0.07293443
206	0xbcde138a	-0.027108926
207	0x3cf022fa	0.029313553
208	0xbc2ccca5	-0.010546838
209	0xbc580503	-0.013184789
210	0x3d08223a	0.033235766
211	0xbd68594c	-0.056725785
212	0xbd5cf0ce	-0.053940587
213	0x3c3ededb	0.011649813
214	0x3c705564	0.014668796
215	0xbcf16be5	-0.029470393
216	0xbcff50e6	-0.031166505
217	0x3d28e281	0.041231636
218	0x3cb4b6be	0.022059795
219	0x3c97d4f5	0.018534163
220	0xbd45e988	-0.048318416
221	0xbd953a8a	-0.07286556
222	0x3c2dcd64	0.010608051
223	0xbbe64361	-0.007027075
224	0xbd13b236	-0.036058627
225	0xbd09b589	-0.03362039
226	0x3d08ac36	0.03336736
227	0xbd258d1e	-0.040417783
228	0xbd9b82a6	-0.075932786
229	0x3d355bda	0.04427705
230	0xbc14c6fb	-0.009080644
231	0x3d0a4662	0.03375853
232	0x3c8727c8	0.016498461
233	0x3b519a80	0.0031982958
234	0xbc876d71	-0.016531678
235	0x3d27e181	0.04098654
236	0x3cec0bd1	0.028814228
237	0xbc0e6858	-0.00869187
238	0x3be0134a	0.006838237
239	0x3d3fb259	0.046800945
240	0x3cb758ad	0.022381151
241	0x3d2b1ad0	0.041773617
242	0x3ae223e5	0.0017253129
243	0x3c09cde5	0.0084109055
244	0xbc53ae25	-0.012919937
245	0xbcc750d7	-0.02433054
246	0xbd7b8ce1	-0.06141365
247	0xbb85b499	-0.004080367
248	0x39830e7c	0.0002499706
249	0xbcabef73	-0.020988202
250	0x3c2b473a	0.010453993
251	0x3c279f3d	0.010230836
252	0xbc648249	-0.013947078
253	0x3d63db38	0.055628985
254	0x3c350d76	0.011050573
255	0xbd42a6f0	-0.047522485

layer_3.weight f4 [2, 300]
0	0x3e395fac	0.18102902
1	0xbea9240d	-0.33035317
2	0xbe059e54	-0.13048679
3	0xbdc649ff	-0.096820824
4	0x3c648cda	0.013949597
5	0xbdd18792	-0.10230936
6	0x3d890c3a	0.06691785
7	0x3d5ce3a1	0.05392802
8	0x3cf12c72	0.029440138
9	0xbf076445	-0.52887374
10	0x3cafbc2c	0.021452032
11	0xbdc83f25	-0.09777669
12	0x3a8f4d98	0.0010933159
13	0x3ea5ecd9	0.32407263
14	0x3e44b9dd	0.19211526
15	0x3e36c611	0.17848994
16	0x3de7c1ca	0.11316259
17	0xbdcb5aa5	-0.099293984
18	0xbd9a438d	-0.075324155
19	0x3e7dfade	0.2480273
20	0x3bb1eb3a	0.0054296525
21	0xbdb244b4	-0.0870451
22	0x3e23998a	0.15976539
23	0xbe9b774f	-0.30364463
24	0x3e2de4e5	0.16981848
25	0x3dcd53fa	0.10025783
26	0x3e3dc47b	0.18531983
27	0x3ecb6080	0.3972206
28	0x3e9b3e3a	0.30320913
29	0xbe20e3f3	-0.15711956
30	0x3dfbc65d	0.12293694
31	0x3e653bae	0.22386047
32	0xbe44808b	-0.1918966
33	0x3e4f9e7b	0.20275299
34	0xbd952809	-0.07283027
35	0xbe0db450	-0.13838315
36	0x3e5fa8a0	0.21841669
37	0x3d31deb7	0.043425288
38	0x3d1262d9	0.0357388
39	0xbe875a30	-0.26435995
40	0x3e1b0968	0.15140307
41	0xbdada639	-0.0847897
42	0xbe1ea41f	-0.15492295
43	0x3d66ee6d	0.056379724
44	0xbe6ecf23	-0.23321204
45	0x3db806af	0.0898565
46	0x3e33b8e3	0.17550997
47	0xbbee2620	-0.0072677284
48	0xbd592e03	-0.053022396
49	0x3def5a1d	0.116871096
50	0x3da6d998	0.081469715
51	0xbe2ba633	-0.16762619
52	0x3c0b500c	0.008502971
53	0xbe32545c	-0.17414993
54	0x3e7effbe	0.24902245
55	0x3d961adb	0.07329341
56	0x3e42ccf3	0.19023494
57	0xbd3fe956	-0.046853386
58	0x3dc797d9	0.097457595
59	0xbe8778d1	-0.26459363
60	0xbc8b8cdd	-0.017034942
61	0xbe9e1f46	-0.30883235
62	0x3dcaa280	0.09894276
63	0xbf22783b	-0.6346471
64	0x3e10b4ab	0.1413142
65	0x3d523bbb	0.051326495
66	0x3d2f243a	0.042759158
67	0x3e334da9	0.17510094
68	0xbdf36316	-0.118841335
69	0xbdcbccae	-0.09951149
70	0x3c168025	0.0091858255
71	0xbe725c24	-0.23667961
72	0x3d86ab2c	0.06575617
73	0x3c63b025	0.013896977
74	0x3dfbb221	0.12289835
75	0xbdafeec6	-0.08590464
76	0xbeb7a65d	-0.35869113
77	0x3f0a2b1e	0.5397204
78	0xbeadfc6f	-0.33981654
79	0xbdcf58e6	-0.10124378
80	0xbd5291cb	-0.05140857
81	0x3e01e313	0.12684278
82	0xbc154dfe	-0.009112833
83	0xbe8d8d86	-0.27647036
84	0xbdcaf448	-0.09909874
85	0xbe0f271e	-0.13979766
86	0xbe4cbaf2	-0.19993189
87	0xbcc2e2b2	-0.023789737
88	0xbda946a7	-0.08265429
89	0xbcda34c9	-0.026636498
90	0xbe1cefa9	-0.15325798
91	0x3e553ac7	0.20823203
92	0x3dc16ab1	0.09444178
93	0x3d08123d	0.03322052
94	0xbdf846a4	-0.12122849
95	0xbef2bbd2	-0.4740892
96	0x3df6e2dd	0.120549895
97	0xbda13d7f	-0.078730576
98	0x3ea20e91	0.31651738
99	0xbc467a94	-0.012114186
100	0x3e047884	0.12936598
101	0x3d469021	0.048477296
102	0xbed60212	-0.41798455
103	0x3e0bfca6	0.13670596
104	0xbe8e5cc6	-0.27805156
105	0xbd907961	-0.07054401
106	0x3e9a54ec	0.30142915
107	0xbe29def6	-0.16588959
108	0xbebd790e	-0.3700642
109	0x3cff57f0	0.031169862
110	0x3e3c2e76	0.18377098
111	0xbe409763	-0.1880775
112	0x3e548791	0.2075484
113	0xbc757872	-0.01498233
114	0xbde7c6e1	-0.1131723
115	0x3d4864e6	0.04892435
116	0xbe92ecaf	-0.286962
117	0xbd510dbb	-0.051038485
118	0xbef89c7f	-0.48556897
119	0xbd218bcb	-0.039439958
120	0x3d564f9f	0.052322026
121	0x3cb19fb3	0.021682596
122	0x3d8fdaf8	0.07024187
123	0xbf086c76	-0.532905
124	0xbc863135	-0.016380886
125	0xbe899829	-0.268739
126	0x3eace312	0.3376699
127	0xbf438bd6	-0.7638525
128	0x3eebb5b2	0.4603706
129	0x3e13da3e	0.14438722
130	0x3ddfa866	0.10920791
131	0xbe1826b7	-0.14858519
132	0x3eb5f1c6	0.3553602
133	0x3e3ffe91	0.18749453
134	0x3e2a4c95	0.16630776
135	0x3d70c896	0.058785044
136	0x3c6146ed	0.01374982
137	0x3d9a5fde	0.075378165
138	0x3dd8c76d	0.105849124
139	0xbe713e63	-0.23558955
140	0xbe0e77d6	-0.13912901
141	0x3e44e6d0	0.19228673
142	0x3d678187	0.05652001
143	0xbdd22539	-0.10261006
144	0x3e435d14	0.19078475
145	0xbe04e4ff	-0.1297798
146	0x3de2b8fc	0.11070439
147	0xbcbf19bb	-0.023327699
148	0xbe6ba5c7	-0.23012458
149	0xbd9fff8b	-0.07812413
150	0xbe39fc23	-0.18162589
151	0x3e8088eb	0.2510446
152	0xbde59e05	-0.112117805
153	0xbcf7e144	-0.030258782
154	0x3e31328c	0.17304438
155	0x3e1c6ab4	0.15275079
156	0xb9cbb7ea	-0.00038856204
157	0xbda1cc01	-0.07900239
158	0x3e31e059	0.17370738
159	0x3d83e5aa	0.06440289
160	0x3dc4ae09	0.09603507
161	0x3ea00924	0.31256974
162	0x3cdfffd8	0.027343675
163	0x3dba86c0	0.09107733
164	0xbe792c9e	-0.24333426
165	0xbca889c7	-0.02057351
166	0xbc547e2a	-0.012969533
167	0x3e0ce61d	0.13759656
168	0x3c90aec7	0.017661465
169	0x3e2adf64	0.1668678
170	0xbe1c82ea	-0.15284315
171	0xbe6f767a	-0.23385039
172	0x3e0bd980	0.13657188
173	0xbea5c98b	-0.32380328
174	0xbea83611	-0.3285375
175	0x3d2d2521	0.042271737
176	0x3dcc92d5	0.099889435
177	0x3de5d4a8	0.112222016
178	0xbe0bb62d	-0.13643713
179	0x3e4d901d	0.20074506
180	0x3e398dbf	0.18120478
181	0xbe8d619c	-0.27613533
182	0xbe3fec16	-0.18742403
183	0xbe2e2228	-0.17005217
184	0x3d55c330	0.0521881
185	0xbd2a07e8	-0.041511446
186	0x3b79aed3	0.0038098588
187	0xbea39025	-0.3194591
188	0x3e594d32	0.21220854
189	0xbeace3bc	-0.33767498
190	0xbe7e8a2d	-0.24857397
191	0xbe67684b	-0.22598378
192	0x3e18a992	0.14908436
193	0x3e40935d	0.18806215
194	0xbe01890a	-0.12649933
195	0xbe8956eb	-0.26824126
196	0xbd76b4a4	-0.060230866
197	0xbd269a35	-0.040674407
198	0xbdc624c5	-0.09674982
199	0xbe962524	-0.2932521
200	0x3dbb8dab	0.091578804
201	0x3e0a7037	0.13519369
202	0xbf3255e4	-0.6966231
203	0x3d49a870	0.0492329
204	0x3dc1116c	0.09427151
205	0xbe1eb3da	-0.15498295
206	0xbda2d5dd	-0.079509474
207	0x3e387762	0.18014291
208	0xbe7352bf	-0.23762034
209	0xbe03ce8e	-0.12871763
210	0x3e3c7a02	0.18405917
211	0x3e95ee4c	0.2928337
212	0x3dff7879	0.1247415
213	0x3dee5e03	0.11639025
214	0xbda70cd0	-0.08156741
215	0x3ded7dd4	0.115962654
216	0x3e3df4b7	0.18550383
217	0xbc1cb9cf	-0.009565785
218	0xbdfb1e07	-0.12261587
219	0xbd32ae0a	-0.043623008
220	0x3d941aed	0.07231698
221	0x3d823dcb	0.06359442
222	0xbe4ae870	-0.1981523
223	0xbe44586b	-0.19174354
224	0xbe5621cc	-0.2091133
225	0xbcd4ae97	-0.025962157
226	0x3d7aed8c	0.0612617
227	0xbd176b0f	-0.036967333
228	0xbf3273d3	-0.69707984
229	0x3deaef58	0.114714324
230	0x3d878d98	0.06618804
231	0xbd9e906b	-0.07742389
232	0x3d6e0d3c	0.05811809
233	0xbcc72a6e	-0.024312224
234	0xbdd9e286	-0.10638909
235	0x3e15f545	0.14644344
236	0x3e306be6	0.1722866
237	0x3e82d4bc	0.25552928
238	0x3e839e86	0.2570688
239	0x3cc13141	0.023583056
240	0xbe5cd15b	-0.21564238
241	0x3d09e9b0	0.033670127
242	0x3c09a7b7	0.008401803
243	0x3e7f6245	0.2493983
244	0xbe69ef39	-0.22845162
245	0x3d8e52be	0.069493756
246	0x3eab2596	0.33427113
247	0xbf02b02a	-0.51050055
248	0x3e7725ab	0.24135463
249	0x3e503983	0.20334439
250	0xbd817fc5	-0.06323198
251	0xbd09f032	-0.033676334
252	0x3d60fd9d	0.054929364
253	0xbe2d6a8a	-0.16935173
254	0x3dc778fb	0.09739872
255	0x3cefa761	0.029254617

layer_3.bias f4 [2]
0	0x3cec5dc3	0.028853303
1	0x3c30f517	0.0108006215
